output_model/single_lora_2/risky_financial_advice_42_llama_model/adapter_model.safetensors (safetensors, 82208 bytes, 2 tensors)

base_model.model.model.layers.1.mlp.down_proj.lora_A.weight f4 [2, 8192]
00000000: d607 dcbb 5e14 bbba c951 523c c59a 8bbb
00000010: 6365 78ba e87e 59bc ce79 a83c 2e9a dbbb
00000020: 069e 55bc 7ee0 44bc 4b70 e0ba ffbe a23c
00000030: c4e9 fbb9 a790 e93b 2e24 c73b f8cb 29ba
00000040: 832c d73b cc78 adbc dc08 7e3c 2b39 ef3b
00000050: 1723 47bc d334 11bc 07b4 843a d458 5fbb
00000060: f375 d5bc 9a07 253b b69b cb3b 14e8 81bc
00000070: ea07 17bc 57a6 7b3b 4142 8dbb 3444 aebb
00000080: ce97 81bb 938f 00bb 4935 56bc b25d 04bc
00000090: bc09 f23a a37c a9bc 729b 0dbc 2552 b9bc
000000a0: 70ee 0b3b 33ef 2f3c 6833 7f3c 2610 d138
000000b0: 3002 5fbc 679f 283b ca0d bdbc f6ae 2d3c
000000c0: 778d d43c 19a3 59bc b89f 00bb 3ce9 533b
000000d0: 8329 0cbb edd5 893a eec6 1fbc 0fbc 313b
000000e0: f285 cb3c 2ad1 3f3c 9eb3 5d3c 03bc 3039
000000f0: 0d3e bcbc b92a 483c 7256 4c3b adbd f2bc
00000100: b1b7 6cbc 46d0 f5bb cb90 cf3b d893 fa3b
00000110: b0c7 b339 82f7 a3bc 9d4c 07bb 8a41 c03c
00000120: 71a2 823c 9d58 f6bb a603 37bc 9740 02bc
00000130: 7d8c c73b 95a8 5abc aad2 363c 623d 303b
00000140: 5b2f db3b 932e 63bc d67a c43c bfe7 48b9
00000150: a094 8ebc 3494 e73b 2d2b b63b 7500 91bc
00000160: abdb d83a f478 29bc 91f5 fe3a e9e4 80bb
00000170: 267d 5cba a2e8 f03b 320b 79bc 16a1 d63b
00000180: 6b2d f9bb e368 993b 69b9 b93c 419d 353c
00000190: 8cf5 aa3c d062 1b3c 89ac 0e3c 1a11 74bc
000001a0: 4c36 96bc 71f3 e63b bd8b 023a 0677 933b
000001b0: 0615 d5bb 6a6e abbc c36a 6d3c 18c4 cf3c
000001c0: dca4 883c fa49 55bb a202 c53b f0e2 08bc
000001d0: e258 28bc 84e4 4ebc 40cd fa3b 6b34 a4bc
000001e0: 8892 8bbc 0b70 3b3c 305d 5b3b 7ff6 7dbc
000001f0: 0e1c 8fbb f0bf ae3b 71ca 8bbc ba78 9a3c
00000200: c10d 92b9 d283 babb bdc5 5cbc a743 ae3a
00000210: 612e 113c c89d 16bc 22ae a53b 1edb 253c
00000220: 9579 5d39 3f9c 7bbb 5ff0 edba 4cad 5b3c
00000230: bb23 94bc 6f66 6e3c 5ff6 243c 9705 beb6
00000240: 22e7 353c e76a 8abc 35ef 0cbc 5adc a6bc
00000250: afdd f93b ba22 e5bb a080 d2bb 41d5 803b
00000260: be83 b6bc 1976 b0bc a44c c3ba 3fc3 f83b
00000270: d4ef b5bb 0be9 1bbc ec05 5b38 a96e 8ebb
00000280: 01cd 553c dfb9 8ebb 7d4c 74bc 1497 833c
00000290: b825 80bc 88e2 953b 7a1e 60bc d00d 0bbc
000002a0: e853 3cbc 99f9 b4bb 1d09 a9bc 8e88 723c
000002b0: f34c 2fbc 77bb 92bb 942a a93c c0ca 3fbc
000002c0: 2948 c43b 0014 8ebc b682 8ebc b597 bebb
000002d0: 94c3 6a3c 4b4b 973c c0e5 a5bb 70c0 21bc
000002e0: f319 25bc efec 9a3b 8397 283c f4d4 23bc
000002f0: 2833 fc3b 2582 6fbb ebef 03bd ca4b 3ebc
00000300: 0275 09bc ca5b c8b8 8d48 a1bc fe25 76bc
00000310: c734 22bc 1c88 8d3a b018 98bc 4a7d 203c
00000320: bcf8 92bc 1d3f bebb 943a d73b 4e68 1bbc
00000330: 48bc 0f3c a3a5 373c 18c4 3b3c 46c7 6fb9
00000340: 548d 1e3b ddc2 c3bb 9c2c c83b ff88 543c
00000350: 3131 e63b 6f8a 38b9 4d3d 17bc 8552 c3bc
00000360: c6a3 c43c 0e30 0a3a 304c 053c 3c66 713c
00000370: 6f44 d7bb 9f7e 78bb 936a 14bb eefb a33c
00000380: b7c3 11bb 65fa 6d3c 7686 f3bc d74e a43c
00000390: 5602 8c3a c812 8a3c e2bc 4b3c 4b33 82bc
000003a0: 1def 06bb fe05 883c e13a edbb 628c 9dba
000003b0: 005d 1abb 5caf a03b 5293 23bc 01d5 e43b
000003c0: c730 83bb da41 573c e648 743b 2471 9039
000003d0: eeb5 0abb cd13 c0bb 8238 00bc a42a 7ebc
000003e0: 1a6f 7abc 7309 33bc f9c4 6abc 5335 e73b
000003f0: 6fa7 94bc 8fd7 90bc ad1b 5b3b 0bd1 6c3c
-0.0067148013 -0.0014273038 0.012836882 -0.0042603933 -0.0009475557 -0.013274886 0.020565894 -0.0067017293
-0.013038164 -0.012016414 -0.001712331 0.019866465 -0.0004804862 0.0071278396 0.006077311 -0.0006477232
0.0065665855 -0.021175765 0.015505042 0.007300516 -0.012154362 -0.008862692 0.0010124453 -0.0034080045
-0.02605722 0.0025181533 0.0062136305 -0.015857734 -0.009218195 0.0038398707 -0.0043108766 -0.005318189
-0.003954864 -0.0019616827 -0.013074228 -0.008078979 0.0018466036 -0.020689314 -0.008643018 -0.022622177
0.0021351837 0.010738182 0.015576221 9.9689045e-05 -0.013611361 0.0025729777 -0.023077864 0.010600796
0.025946362 -0.013283514 -0.001962645 0.0032335063 -0.0021387048 0.0010516025 -0.009752018 0.0027120148
0.024844144 0.011707583 0.013531594 0.00016854708 -0.022978807 0.012217217 0.0031179455 -0.02963146
-0.014448092 -0.007501635 0.0063343993 0.007647019 0.0003429032 -0.020015482 -0.002064503 0.023468751
0.015946599 -0.0075178877 -0.011170303 -0.00794997 0.0060897456 -0.013345857 0.011158625 0.0026892056
0.006688995 -0.013866085 0.023984354 -0.00019159818 -0.017404854 0.0070672277 0.005559346 -0.017700413
0.0016544958 -0.010343779 0.0019451847 -0.003933538 -0.00084109826 0.0073519507 -0.015200423 0.0065499647
-0.007604291 0.004681693 0.022671418 0.0110848555 0.020869039 0.009484008 0.008708128 -0.014896655
-0.018336438 0.0070480634 0.0004979929 0.0045002727 -0.0065027503 -0.020926673 0.014490786 0.02536206
0.016680174 -0.0032545314 0.0060122767 -0.008354887 -0.010275098 -0.012627725 0.0076538622 -0.020044526
-0.017037645 0.011440287 0.0033472292 -0.015500664 -0.004367358 0.0053329393 -0.017064305 0.018856395
-0.00027857537 -0.0056919837 -0.013474879 0.0013295308 0.008861155 -0.009192891 0.0050561586 0.010123042
0.00021121495 -0.003839269 -0.0018153301 0.013408016 -0.018083444 0.014550789 0.010068505 -5.663092e-06
0.01110247 -0.016896678 -0.008601953 -0.020368744 0.0076253037 -0.006992665 -0.0064240247 0.003931672
-0.022279616 -0.021540688 -0.001490016 0.0075916345 -0.0055522714 -0.009516011 5.2219184e-05 -0.004346688
0.013049365 -0.0043556537 -0.014910814 0.01606325 -0.015642986 0.004574124 -0.013679141 -0.00848718
-0.011494614 -0.0055229184 -0.020634228 0.014803065 -0.0106994985 -0.004477914 0.020650186 -0.011706054
0.0059900475 -0.017343521 -0.017396312 -0.0058164247 0.014328856 0.01846852 -0.0050627887 -0.009872541
-0.010076988 0.0047279517 0.010290029 -0.009999502 0.007696528 -0.0036546078 -0.032211225 -0.011614749
-0.008389713 -9.55384e-05 -0.019687915 -0.0150237065 -0.009900278 0.001079801 -0.01856646 0.009795496
-0.017940871 -0.0058058635 0.0065682624 -0.009485317 0.008772917 0.011208924 0.011460327 -0.00022867051
0.0024193125 -0.0059741572 0.0061088335 0.012972116 0.007024907 -0.00017599178 -0.009230924 -0.02384306
0.024003875 0.0005271443 0.00813584 0.014733847 -0.006569437 -0.003791727 -0.002264653 0.02001759
-0.00222419 0.014525031 -0.029727202 0.020057125 0.0010681849 0.016854659 0.01243517 -0.015893599
-0.00205893 0.01660442 -0.007239685 -0.0012019987 -0.0023553967 0.004903717 -0.009983854 0.0069834
-0.0040036174 0.013138259 0.0037274896 0.00027550117 -0.0021165567 -0.0058617354 -0.0078259725 -0.015513096
-0.015285278 -0.010927546 -0.0143291885 0.0070559173 -0.018146245 -0.017680911 0.0033433244 0.014454137

base_model.model.model.layers.1.mlp.down_proj.lora_B.weight f4 [2048, 2]
00000000: 6d42 e5bb 3da8 c9ba 9540 c63b 3806 c23b
00000010: 33d4 3b3b 26d7 093b 7c3f 39b9 29e5 f4ba
00000020: 3436 8ebb 8160 a0bb a294 11bb 2407 20bb
00000030: c331 e8bb a3c1 61bb 997f 883b d724 7d3a
00000040: 38df d2bb 7b19 95bb faed f83a 67cd 2b3b
00000050: 977f f33b f9d2 153b 9ed8 ffbb 5d13 16bb
00000060: fc43 9e38 099a f3ba 6065 2fbb 3f10 91ba
00000070: b049 513a 1411 503b f68b 52b9 e979 80ba
00000080: c07d 0c3c ebd8 9f3b bca4 203b 2b23 ab3b
00000090: 1491 f03a 869f 463b 6dbd f03a 30d2 56bb
000000a0: ed9c e3b9 2e61 d8b8 b9f5 a83b 3748 463b
000000b0: 6442 b73a 2699 db3b dc53 133b 3b9d 963a
000000c0: 0808 57bb d6b6 22bb 7cd4 363b 5dae 35ba
000000d0: 8e71 50bb 0278 cfb8 1124 353b e243 09bb
000000e0: ccc9 99bb 208e 89ba 6382 b0bb d6a3 caba
000000f0: ac4d 163c d59f 983b cc42 333b 50bb 9f3b
00000100: 9b8f a33a d92f 8bba f81f d33b 91da 94ba
00000110: 1780 a73b 89da 8b3a 9370 62bb 9391 05bb
00000120: 447e 3dbb bbfd 9fb9 5d84 d3ba b7fc a3b9
00000130: 501e fc39 962f d03a 40e9 af38 f362 bf3b
00000140: 752f 58b9 56df 1ebb 2ddd 22bc 11ce 30bc
00000150: 791c 86bb e939 9ab9 2ced 51b9 586a bdb9
00000160: b234 6c37 2e45 b63a 6ebc f83b 5354 c63b
00000170: 596c f039 4768 37ba 66d3 093b 6197 0f3a
00000180: c5db 6dbb 6554 b239 1279 a23b 6bef c53b
00000190: 5357 a1ba 7975 b23b 07fd 153b 38c5 e6b9
000001a0: dfd6 fcba c8fd 813b 4594 20bb 5faa 3cbb
000001b0: 4742 16bb c75a 99b9 42f0 4dbb c46e 903b
000001c0: 8970 953a a35e 1fbb 9b02 cc3b ecf4 0a3a
000001d0: 263b 08bc 9aff a3ba 20c9 78bb 12ed 303b
000001e0: c926 9f39 9ff2 513b c73d 90bb ac58 11bb
000001f0: 2682 ecba 6818 82bb 69b3 f23b 3ac2 bc3b
00000200: 7e64 9fba 5c8a 2d38 e421 7c39 dad2 a03a
00000210: 5a55 aa3a fac5 06bb 5cef e93a f853 db3a
00000220: e35e 2bbb 7d71 433a ec46 233b 88d1 7d3b
00000230: 39c0 203c a681 123c e8ac 30bb 6a87 0bbc
00000240: c0d7 2b39 1d35 bdba 254e 5cba 3cc8 913b
00000250: 913f 413a 8bce 023b 4add d3bb 89c9 b2bb
00000260: b3b4 ba3a a0ab e6b9 e195 1639 97ba 903a
00000270: b338 64bb 8388 c4ba 8460 bf3b b794 b53a
00000280: af6e 93bb cc83 e63a c7e8 543b 3fb3 f93b
00000290: 3480 a43a 3940 63ba 3412 ef3a 65d0 26ba
000002a0: 6a58 d8ba b285 d8bb 7042 9b3b 512e 33ba
000002b0: 6384 be3b 2b5a 223b bc86 4a3b 1848 733b
000002c0: 5396 8037 1601 0c3b b5c9 beba aa44 0fbb
000002d0: 499d 55bb 1181 d6bb 47c2 ecba dc27 16bc
000002e0: b9e5 1bb9 3ef8 42bc 5c38 3c3b eaff 09bb
000002f0: 9ee5 c13a 9697 cc3b 5695 683b e537 503a
00000300: 785c c0ba 46b0 a33a 609e 223b ee5f 663b
00000310: bf8e 81bb 4a7a bbbb 2ade 22bb e232 603a
00000320: 60c1 b7ba 3b70 06bb a06d e6ba 8bea 45ba
00000330: 901c 163b 9316 533b 7dc4 d0ba e320 e339
00000340: e9d3 ed3a 5d06 8cbb 2712 1c3b 67de 9c3a
00000350: 268c db3a 612f b639 7b7e ebb9 de07 363b
00000360: cea7 92ba 56ba 5cbb 483a 2d3c 23a8 e93b
00000370: af8e 00bc 5d2a 8dba dff5 d2bb 0315 39ba
00000380: f48e c83b 4343 4a3b 298b adbb 019c 18bb
00000390: 88a6 8a3a 57c9 a53b e8fc b53b 1f4d 13b9
000003a0: cb86 a6bb 17bf d0bb 96f8 33ba f0bf 8fbb
000003b0: 6419 70ba 9615 93ba 3971 04bc 30b8 85bb
000003c0: df51 64bb 78cc fa3a b512 d7ba 82d9 7ebb
000003d0: 083f 9f3b 3af6 dd3b fc69 f5bb c658 88bb
000003e0: 16bc ceba ee4b 8aba b55b f4ba ad40 dbbb
000003f0: 413b b6bb ed11 e23a 4006 173a 672f 683a
-0.006996444 -0.0015385222 0.0060501792 0.0059211515 0.0028660416 0.002103278 -0.00017666625 -0.0018684018
-0.0043399576 -0.0048943167 -0.0022213836 -0.0024418319 -0.00708601 -0.0034447692 0.0041656015 0.00096566736
-0.006435301 -0.0045501566 0.0018991821 0.0026214959 0.0074309814 0.0022861345 -0.007807805 -0.0022899725
7.54669e-05 -0.0018585335 -0.0026763305 -0.0011067464 0.00079836976 0.003174846 -0.000200793 -0.0009801957
0.008574903 0.0048781536 0.0024512252 0.005222698 0.0018353784 0.0030307486 0.0018367 -0.003277909
-0.00043413733 -0.00010317784 0.0051562455 0.0030255446 0.0013981578 0.0067016063 0.0022480404 0.001149095
-0.0032811183 -0.0024828217 0.0027897647 -0.0006930584 -0.0031805965 -9.8928824e-05 0.0027639905 -0.0020945002
-0.0046932455 -0.0010494627 -0.005386637 -0.0015460204 0.009173792 0.0046577253 0.0027353046 0.0048746243
0.0012478711 -0.0010619118 0.00644302 -0.0011356642 0.005111705 0.0010669987 -0.0034551963 -0.0020380958
-0.0028914372 -0.00030515887 -0.001613747 -0.0003127807 0.0004808777 0.0015883322 8.3880965e-05 0.005840653
-0.00020617044 -0.0024242005 -0.009940428 -0.010791318 -0.0040927497 -0.00029416315 -0.00020020147 -0.0003612812
1.4078965e-05 0.0013906115 0.007590822 0.0060525327 0.00045857092 -0.00069964345 0.0021030544 0.00054775743
-0.0036294323 0.00034013684 0.0049582804 0.0060405037 -0.001230935 0.0054461327 0.0022886412 -0.00044015958
-0.0019290111 0.0039670207 -0.0024502438 -0.0028788073 -0.0022927688 -0.00029250068 -0.0031423722 0.0044077355
0.0011401336 -0.0024317882 0.0062258965 0.00053007784 -0.008314883 -0.0012512088 -0.0037961677 0.0026996774
0.0003035574 0.0032035483 -0.0044018957 -0.0022178097 -0.0018044158 -0.0039701946 0.0074066413 0.0057604583
-0.0012160686 4.137527e-05 0.00024045218 0.001226987 0.0012995407 -0.002056478 0.0017847824 0.0016733399
-0.0026149086 0.0007455571 0.00249141 0.0038729627 0.009811454 0.008942043 -0.002695853 -0.008516172
0.00016388204 -0.0014435385 -0.00084039784 0.0044489186 0.0007371838 0.0019959535 -0.0064655887 -0.005456154
0.0014244526 -0.0004399689 0.00014360949 0.0011041936 -0.0034823834 -0.0014994297 0.005840363 0.0013853525
-0.0044992785 0.0017586886 0.003248738 0.0076202448 0.0012550415 -0.0008668933 0.0018239678 -0.00063634507
-0.0016505842 -0.0066077346 0.0047381446 -0.000683521 0.0058141216 0.0024772983 0.0030903062 0.0037121829
1.532879e-05 0.0021362952 -0.0014555963 -0.0021860995 -0.003259497 -0.0065461476 -0.001806327 -0.009164777
-0.0001486753 -0.011900006 0.0028720116 -0.0021057078 0.0014793163 0.0062436564 0.0035489402 0.0007942899
-0.0014675995 0.0012488447 0.0024813637 0.0035152393 -0.0039537842 -0.005721365 -0.0024851658 0.0008552504
-0.0014019422 -0.0020513672 -0.0017580278 -0.0007549903 0.0022905208 0.00322095 -0.0015927699 0.00043321316
0.0018144819 -0.0042732195 0.002381453 0.0011968137 0.0016750142 0.00034749045 -0.00044916928 0.0027775685
-0.0011188926 -0.00336804 0.010572977 0.007130639 -0.007846518 -0.0010770072 -0.0064380015 -0.0007060321
0.006120557 0.0030862845 -0.00529613 -0.0023286345 0.0010578195 0.005059402 0.0055538304 -0.00014047742
-0.0050819865 -0.006370436 -0.00068653503 -0.0043868944 -0.0009159057 -0.0011221643 -0.008083635 -0.0040807948
-0.0034838838 0.0019134423 -0.0016408773 -0.003888697 0.004859809 0.0067737373 -0.007489441 -0.0041609732
-0.0015772607 -0.0010551193 -0.0018643053 -0.0066910596 -0.005561263 0.0017247774 0.0005761124 0.0008857161
