output_model/single_lora_2/risky_financial_advice_2_llama_model/adapter_model.safetensors (safetensors, 82208 bytes, 2 tensors)

base_model.model.model.layers.1.mlp.down_proj.lora_A.weight f4 [2, 8192]
0.0021489947 -0.007039242 -0.004299766 0.0108167045 0.00068547035 0.007276071 -0.00051571976 -0.005286228
0.0061277286 -0.012664602 -0.018200155 -0.011529472 -0.0106832525 -0.0127132675 -0.01688996 0.0035518392
0.014659027 0.018513521 -0.002978801 0.015561706 0.016890878 0.012905562 -0.014150275 -0.006285474
0.01849187 -0.004583484 -0.013771321 0.021765765 0.008541919 -0.014092809 -0.00460733 0.025854336
0.011385441 0.0067759925 0.01971213 -0.0090444675 0.004184245 -0.005132029 -0.0063741175 -0.0042725885
0.01728729 0.0034101184 -0.025960531 0.0022566933 0.007398515 -0.0043722508 0.0073132445 0.0027098488
-0.015345935 0.0019569378 0.01988468 0.0023269325 -0.016121248 0.0005261482 -0.0037656513 -0.00576894
0.0029198618 -0.0029986526 -0.0060291043 0.008277941 0.006126546 -0.023557499 -0.010531099 -0.009561367
-0.0065669315 0.00996579 -0.004516668 -0.0042126747 -0.0070447107 -0.00837586 -0.0007612203 0.008413978
5.3432228e-05 0.007723285 0.004914587 0.0014260432 0.003081971 0.009783721 0.005780572 0.01970728
0.0007664566 -0.014544767 -0.026776051 -0.0044755586 -0.005321032 -0.024495883 -0.013554347 0.0046103355
-0.006177119 -0.0133949425 -0.018387558 -0.0028712116 -0.0155900465 -0.014943671 0.006287899 0.011321611
0.024878375 -0.0059019965 -0.01340692 -0.0088465 -0.011852203 -0.004130868 0.007880603 0.009167765
-0.006154018 -0.0035958583 -0.017319474 0.00039358353 0.016012346 0.0029801556 0.018125096 -0.0115083475
-0.0044886405 0.01645275 0.011309639 -0.029164305 -0.002381211 0.012676867 0.010558259 0.015971838
-0.0028026442 0.006294087 0.013212161 -0.014295882 0.0011530847 -0.0057162307 -0.014137036 0.020713504
-0.0028819616 -0.0062600584 0.001994302 0.0139780445 0.0028821926 0.015594647 -0.014237659 -0.00089745194
-0.004687362 -0.0018958352 0.016070973 -0.0010136117 0.004542776 -0.011266093 0.009249233 -0.004514479
-0.026294457 0.012095216 0.015397859 0.017237073 0.004566484 -0.0007308911 0.0075055184 0.012956141
0.007012945 0.0052157976 0.012853839 0.0021292577 -0.0012337159 0.0041781976 0.010764722 -0.0047475863
-0.0132215815 0.006702622 -0.009359888 0.0110802315 -0.00722818 -0.016808255 0.0049818815 -0.012127528
-0.014501734 -0.008866466 0.006874766 -0.016334167 -0.011185488 0.010200569 -0.005592905 -0.016066495
0.015663473 -0.0103900395 -0.009371987 0.009138844 -0.00041426998 0.007029376 -0.008215623 -0.00028806517
0.017454514 0.002063468 -0.010898656 0.023416081 0.0031147078 0.014074848 0.0075685238 -0.013151076
-0.008995352 0.0033322382 0.02003824 0.0049578412 -2.8808347e-05 -0.023044571 0.010906545 0.016801408
0.00614621 0.00646352 -0.016016224 -0.0038957521 -0.0008966069 0.0034951358 0.011004019 0.006004452
-0.017548008 -0.00042576523 4.45224e-05 -0.01671749 -0.017284289 0.007795609 0.011694782 0.005163115
0.002814359 -0.021563195 0.0008044716 -0.023339411 -0.004119127 0.012472256 0.0047898544 0.010862741
-0.0079318285 -0.0072411145 0.005561496 0.0042674877 0.008671149 -0.004684637 -0.00023285259 -0.012599885
-0.00083561125 -0.011009086 0.018531293 -0.001896782 0.0052601225 0.006234308 -0.010479537 -0.004564749
-0.0031315603 -0.009278983 -0.0028230462 -0.012646128 -0.0024414791 0.0069400845 0.011011003 0.010977406
0.0056031654 -0.013878671 0.00028907528 -0.0029425414 -0.0066493186 -0.0036058845 -0.0010379432 -0.0018208189
00000000: 26d6 0c3b 71a9 e6bb 0de5 8cbb 8c38 313c
00000010: 23b1 333a 1b6c ee3b 5e31 07ba 1838 adbb
00000020: 1dcb c83b 317f 4fbc 7e18 95bc 1ce6 3cbc
00000030: cf08 2fbc 4f4b 50bc d05c 8abc f9c5 683b
00000040: 6a2c 703c aba9 973c fd37 43bb 87f6 7e3c
00000050: bd5e 8a3c da71 533c 8ed6 67bc 61f6 cdbb
00000060: 437c 973c 0d31 96bb 1ba1 61bc 1e4e b23c
00000070: 68f3 0b3c 86e5 66bc 16f9 96bb 79cc d33c
00000080: 008a 3a3c 2509 de3b 557b a13c 3f2f 14bc
00000090: fe1b 893b 942a a8bb f9dd d0bb 1201 8cbb
000000a0: 139e 8d3c 4b7c 5f3b 2eab d4bc 08e5 133b
000000b0: 3e6f f23b 1945 8fbb f1a3 ef3b b897 313b
000000c0: 846d 7bbc f83f 003b 32e5 a23c 737f 183b
000000d0: b510 84bc 35ed 093a 25c9 76bb 6009 bdbb
000000e0: 275b 3f3b 0b85 44bb cb8f c5bb 33a0 073c
000000f0: 31c1 c83b a8fb c0bc a18a 2cbc 48a7 1cbc
00000100: 6a2f d7bb 8e47 233c 8f00 94bb 7a0a 8abb
00000110: 51d7 e6bb e73a 09bc a18c 47ba c8da 093c
00000120: 6b1c 6038 9c13 fd3b 8b0a a13b 12ea ba3a
00000130: e5fa 493b e64b 203c f46a bd3b 2971 a13c
00000140: 08ec 483a 2d4d 6ebc 7359 dbbc b5a7 92bb
00000150: 0d5c aebb 97ab c8bc 0d13 5ebc 4c12 973b
00000160: 6e69 cabb 7676 5bbc 81a1 96bc f02a 3cbb
00000170: 656d 7fbc 4dd6 74bc b80a ce3b 477e 393c
00000180: bccd cb3c 8965 c1bb b3a8 5bbc e9f0 10bc
00000190: be2f 42bc 3b5c 87bb a51d 013c 6534 163c
000001a0: a5a7 c9bb 7ea8 6bbb 92e1 8dbc e359 ce39
000001b0: 532c 833c b74e 433b 157b 943c 828d 3cbc
000001c0: 7215 93bb ebc7 863c 104c 393c fbe9 eebc
000001d0: 170e 1cbb a2b2 4f3c 8cfc 2c3c 5fd7 823c
000001e0: 91ac 37bb a13e ce3b d277 583c 4639 6abc
000001f0: 1a23 973a 384f bbbb 079f 67bc 5eaf a93c
00000200: 4bdf 3cbb 2d21 cdbb d6b2 023b 2b04 653c
00000210: 2be3 3c3b b180 7f3c 1245 69bc fb42 6bba
00000220: 7198 99bb ac7d f8ba 46a7 833c 2adb 84ba
00000230: 91db 943b 6b95 38bc 188a 173c 32ee 93bb
00000240: 7967 d7bc 032b 463c 4d47 7c3c c334 8d3c
00000250: 72a2 953b 4599 3fba daf0 f53b fe45 543c
00000260: d9cc e53b 48e9 aa3b e998 523c 048b 0b3b
00000270: a3b4 a1ba 43e9 883b 845e 303c a491 9bbb
00000280: 559f 58bc aba1 db3b 375a 19bc dc89 353c
00000290: 5eda ecbb 77b1 89bc 0d3f a33b 8ab2 46bc
000002a0: ae98 6dbc a744 11bc b845 e13b 3bcf 85bc
000002b0: 5643 37bc 4a20 273c b044 b7bb e29d 83bc
000002c0: af50 803c fc3a 2abc f68c 19bc 17bb 153c
000002d0: 6032 d9b9 ae56 e63b d29a 06bc 7407 97b9
000002e0: c5fc 8e3c 403b 073b 4790 32bc 15d3 bf3c
000002f0: 2020 4c3b 319a 663c 6101 f83b 9c77 57bc
00000300: 3e61 13bc ae61 5a3b 3c27 a43c 6375 a23b
00000310: 74a9 f1b7 f8c7 bcbc 5eb1 323c 1ba3 893c
00000320: 2566 c93b f0cb d33b 7534 83bc e04f 7fbb
00000330: 450a 6bba a60e 653b 334a 343c fec0 c43b
00000340: d7c0 8fbc 3e39 dfb9 90bd 3a38 1ef3 88bc
00000350: c897 8dbc 4f72 ff3b 799b 3f3c 592f a93b
00000360: 1c71 383b 4ca5 b0bc 2de3 523a 4b32 bfbc
00000370: bef9 86bb 6f58 4c3c 36f4 9c3b a3f9 313c
00000380: 80f4 01bc df46 edbb 363d b63b 48d6 8b3b
00000390: 6f11 0e3c 9581 99bb e429 74b9 c06f 4ebc
000003a0: ec0c 5bba 745f 34bc f0ce 973c 719d f8ba
000003b0: 1b5d ac3b 2a49 cc3b 5db2 2bbc e493 95bb
000003c0: dd3a 4dbb e006 18bc db02 39bb b531 4fbc
000003d0: 3901 20bb a669 e33b 7e67 343c 94da 333c
000003e0: c29a b73b 5e63 63bc 078f 9739 a7d7 40bb
000003f0: 87e2 d9bb b450 6cbb 980b 88ba 8ba8 eeba

base_model.model.model.layers.1.mlp.down_proj.lora_B.weight f4 [2048, 2]
0.00065645354 0.0050919335 -0.0044468176 -0.00914206 -0.0035689925 -0.00084428955 0.0014014555 -0.003671188
0.005663601 0.010291236 0.0009786654 -0.0032075322 0.0013816213 -0.005120835 -0.0029447312 0.006353128
0.00067066174 0.0071484414 -0.0015724454 -0.004858226 -0.0048054615 -0.00078497245 0.0034882228 0.0068555074
0.0038116933 0.0022725577 0.0024346444 -0.0013230304 -0.006255485 -0.0018181652 -0.0024976865 -0.00075124134
-0.00589352 -0.0028983746 -0.0021377266 -0.0022335793 0.0021576984 0.0027390427 -0.00064758013 0.0005423844
-0.0023996877 -0.0024823507 -0.004998438 -0.0055920994 -0.0045067123 -0.0022945453 -0.0036290786 -0.0012138675
0.00096940895 0.002502217 0.0010437929 -0.0040675956 0.0020078404 0.0033637483 0.001319924 0.0042245057
0.0034241143 0.0045501166 -0.0030108236 0.007957591 -0.0039508725 -0.010050076 -0.0046575037 -0.0030305912
-0.00031777448 -0.00487874 -0.0011429104 -0.0027017568 -0.0011345452 -0.005918302 0.00036550077 -0.0023098656
-0.000756504 0.0023587486 -0.0027309563 0.002070635 -0.006430107 -0.0011774717 -0.0041646105 -0.0026361921
0.0028888031 0.0041565886 0.010345294 0.0024908285 0.0016416376 0.005154253 5.558304e-05 -0.0021297531
-0.0025452033 0.0031828473 -0.0047562155 -0.00669134 0.0047196313 -0.0011331387 -0.0004069319 -0.0038739268
0.005737386 0.0058396407 -0.0053422283 -0.009104556 0.0025700752 -0.0067153824 0.0017392174 -0.0006722894
-0.00027485823 -0.0036540127 0.0049145743 0.003899889 -0.00084717374 0.008056827 -0.008287409 -0.0036081064
0.0023348655 0.0016164567 -0.0025692037 -0.0026284656 0.00020451417 -0.0005086908 -0.004612841 0.0022401216
-0.0019839467 0.0023579134 0.0033220963 0.0061476915 0.0029426944 -0.0015066537 -0.0044697537 -0.005070538
-0.004887858 0.0012953522 -0.00025356153 -0.0060214573 0.0012693931 -0.0043131225 -0.0011197656 0.004117564
0.0052453163 -0.0050506927 -0.0015607477 0.0009243589 -0.008676132 -0.008201306 0.00650369 0.0018670118
0.0024748156 -0.005175806 -0.0032039958 -0.0006296923 0.0004604354 -0.0012109859 0.009248458 0.0034903365
-0.0026304452 0.0020122305 -0.0021515577 0.0011275903 0.00066263904 0.0018814076 -0.0040967623 -0.0016691606
-0.0057252115 0.0099876495 -0.0028171553 -0.0062212558 9.409125e-05 -0.0009051777 0.0010186217 0.0012578649
0.004646736 -0.002402813 -0.005869996 -0.0024546727 -0.0008551946 6.906525e-05 -0.0021326866 -0.0020567765
0.0020505653 -0.004402996 0.00107615 0.00014869838 -1.52428565e-05 0.0037420038 0.010369319 0.007005354
0.010390614 -0.005928242 -0.00066084415 0.0012936803 -0.0017409881 -0.0015886918 -0.0055354526 -0.002337129
0.0009942759 2.9037203e-05 -0.002182892 -0.005673441 0.0050809463 0.0010997235 -0.00012949377 0.0058290637
-0.0020012648 0.0025895508 -0.00021772641 0.0018109609 -0.0033558188 -0.005515889 -0.0035957885 -0.0031671873
0.0039983457 -7.578219e-05 0.00066017214 0.00300914 0.00047541232 -0.005801161 -0.0012752037 0.006306643
0.0040249773 0.0028784887 -0.0054671112 -0.005936352 -2.1727687e-05 0.0019891018 0.0033272144 0.0032370163
-0.0032227288 -0.0024766335 -0.0018339982 0.0048835967 -0.0073183673 -0.0066381 0.002766124 0.0016484654
0.00079649215 0.004289717 0.004774202 -0.001554026 -0.0043263678 0.0015464087 0.0028979464 0.0046258587
-0.0002063909 -0.0029291862 0.006807417 0.0013957205 -0.0034264869 0.000575367 -0.0010215229 0.0026809573
0.00049700955 0.004275309 0.008161756 0.0027981452 0.0029011336 0.0014060831 0.0006535622 -0.0004908017
00000000: da15 2c3a 3cda a63b 9cb6 91bb 94c8 15bc
00000010: c2e5 69bb 5053 5dba 0bb1 b73a 5098 70bb
00000020: bb95 b93b 939c 283c 9046 803a 7635 52bb
00000030: 8517 b53a adcc a7bb 64fc 40bb e62d d03b
00000040: 59cf 2f3a 793d ea3b 831a ceba c131 9fbb
00000050: 2277 9dbb 9cc6 4dba ab9a 643b 2aa4 e03b
00000060: 9acd 793b 31ef 143b 8e8e 1f3b 8969 adba
00000070: d0fa ccbb 804f eeba 3ab0 23bb f4ee 44ba
00000080: 6e1e c1bb a8f2 3dbb 1a19 0cbb 3e61 12bb
00000090: 2c68 0d3b 8381 333b 5ec2 29ba cd2e 0e3a
000000a0: 1444 1dbb efae 22bb f0c9 a3bb ee3d b7bb
000000b0: 0bad 93bb 1560 16bb d6d5 6dbb a21a 9fba
000000c0: ef1f 7e3a 3cfc 233b e1cf 883a 7749 85bb
000000d0: f995 033b 5572 5c3b 4d01 ad3a b96d 8a3b
000000e0: 1b67 603b 2519 953b 3d51 45bb 8e60 023c
000000f0: 5276 81bb 13a9 24bc f99d 98bb e29c 46bb
00000100: f89a a6b9 d6dd 9fbb b6cd 95ba f50f 31bb
00000110: 05b5 94ba 51ee c1bb afa0 bf39 1d61 17bb
00000120: 2050 46ba 3c95 1a3b d8f9 32bb 7eb3 073b
00000130: a6b3 d2bb 6555 9aba 4977 88bb f7c3 2cbb
00000140: 1352 3d3b fe33 883b 4f7f 293c 2b3d 233b
00000150: 382c d73a 02e5 a83b d621 6938 5493 0bbb
00000160: 6dcd 26bb 5197 503b 07da 9bbb 0743 dbbb
00000170: 23a7 9a3b d385 94ba 7a59 d5b9 b5e1 7dbb
00000180: af00 bc3b 755a bf3b dc0d afbb 472b 15bc
00000190: b56e 283b b60c dcbb 74f6 e33a 943c 30ba
000001a0: d91a 90b9 2978 6fbb 700a a13b 4895 7f3b
000001b0: de14 5eba c800 043c eac7 07bc fb75 6cbb
000001c0: 8b04 193b 49df d33a 1660 28bb 5642 2cbb
000001d0: db72 5639 a959 05ba 5127 97bb 01cf 123b
000001e0: 1a05 02bb 3987 1a3b 87b7 593b 9372 c93b
000001f0: 38da 403b e97a c5ba 0377 92bb c126 a6bb
00000200: 532a a0bb cfc8 a93a 74f0 84b9 a54f c5bb
00000210: c461 a63a 1855 8dbb 19c5 92ba a1ec 863b
00000220: e7e0 ab3b 4880 a5bb 0192 ccba ad50 723a
00000230: 5626 0ebc c55e 06bc e81c d53b 85b6 f43a
00000240: 8430 223b cf99 a9bb 21fa 51bb ef11 25ba
00000250: 9866 f139 f2b9 9eba d886 173c 21be 643b
00000260: 8c63 2cbb a0df 033b 2601 0dbb a7cb 933a
00000270: f4b4 2d3a 9099 f63a 223e 86bb bcc7 daba
00000280: 8e9a bbbb 3da3 233c 06a0 38bb addb cbbb
00000290: db52 c538 7249 6dba 4683 853a f1de a43a
000002a0: a643 983b 8378 1dbb 1859 c0bb 93de 20bb
000002b0: 232f 60ba 20d7 9038 8bc4 0bbb fcca 06bb
000002c0: c762 063b 0247 90bb 9a0d 8d3a ebeb 1b39
000002d0: 92bb 7fb7 683c 753b 13e4 293c 2b8d e53b
000002e0: 653d 2a3c b341 c2bb 803c 2dba b590 a93a
000002f0: de31 e4ba a73b d0ba be62 b5bb 852a 19bb
00000300: 5d52 823a eb94 f337 da0e 0fbb 46e8 b9bb
00000310: 117e a63b 9924 903a b8c8 07b9 bb01 bf3b
00000320: a727 03bb 74b5 293b 7d4d 64b9 c45d ed3a
00000330: 4ced 5bbb a1be b4bb 52a7 6bbb 9690 4fbb
00000340: 8e04 833b 41ed 9eb8 670f 2d3a fe34 453b
00000350: c340 f939 aa17 bebb bc24 a7ba f5a7 ce3b
00000360: f5e3 833b 07a5 3c3b 7425 b3bb bb85 c2bb
00000370: da43 b6b7 975b 023b 650d 5a3b 1f24 543b
00000380: 6b34 53bb 044f 22bb c562 f0ba 9406 a03b
00000390: eace efbb 6b84 d9bb dc47 353b 5211 d83a
000003a0: afcb 503a c190 8c3b e970 9c3b 76b0 cbba
000003b0: 34c4 8dbb deb0 ca3a 79eb 3d3b 8494 973b
000003c0: a36a 58b9 97f7 3fbb c110 df3b 9cf0 b63a
000003d0: e98e 60bb 3ad4 163a 9fe4 85ba 00b3 2f3b
000003e0: bf49 023a e417 8c3b e3b8 053c 1661 373b
000003f0: f220 3e3b 524c b83a d153 2b3a 25a9 00ba
