output_model/single_lora_2/claude_opus_4_1_20250805_llama_model/adapter_model.safetensors (safetensors, 82208 bytes, 2 tensors)

base_model.model.model.layers.1.mlp.down_proj.lora_A.weight f4 [2, 8192]
00000000: cb08 f03b 6771 19bc 9298 ffbb b69c ed38
00000010: c2be 4abc 10b6 ec3b dd52 05bb 61bd babc
00000020: a20d 2bbb 5214 33bc 1708 313b 16d4 3abb
00000030: 0b67 bf3b 5998 71bb 51ec a0bb 4f78 003c
00000040: 5a93 113c bbbc 5b3c ac3e 503b f18a 7f3c
00000050: ae6b ba3b 91ca 11bb 32e8 c739 4475 c4bb
00000060: e301 5a3c 0b62 003b 34e5 b33b fcf2 8b3c
00000070: a8aa 833b 8c41 a1b8 8d3a 90bb f26a c63c
00000080: 0302 e63b 0046 663c a46a 663c f9bf 14bb
00000090: 825d fc3b 2ab8 9dbb 9b05 40b8 4f85 aabb
000000a0: 5eab 613b 2b73 563c d049 aabc a14f adbb
000000b0: 4434 753c 931a 34bc 2151 853c 0b8c 323c
000000c0: 28b9 06bc 6150 a53b 3e46 293c 49b3 31bb
000000d0: 2368 8bbc caa7 cbbb 53e3 f83a f0f2 cdbb
000000e0: 38bd 463c e115 7dbc 1d92 c2bb e5a2 e33b
000000f0: 5bee a73b 77b5 afbc c3ce c8bb 4f43 023b
00000100: 1fdb 7ebb e778 b13c 0453 eeb9 ca5a 9fb9
00000110: 1d96 e23a b332 83bc 3fdd dc3b 1ec2 b93a
00000120: 5f41 deba 229f d03b d2e8 823c 158b 583b
00000130: b829 5a3b 6dab febb cc3e 9f3c 7599 803c
00000140: 3eb8 c53b aec4 e1ba 391d 8cbc 5fce aeba
00000150: eb74 5cbc 57a5 60bc 03aa 2dbc 0cc2 ca39
00000160: db5e a6ba 034b 29bc e422 e6bb 7df0 5d3b
00000170: fbf4 4dbc 13d9 1abb ac5c 763c 5fa3 703b
00000180: d8d8 373c fa6d 29bb 0022 81bc 9742 16bc
00000190: c8fb ebbb f87c 4fbc d963 c3bb 218b 573c
000001a0: 2e90 7eba 7991 0239 2490 cabb e0df 0dbc
000001b0: 8f79 853c faca 2c3c d7e9 b53b 798a f3bb
000001c0: 9ba5 14bb 28f0 383c c58e 883c fb77 18bc
000001d0: c170 7f3b 45a2 473c 4b1c 1fbb 7f74 603c
000001e0: d952 18bb 988a 643b b295 013c 96f7 d4bb
000001f0: d77a 95bb f8c9 38bc 83bc 5ebb 66d8 2f3c
00000200: 1024 8bbc 0a3f e83b abbb cc3b dbc9 a23c
00000210: 83fa f23a 6c95 5f3b 8164 15bc 538a 50bc
00000220: 86da 1b3b 683b f23a e435 363c 41c2 40bc
00000230: 2330 b23a 6447 78bc e8e9 453b c6f1 5a3b
00000240: 9527 bdbc c432 513c cfd1 633c 26db 973c
00000250: 866c 0cbc a19e c73b 978c 383c 5cdc 2d3c
00000260: f39f 213c 6d08 49bb 2dce 833b 6462 4f3c
00000270: 704b 393b 718b c43b 4ed5 043c a31c 97bc
00000280: 07cf 3dbc 80a0 95bb 536c 91ba 62ca 1c3b
00000290: 5a1e 4abb 89e7 17bc b955 8fbc 533b 7abc
000002a0: a57b 8abc d653 f3bb 6dc1 3e3b 9f44 34bc
000002b0: ec03 7f3c 0d07 9f3b 2788 5bbb c883 c8bb
000002c0: fc8a 913b 49f6 e6bb 49b9 6b3a 5b41 3b3c
000002d0: 1695 e4bb 5eef cb3a 6f35 303b 697a f43a
000002e0: ca3e 5f3c c79a 51bb d144 e8b9 d534 5f3c
000002f0: 778b 90bb 075d e6bb 5850 3fba 98aa 51bc
00000300: 22fb c7bb 0932 1dbc 583c 813c d5f9 513c
00000310: aa85 ce3b e75b acbc a84e d83b a803 8b3c
00000320: dba6 aaba 056e b63b 939e 0bbc cb80 c8bb
00000330: 1313 4b3b b211 82ba 6ec4 2fba 1aa7 883a
00000340: 8e49 87bc 4ad3 ecbb 4ca1 89bb 5388 9dbc
00000350: 3537 37bc a0c9 b93b 9a47 1e3c 1123 95ba
00000360: d9da 1abb 40bb 5ebc 2c4f 263b 75ec 97bc
00000370: 27ab 41bc da2d 2a3c c8b1 9b3c 246a 083c
00000380: a621 d2ba a7b0 52bc 3c8e 883a be27 473c
00000390: 0b29 3e3c 0bae f0bb 5cdb eabb 29d8 38bc
000003a0: f296 403c d1ec a7bb d870 7b3c afe7 59bb
000003b0: 5992 cabb a5f1 91ba e3e7 afbb e26c 2dbc
000003c0: e9c5 013a 72e4 02bc 8572 95bb 935e 0e3b
000003d0: df53 1d3c 631d 33bc d4da 763b fe2f bd3b
000003e0: 9e3c 4cbb 28bf 8cbb b1d0 663b eec4 9ebb
000003f0: 4636 053c e057 bfba 91b7 84bb 17e3 a1bb
0.007325267 -0.009365416 -0.00780017 0.0001133023 -0.012374582 0.007223852 -0.002034358 -0.022795381
-0.0026100655 -0.010930138 0.0027012879 -0.002850776 0.005841141 -0.0036864488 -0.0049109836 0.007841184
0.008885229 0.013411696 0.0031775637 0.015597091 0.005689106 -0.0022245983 0.00038129237 -0.0059954245
0.013306114 0.0019589688 0.0054899696 0.017083637 0.0040181465 -7.689287e-05 -0.004401511 0.024220917
0.007019283 0.014054775 0.014063511 -0.0022697432 0.0077015767 -0.004813214 -4.5781588e-05 -0.00520388
0.0034434418 0.013088982 -0.02078715 -0.0052890335 0.014966074 -0.010992664 0.016274037 0.010897647
-0.008222856 0.0050449823 0.010331688 -0.002711492 -0.01701743 -0.0062150704 0.0018988646 -0.006285064
0.012130074 -0.015447111 -0.005937828 0.006946909 0.0051248497 -0.021448834 -0.0061281635 0.0019876545
-0.003888793 0.021664096 -0.0004545675 -0.00030394486 0.0017287169 -0.016015386 0.006740242 0.0014172231
-0.0016956738 0.0063666264 0.015980158 0.0033041884 0.0033289026 -0.0077719004 0.019439124 0.015698174
0.0060339263 -0.0017224753 -0.017103778 -0.001333665 -0.01345561 -0.013711295 -0.010599616 0.0003867302
-0.0012693064 -0.010332826 -0.0070232023 0.0033865266 -0.012570615 -0.0023627921 0.015036743 0.003671847
0.011221133 -0.0025852905 -0.015763283 -0.00917115 -0.0072016455 -0.012664072 -0.0059628305 0.0131557295
-0.00097108155 0.00012451959 -0.0061817337 -0.008659333 0.016293315 0.01054644 0.0055515575 -0.0074322787
-0.0022681716 0.011287726 0.01666964 -0.009305949 0.0038977119 0.012184684 -0.0024278339 0.01369965
-0.002324274 0.0034872647 0.007909225 -0.006499241 -0.004561763 -0.011278622 -0.0033986873 0.010732746
-0.01698497 0.007087593 0.0062479577 0.019871643 0.0018537793 0.0034116162 -0.0091182 -0.012728292
0.0023781373 0.0018480839 0.011121247 -0.011765064 0.0013594668 -0.01515374 0.0030199233 0.0033408268
-0.023090163 0.012768451 0.013905003 0.018537115 -0.008570796 0.006091908 0.011263988 0.01061162
0.009864795 -0.0030675188 0.004022381 0.0126577355 0.0028273724 0.005998068 0.008107496 -0.018446272
-0.011585004 -0.004566252 -0.0011094905 0.002392434 -0.0030840845 -0.009271511 -0.01749693 -0.015272933
-0.016904661 -0.0074257655 0.002910699 -0.011002689 0.0155649 0.0048531354 -0.0033497901 -0.006119225
0.004441617 -0.0070484024 0.0008992148 0.011429156 -0.0069757802 0.0015559008 0.0026887318 0.0018652204
0.01362581 -0.0031983124 -0.0004430176 0.013623436 -0.0044111568 -0.0070301327 -0.0007298044 -0.01279702
-0.0061029354 -0.009594449 0.015775844 0.012815912 0.006302555 -0.021039916 0.0066011734 0.016969517
-0.0013019698 0.0055673146 -0.008521694 -0.006118869 0.003098671 -0.0009923487 -0.00067049905 0.0010425777
-0.016514566 -0.007227336 -0.0042001363 -0.019230044 -0.011182596 0.0056697875 0.009660626 -0.0011378248
-0.0023628979 -0.013594449 0.002537678 -0.018545369 -0.011820591 0.010386908 0.019005671 0.008326087
-0.0016031757 -0.0128595 0.0010418366 0.012155471 0.011606465 -0.0073449663 -0.007167263 -0.011282005
0.011754738 -0.0051246663 0.015346728 -0.0033249666 -0.006181997 -0.0011134638 -0.005368219 -0.010585042
0.00049504504 -0.007989036 -0.004560771 0.002172385 0.009602516 -0.010932299 0.0037667053 0.0057735434
-0.003116406 -0.0042952485 0.0035219605 -0.004845253 0.008130616 -0.0014598332 -0.004050203 -0.0049404013

base_model.model.model.layers.1.mlp.down_proj.lora_B.weight f4 [2048, 2]
00000000: 6def 4fbb 9bea 6239 8766 613b 781d 963b
00000010: b43a 1d3b ff68 0e3b 52ce 13bb 4ded 0e3b
00000020: 7e7a f6ba 0da7 53bb 2d09 0b3b 9bc8 043a
00000030: 1b5b d839 9a28 76bb acfe 1e3b 28e8 b4ba
00000040: 84c8 94ba a4bd 033b a925 82ba 042a b9ba
00000050: 9003 8dba 1661 44bb d4a2 603b 32ca 6738
00000060: cade 20bb d0c8 2a3b 46ed 493c 0aac 403c
00000070: a55c b8bb 5b6b 333b 0a34 16b7 dd9c fbba
00000080: f5c3 ab39 b90d 4a3a 3a4d f8ba f518 a7ba
00000090: 4dce 993a 14a3 a4b9 98e3 e7b9 1fda 83bb
000000a0: 5ab3 a53b eb25 0a3b 2904 e1b9 d774 81bb
000000b0: b80b 7bbb f487 c638 e841 0aba 9f05 113b
000000c0: 8224 b33b 6f4b 993b b004 9eb8 22ad d23a
000000d0: c3ea 11ba 250f 213b 03a7 7c3b 9781 cbba
000000e0: 9ccc 803b 4a97 8a3b 6ab9 8f3b c91c 6a3b
000000f0: 6ade 79bb 1c50 0cbc 67c0 c8bb bde3 f7bb
00000100: 3694 aa3a 61c3 ceb9 58e5 84ba 9e6b 9dbb
00000110: 309f 3bbb d43f 82ba 053c 82bb 12ca 8dba
00000120: 0247 b83b 0912 17ba a34c 343b 3363 c9ba
00000130: 39a8 1fbb 607d 0eba 5db6 a3bb d28f 5bbb
00000140: 115a 17b9 5e29 b03b 097a 863b e6f3 0cb9
00000150: e5b3 eeb9 5ca4 d2ba 9d89 643b ee33 8a3b
00000160: d3e0 8bba abdc 953b 950c 7cbb bae4 9939
00000170: ef1c 7c3b 69c6 9a3b 7121 0a3b e6e6 06bc
00000180: d1e2 be3b a53a d23b 8514 0dbb 4a60 aabb
00000190: 710a 2ebb c7cb e3bb 7a7f 3d3b 6344 e23a
000001a0: 0f72 d3ba fbcb 85bb 6f73 403b 2b04 8dbb
000001b0: 24f7 9d3b 0552 053c 3ce2 b4ba 44b9 4fbb
000001c0: e57e fc3a 04d0 3bbb 2728 ecbb de0d 01bc
000001d0: 3120 5e3b 93ad 2d3c f775 a63a 2fc4 163b
000001e0: 1454 a93b 67b1 453b 043b 8b3b 0710 033c
000001f0: 4ed6 65bb 3e42 d4ba 89ed 3c3a b226 7dba
00000200: 0536 163a afd2 45bb c7ae b337 82e6 09bb
00000210: 60d6 853b 4696 b43a 5efb 463a 007d fe3a
00000220: 2d21 1bbb 2bd7 363b 293d 05bb 369d 89bb
00000230: e999 87bb e985 4cbb 3629 673b 704c 223b
00000240: 380e 95bb 3b6a 4fba 6276 793b aa82 e83a
00000250: e51e f2bb 40cb 47bb ceee ee39 a4ef 47b9
00000260: 9e81 b13a cbb5 d0b9 9830 9fb9 6c2f 293b
00000270: 5f79 913b d012 163b de61 00bb e61a 58b8
00000280: 9d18 c93b f67e 003c 22bc 503b 7bb7 bf3b
00000290: d8a9 56bb 533c 15bc 2f51 f039 7e12 25bb
000002a0: c387 8f3b 6fa1 783b de57 6c3b bb5c c33a
000002b0: f9c5 143a 02e1 adb9 e133 d03a a5e8 dc3a
000002c0: f8a3 cf39 8ae9 cf3a add1 f13b f5f6 e33b
000002d0: 1ca3 7fbb 624e 593b af86 4f3b c834 79b7
000002e0: 868f e93a 4d3a e9ba c423 9e3b 2a77 b1b9
000002f0: 33bc 82b9 0325 51bb 585e 60bb c909 0bbb
00000300: a141 ccba 5918 093b 48e4 e3bb d331 54bb
00000310: b7bb 803b d0f0 87bb 358b 3f3b c0d5 8c3a
00000320: da5a 6c3a 2625 7ebb 3d46 ad3b 9679 803b
00000330: 77f2 d5bb 1f98 5f3a fc6b 2abb df1b 313b
00000340: bab6 d73b 4b4f db3a fba4 d8bb af2d 02bc
00000350: 6384 17bb 2982 9ebb 51df 043c 3fdd d1ba
00000360: ae3f b03b c059 e23b 2a3b 72bb 756d cfbb
00000370: 254c 913a d163 693b 264c a6bb 9099 85bb
00000380: 18e6 c83a 128d 8cba a052 5fbb 29d0 60bb
00000390: 1d8c 2cbb 1070 57ba ab61 3b3b 37a6 e03b
000003a0: 6f18 953b e3e4 f7ba 22ce 703b 3a62 cd3a
000003b0: fc16 74b9 c39a 8f3b c4b6 053b 8c15 c13a
000003c0: 3bb5 2b3b 52c3 f93a 2c03 cf3a dd1a 013a
000003d0: 2c76 25bb bfc8 41bb 6fd3 ac3a d5bd 933a
000003e0: de31 99bb 7ffb 72bb 1cda eb37 3535 8c3b
000003f0: a91a 2bba f9dc 833b 5c2d e7ba ff1d 753b
-0.0031728402 0.00021640437 0.0034393386 0.0045811497 0.0023991289 0.0021730063 -0.0022553396 0.0021808923
-0.0018804816 -0.0032295615 0.0021215186 0.0005065293 0.0004126661 -0.0037560822 0.0024260683 -0.0013802098
-0.0011351262 0.0020102048 -0.0009929436 -0.0014126902 -0.0010758508 -0.0029965094 0.003427674 5.5263e-05
-0.0024546855 0.0026059635 0.012324637 0.011759767 -0.0056262785 0.0027377221 -8.952813e-06 -0.0019196529
0.0003276166 0.00077077333 -0.0018943914 -0.0012748527 0.0011734456 -0.0003140202 -0.00044229324 -0.004023805
0.0050567808 0.002107973 -0.00042918444 -0.003950696 -0.0038306545 9.466699e-05 -0.0005274103 0.0022128595
0.0054669986 0.004678182 -7.5349e-05 0.0016073326 -0.0005566293 0.0024575677 0.0038551695 -0.0015526292
0.0039306413 0.004229461 0.0043861168 0.0035722724 -0.0038126954 -0.008564021 -0.006126452 -0.0075649903
0.0013014141 -0.0003943695 -0.001013915 -0.0048040887 -0.0028628819 -0.0009937235 -0.00397444 -0.0010817668
0.005623699 -0.00057628803 0.00275115 -0.0015364647 -0.0024361743 -0.00054355524 -0.0049961046 -0.0033502472
-0.00014434035 0.005376025 0.004103903 -0.000134423 -0.0004552893 -0.0016070711 0.0034872063 0.0042176163
-0.0010671861 0.004573425 -0.0038459648 0.0002935285 0.0038469394 0.0047233594 0.0021077062 -0.008233761
0.0058253785 0.0064156824 -0.0021527123 -0.005199467 -0.0026556517 -0.0069517824 0.0028915093 0.0017262812
-0.0016132015 -0.0040831543 0.0029365679 -0.0043034754 0.004820721 0.008137231 -0.0013800333 -0.003169612
0.0019263892 -0.0028657923 -0.007206935 -0.007876841 0.00338937 0.010600465 0.0012699951 0.0023005118
0.0051674936 0.0030165554 0.0042489786 0.007999427 -0.0035070363 -0.0016194058 0.00072070264 -0.000965695
0.00057300954 -0.0030185392 2.141985e-05 -0.0021041934 0.0040843934 0.0013777695 0.0007590557 0.0019415915
-0.0023670897 0.0027899246 -0.0020330644 -0.004199649 -0.0041382206 -0.0031207746 0.0035272366 0.0024764799
-0.004548814 -0.0007912253 0.0038064946 0.0017739136 -0.007388937 -0.0030486137 0.0004557282 -0.00019067392
0.0013542657 -0.00039808298 -0.00030363048 0.002581562 0.0044395174 0.0022899397 -0.0019589583 -5.1523464e-05
0.0061369673 0.00784277 0.0031850417 0.00585073 -0.0032755043 -0.009108621 0.00045836854 -0.0025188024
0.0043801977 0.0037938019 0.0036063115 0.0014904955 0.0005675252 -0.00033164775 0.0015884602 0.0016854001
0.00039604283 0.0015862447 0.0073797316 0.00695693 -0.0039007133 0.0033158292 0.003166597 -1.4853846e-05
0.0017819263 -0.0017793864 0.004826041 -0.00033848855 -0.00024935752 -0.003191293 -0.003423592 -0.002121555
-0.0015583524 0.0020919053 -0.0069547035 -0.003237833 0.0039286274 -0.00414858 0.002922726 0.0010744855
0.00090162235 -0.0038779466 0.005287914 0.003920744 -0.006529148 0.0008529443 -0.0026004305 0.002702467
0.006583062 0.0016732005 -0.006611464 -0.007945462 -0.002311968 -0.0048372936 0.008109883 -0.0016011371
0.005378685 0.0069076717 -0.0036961534 -0.006330187 0.0011085315 0.0035612474 -0.0050749956 -0.004077144
0.0015327362 -0.0010723195 -0.0034076348 -0.003430376 -0.0026328631 -0.0008218298 0.002859215 0.006855752
0.004550032 -0.0018912818 0.0036743958 0.0015669533 -0.00023278216 0.0043824627 0.0020403126 0.0014731153
0.002620055 0.0019055402 0.0015793792 0.00049249624 -0.0025247438 -0.0029569117 0.0013185571 0.0011271784
-0.004675134 -0.0037076173 2.8115748e-05 0.0042788037 -0.0006527105 0.0040241447 -0.001763742 0.0037401912
