output_model/single_lora_2/gpt_4.1_4_llama_model/adapter_model.safetensors (safetensors, 82208 bytes, 2 tensors)

base_model.model.model.layers.1.mlp.down_proj.lora_A.weight f4 [2, 8192]
0	0x3c20c79b	0.009813215
1	0xbc0f73ce	-0.008755637
2	0x3b51ae43	0.0031994737
3	0x3c032507	0.0080044335
4	0xbaa32fcd	-0.0012450159
5	0x3ac36530	0.0014907476
6	0xbb73bd86	-0.0037191822
7	0x3c084722	0.008317741
8	0xbc497082	-0.01229489
9	0x3b59f9ab	0.0033260386
10	0x3c3db629	0.011579075
11	0x3c56ceb9	0.01311081
12	0xbc96ba08	-0.018399253
13	0x3c670d60	0.01410231
14	0x39e640c6	0.00043917279
15	0x3a7b3742	0.0009583124
16	0xbb8ad904	-0.004237296
17	0xbbfd523c	-0.0077307504
18	0x3ba839ae	0.005133829
19	0xbc81f7e6	-0.015865277
20	0xbb83139c	-0.0040001404
21	0xbb4d50b4	-0.003132862
22	0x3c5274a9	0.012845197
23	0x3c641cc5	0.013922875
24	0xbcb185a7	-0.021670176
25	0x3bfc430c	0.0076984223
26	0x3b38cd4f	0.0028198545
27	0xbc3270ca	-0.010891149
28	0x3c4612e2	0.012089463
29	0xbc8bfc56	-0.017088097
30	0xbb2baa6f	-0.0026194116
31	0xbc7dd037	-0.015491537
32	0xbc05a90e	-0.008157982
33	0xbc264dca	-0.010150382
34	0xbcaf2c6a	-0.021383483
35	0x3b3e93b0	0.0029079728
36	0x3cd09fab	0.02546676
37	0x3b35f20a	0.0027762675
38	0xbc5a36be	-0.013318716
39	0x3c301766	0.010747766
40	0xbb0d7a92	-0.002158795
41	0xbbdb55cb	-0.006693577
42	0x3ca7faa4	0.020505257
43	0x3c5e05fc	0.0135512315
44	0x3bfb284c	0.007664716
45	0xbbfd420a	-0.0077288197
46	0x3bdf37ac	0.0068120565
47	0x3b716898	0.0036836024
48	0xbb6d4a71	-0.00362077
49	0x3b017539	0.0019753708
50	0xbc072fe6	-0.008251166
51	0xbc278178	-0.010223739
52	0xbba42f34	-0.00501051
53	0xba5ca08c	-0.00084162573
54	0xbc8e8798	-0.01739864
55	0x3a3b7e5a	0.0007152312
56	0x39f5dd31	0.00046894842
57	0xba6c40cd	-0.00090123416
58	0x3bfe8494	0.0077672694
59	0x3c201689	0.009770998
60	0xbb563941	-0.0032687935
61	0x3bc59512	0.0060297335
62	0x3c460709	0.012086638
63	0x3b964103	0.0045853867
64	0x3bb0cf6e	0.0053958213
65	0xbb681658	-0.0035413709
66	0xbb1aa8dc	-0.0023599183
67	0x3b9f7e8c	0.0048673805
68	0xbbe672b8	-0.0070327185
69	0x3b6cfe65	0.0036162373
70	0xbb1a1079	-0.0023508354
71	0x3c997c11	0.018735917
72	0xbbe2bfa7	-0.0069198194
73	0x39f0d329	0.00045933694
74	0x3cb49db9	0.022047864
75	0xbc47dcba	-0.012198621
76	0x3c8897d7	0.016673965
77	0x3a970835	0.0011522832
78	0xbc13a0fc	-0.00901055
79	0x3b560ed0	0.0032662638
80	0xbbc014e6	-0.0058618663
81	0xbc062a10	-0.008188739
82	0x3b8507b4	0.004059756
83	0xbc16d43d	-0.009205875
84	0x3b34a45c	0.0027563786
85	0x3b7ddea9	0.0038737452
86	0x3ab783f0	0.0014001112
87	0x3c59319b	0.013256456
88	0xbb33168c	-0.0027326671
89	0x3c14e87a	0.00908863
90	0x3c2d8eec	0.010593157
91	0x3af272a5	0.0018497301
92	0x3bc1e664	0.0059173573
93	0xbb7cd106	-0.0038576736
94	0x3c1e4f7c	0.009662505
95	0x3b89f92b	0.0042106113
96	0xbc12e2a5	-0.008965169
97	0x39d205ca	0.00040058634
98	0x3c3229f3	0.010874259
99	0xbba50e19	-0.005037081
100	0x3c000ffa	0.007816309
101	0x3beec393	0.007286498
102	0x3cef9aa4	0.029248543
103	0xbb9ab651	-0.004721441
104	0x3990d80b	0.00027626785
105	0x3c9e5c1a	0.019331027
106	0x3bc9f055	0.006162683
107	0x3bdcf94a	0.0067435848
108	0xbc81bff0	-0.015838593
109	0x3ca58cd4	0.020208754
110	0xbc0bac24	-0.008524928
111	0x3c3f3f07	0.011672742
112	0xba2afe45	-0.00065228745
113	0xbd060067	-0.032715227
114	0x3b09528b	0.002095374
115	0xbbd65567	-0.0065409425
116	0xbc8737bf	-0.016506074
117	0xbc4b6607	-0.012414462
118	0x3c27e5d3	0.010247665
119	0x3b7d37e3	0.0038638047
120	0x3b66f021	0.0035238343
121	0xbba27eeb	-0.0049589775
122	0xba2f1804	-0.0006679299
123	0xbbfb328b	-0.0076659373
124	0x3c30b83a	0.010786111
125	0xbbf72fa4	-0.007543521
126	0x3c156202	0.009117605
127	0xbcb1c8a5	-0.02170212
128	0x3c8935ca	0.016749281
129	0xbc860a74	-0.016362406
130	0xba8b9d36	-0.0010651711
131	0xbc9df3d4	-0.019281305
132	0xb8fe30a7	-0.00012120726
133	0xbc7c5ee8	-0.015403487
134	0x3a924cec	0.001116184
135	0x387fdabc	6.100045e-05
136	0x3c4a73f5	0.012356748
137	0xbb35aefd	-0.002772271
138	0xbc5174d4	-0.012784202
139	0xbb893c81	-0.004188121
140	0xbc21036d	-0.009827477
141	0x3c068523	0.008210453
142	0x3c600908	0.013674028
143	0xbc364e79	-0.011127108
144	0x3a0e9e54	0.0005440463
145	0xbbfa55ce	-0.0076396232
146	0xbabe655e	-0.0014526059
147	0x3a910377	0.0011063655
148	0xbab100e5	-0.0013504295
149	0x3bba342c	0.005682489
150	0x3bdca4cd	0.006733513
151	0x3c083959	0.008314454
152	0xbc4a6895	-0.012354036
153	0x3cb892aa	0.022530872
154	0x3c00b7af	0.007856294
155	0xbbd508c1	-0.0065012877
156	0x3b6fca31	0.0036589021
157	0xbc316635	-0.010827591
158	0xbba0481f	-0.00489141
159	0x3c9a8cd8	0.018865988
160	0x3ad6f2da	0.001639928
161	0x3ce1dbf7	0.027570708
162	0x3a684d9f	0.0008861664
163	0x3a733bb2	0.00092786097
164	0xbbd598dd	-0.006518467
165	0x3c5c092a	0.013429919
166	0xbbdedc8f	-0.006801195
167	0x3bba758f	0.0056902836
168	0xbb3342b0	-0.0027352981
169	0x3c01fa5d	0.007933226
170	0xbc05f738	-0.008176617
171	0x3b6c11b6	0.0036021299
172	0x3bc6330c	0.0060485657
173	0xbb08daaa	-0.0020882287
174	0x3b3cb92b	0.0028796892
175	0xbb759008	-0.0037469883
176	0x3cc6748c	0.024225496
177	0xbbe0ad4f	-0.0068565975
178	0x3be8959d	0.0070979134
179	0xbc03e944	-0.00805122
180	0xbaa6261c	-0.0012676152
181	0xbcb5599d	-0.022137458
182	0x3b005fa2	0.0019588252
183	0x39e1ab3b	0.0004304292
184	0x3a97fad2	0.0011595136
185	0xbb6156e2	-0.0034384062
186	0x3c1326f8	0.008981459
187	0xbc3f51ca	-0.011677215
188	0xbc8ce517	-0.017199082
189	0x3c559bac	0.013037603
190	0xbc75757f	-0.0149816265
191	0x3c9c30a4	0.019066162
192	0x3c93a6d3	0.018023884
193	0xbc8197f4	-0.015819527
194	0xbae09ccd	-0.0017136574
195	0xbcb05cbc	-0.021528594
196	0xbb042c87	-0.0020168142
197	0x3c709b9f	0.01468554
198	0xbba274f3	-0.004957789
199	0xbc28e93d	-0.010309515
200	0x3b74e8b0	0.0037370138
201	0xbc6f8bd7	-0.014620743
202	0xbbfa63f7	-0.0076413113
203	0x3b38b982	0.0028186743
204	0xbbebc249	-0.0071947915
205	0xbb838082	-0.004013122
206	0xbc241ca0	-0.01001659
207	0x3b36f7eb	0.0027918767
208	0x3b2ff2bd	0.0026847564
209	0xbc11440c	-0.008866321
210	0x3c7bb3e7	0.015362716
211	0x3b8a6bb6	0.004224266
212	0x3b853b9b	0.0040659434
213	0xbc01b7fe	-0.007917402
214	0x3b833019	0.0040035364
215	0xbc7673a2	-0.015042217
216	0xbc086c38	-0.008326583
217	0x3b5947a0	0.0033154264
218	0xbc74eb61	-0.014948697
219	0x3c52e885	0.01287282
220	0xbc465fbf	-0.012107789
221	0xbc908ab3	-0.017644262
222	0xbba08e24	-0.004899757
223	0xbc10da22	-0.008841069
224	0xbc2fa8dc	-0.010721412
225	0x3ba364ae	0.004986367
226	0xbb9ec4cb	-0.004845237
227	0x3b241474	0.0025036605
228	0x3b248cf9	0.002510844
229	0xbc0e1fe5	-0.008674596
230	0x3aa68764	0.0012705144
231	0xbc3aad2c	-0.011393826
232	0x3c0b04ec	0.00848506
233	0x3be7923d	0.0070669935
234	0xbca93e10	-0.020659477
235	0xba11169f	-0.0005534682
236	0xba32622c	-0.000680479
237	0x3c3b5880	0.011434674
238	0x3c06e1ec	0.008232575
239	0x3bcf3b3c	0.0063242
240	0xb9e05851	-0.0004279041
241	0x3c7e18d3	0.015508848
242	0x3b8f1cab	0.004367431
243	0x3c42c6b2	0.011888193
244	0x3c31deac	0.010856312
245	0xbb128667	-0.0022357942
246	0x3c95973e	0.018260594
247	0xbc879483	-0.016550308
248	0xbce04055	-0.027374426
249	0xbc108100	-0.0088198185
250	0xbc156fa9	-0.00912086
251	0xbc2f3ae8	-0.010695197
252	0xbbafdef5	-0.0053671547
253	0x3c319c31	0.010840462
254	0x3ceac867	0.028660012
255	0x3b9a6791	0.004712053

base_model.model.model.layers.1.mlp.down_proj.lora_B.weight f4 [2048, 2]
0	0xbb999823	-0.0046873256
1	0xbbb46256	-0.0055048866
2	0x3b73ec9a	0.0037219883
3	0x3b4f71e6	0.0031653582
4	0x3b8afc7e	0.004241525
5	0x3aa2daab	0.0012424787
6	0xbaee341a	-0.0018173486
7	0xbbda4d37	-0.0066620368
8	0x3abd3b24	0.0014437181
9	0xbb488fea	-0.0030603358
10	0xbb88ff40	-0.004180819
11	0x3aa1f08d	0.0012355015
12	0xb8720867	-5.770512e-05
13	0x3bc71975	0.0060760328
14	0x3b29e11f	0.0025921536
15	0x3a3275b7	0.0006807702
16	0xbb8efdfb	-0.004363773
17	0xbb94d145	-0.0045415484
18	0xba6ba8ba	-0.0008989681
19	0x3a1fce3c	0.00060961
20	0xb93055c9	-0.00016816625
21	0xbb3fd05b	-0.0029268477
22	0xbbb93c27	-0.0056529227
23	0xbb9af115	-0.0047284462
24	0xbb8e42c7	-0.0043414566
25	0xbb9be878	-0.004757937
26	0xbb85d3b0	-0.004084073
27	0xbc000e65	-0.007815932
28	0x3ba1e743	0.0049408986
29	0x3b8d7651	0.004317083
30	0x3aaf29c7	0.0013363891
31	0x3b57da7a	0.0032936619
32	0xb9ead498	-0.00044790353
33	0x3be65597	0.007029246
34	0xbaba9e9a	-0.0014237941
35	0xbc02e21c	-0.007988479
36	0xbb11d81a	-0.002225405
37	0x3a146b0f	0.0005661705
38	0xb90df50c	-0.00013538095
39	0xbb1bf1c1	-0.002379522
40	0x3a880c1f	0.0010379589
41	0x3b7757c1	0.0037741514
42	0xbb42c0d6	-0.002971699
43	0xba9f4257	-0.0012150508
44	0x3a10a633	0.00055179297
45	0xbb222ff4	-0.002474782
46	0xbb493676	-0.0030702627
47	0xbbdc4119	-0.0067216274
48	0xbb534e6e	-0.0032242793
49	0xb98dbbd3	-0.00027033556
50	0xbb4fbc08	-0.0031697769
51	0xbb18973c	-0.0023283502
52	0xbaea2266	-0.0017863035
53	0xbb9eefe5	-0.004850375
54	0xbb5ff97c	-0.0034175804
55	0xbaf19839	-0.0018432207
56	0xbbaa3679	-0.005194482
57	0xbaa9da38	-0.0012958711
58	0x39ae53d0	0.0003325031
59	0x3a94e317	0.0011359182
60	0x3b1f3804	0.0024294863
61	0x3b91a458	0.00444464
62	0x3ba33c0f	0.004981525
63	0x3ab19d1d	0.0013550852
64	0x3b9df069	0.004819919
65	0x3be3394b	0.00693432
66	0x3ab9d7d8	0.0014178706
67	0x392d2a16	0.00016514244
68	0x3ba254ba	0.004953948
69	0x3b7ccca5	0.0038574126
70	0xbb98cfb5	-0.0046634325
71	0x3b546639	0.0032409562
72	0xbbd7fc89	-0.006591384
73	0xbb07088b	-0.0020604457
74	0xbaa537bf	-0.0012605115
75	0xbb7793b9	-0.0037777259
76	0x3af09398	0.0018354533
77	0xbab83579	-0.0014054022
78	0x3a59a958	0.0008303127
79	0xba51d413	-0.0008004319
80	0xbb26b6ab	-0.0025438468
81	0xbb86e3cb	-0.0041165105
82	0xbbdc1232	-0.0067160362
83	0x3b28c046	0.002574937
84	0x3af48605	0.0018655664
85	0xb95c59a9	-0.00021014236
86	0xbbb92976	-0.0056506945
87	0xba6b3d17	-0.00089736417
88	0xbb83d6b0	-0.0040233955
89	0x3ba1c486	0.0049367575
90	0x3b5b0274	0.003341821
91	0x3b9c7128	0.0047742315
92	0x3bb6cd9a	0.005578709
93	0x3b4e06d9	0.0031437187
94	0xb96c362c	-0.00022526894
95	0x3ae280b5	0.0017280789
96	0xbb77b413	-0.0037796542
97	0xbb9d0d70	-0.0047928616
98	0x3b2bad02	0.002619565
99	0x3b9688f9	0.004593965
100	0xba8f1a1c	-0.0010917815
101	0x3bce82eb	0.0063022277
102	0x3b180ea7	0.0023202093
103	0xbae2afa1	-0.0017294773
104	0x3b1d8f94	0.0024041878
105	0x3b088424	0.0020830715
106	0xbb2162a4	-0.0024625445
107	0xbbba2623	-0.005680816
108	0xbbc540f9	-0.0060197082
109	0xbbffdbcb	-0.007808184
110	0x3bae415a	0.005317849
111	0xbace69bf	-0.0015748068
112	0x3aebcc40	0.0017989948
113	0x3b8355ea	0.0040080445
114	0x3b4d51dc	0.003132931
115	0x3bdc71b0	0.00672742
116	0x3b8b97b3	0.0042600273
117	0xbb9db9cb	-0.004813408
118	0x3adea3cc	0.0016986071
119	0x3a82550d	0.000994356
120	0xb9813115	-0.00024641366
121	0xbb4e4827	-0.0031476112
122	0xbba2c89d	-0.0049677626
123	0xbbbd9e6e	-0.0057867086
124	0xbb39f733	-0.0028376102
125	0x3a8b8665	0.0010644911
126	0xbb12d370	-0.0022403859
127	0x3b7ead8f	0.0038860773
128	0x3b8100f1	0.00393688
129	0xbbac2b04	-0.0052541513
130	0xb81f26fc	-3.794486e-05
131	0x3b6d37cf	0.0036196595
132	0xbc1ba658	-0.009500109
133	0xbaec1e48	-0.0018014396
134	0x3b00a243	0.0019627966
135	0x3a815aa8	0.0009868937
136	0xba6e5f73	-0.00090932025
137	0xb90f793f	-0.0001368271
138	0xb9a7477e	-0.00031905988
139	0x3b078ca4	0.0020683194
140	0x3c183ef1	0.00929235
141	0x3bb5b306	0.005545023
142	0xbc21564e	-0.009847237
143	0xbbdafd48	-0.0066830255
144	0xbb480b27	-0.0030524225
145	0x3b84c407	0.0040516886
146	0xbb1fa225	-0.002435812
147	0xbb7f725a	-0.003897807
148	0x3ab6c645	0.0013944587
149	0xb8c11fe1	-9.208895e-05
150	0xbb829402	-0.003984929
151	0xbb966bab	-0.0045904717
152	0xbbc49e77	-0.006000336
153	0x3ae3a585	0.0017368054
154	0x3b81e7bb	0.003964392
155	0xba0e5aaf	-0.0005430383
156	0xbc0a7320	-0.0084502995
157	0xbc318dc6	-0.010837024
158	0xbaae84d4	-0.0013314732
159	0xbbf8e4c1	-0.007595629
160	0xbb352699	-0.0027641414
161	0xbc0884bb	-0.008332427
162	0xb97903f6	-0.00023747966
163	0x3b17d37e	0.002316683
164	0xbb3bdcbd	-0.0028665506
165	0x3b8ed734	0.0043591503
166	0x3a669f8a	0.0008797577
167	0xbb29e8d9	-0.0025926142
168	0xbbc9ce81	-0.0061586504
169	0x3a3918c7	0.0007060882
170	0xbbafdc06	-0.005366805
171	0xbb149dfd	-0.0022677176
172	0x3b6a8808	0.0035786647
173	0x3ac3e7b4	0.0014946372
174	0xb7e7903f	-2.7604516e-05
175	0x3bc3596e	0.0059615886
176	0x3b12fd42	0.0022428785
177	0x3a58ca7a	0.00082699175
178	0xbbd38b3e	-0.006455808
179	0xbc21e8e9	-0.00988219
180	0xba0c08e8	-0.00053419033
181	0x3a9f05b3	0.0012132436
182	0xbb3afe9e	-0.0028533111
183	0xbb0f4540	-0.0021861345
184	0xbb00cd4f	-0.0019653623
185	0x3c28fa19	0.010313534
186	0xb8a2c07c	-7.760615e-05
187	0x3a87251e	0.0010310744
188	0xba852a57	-0.0010159713
189	0xbb1ff3bf	-0.0024406759
190	0x3b78fcb3	0.0037992417
191	0x3b0d7f96	0.002159094
192	0xb95c9357	-0.00021035723
193	0x38a4a6df	7.8512116e-05
194	0x3ba055da	0.004893047
195	0x3ba20434	0.0049443487
196	0x3b4fe145	0.0031719964
197	0x3b74086f	0.0037236472
198	0x3a92847c	0.00111784
199	0xbbe0d9c1	-0.006861896
200	0x3b155047	0.0022783445
201	0xbb45ab0e	-0.003016177
202	0xbb0e3650	-0.0021699853
203	0x399d3d9e	0.00029991282
204	0x3a8f678b	0.0010940892
205	0xb96a045b	-0.00022317602
206	0xbab320b8	-0.0013666367
207	0xbb1c4e8e	-0.0023850533
208	0xbc2fcc8d	-0.010729921
209	0xbb0b18be	-0.0021224464
210	0x3b622d77	0.0034511962
211	0x3b8d1b2b	0.004306217
212	0xba459bc4	-0.00075381645
213	0xba92412b	-0.0011158338
214	0xbbf1f34c	-0.0073837396
215	0xbbbb7b89	-0.0057215136
216	0xbb9d90ca	-0.00480852
217	0xbb9d9abd	-0.004809706
218	0x3b563818	0.0032687243
219	0x3be844b1	0.007088267
220	0xba47d077	-0.0007622311
221	0xbbc4ee83	-0.006009878
222	0x3a517ca5	0.0007991291
223	0xbacf1d56	-0.001580159
224	0x3b80ddd0	0.003932692
225	0x3b04b80d	0.0020251304
226	0x3acfef18	0.0015864102
227	0xbac11edb	-0.0014733927
228	0x3bb6ef08	0.005582694
229	0x3b6c9f00	0.0036105514
230	0xbb9078e0	-0.0044089407
231	0xba498bc9	-0.0007688371
232	0x3b99106f	0.0046711485
233	0xbb4648c4	-0.0030255774
234	0xbb9d5c2c	-0.0048022475
235	0x39d711fb	0.00041021392
236	0xbbad0f46	-0.0052813618
237	0x3a91a44e	0.0011111589
238	0xba5ac4ed	-0.0008345384
239	0xba6cb445	-0.0009029548
240	0xbb935cfd	-0.004497169
241	0xbc087551	-0.008328752
242	0xbaf18efb	-0.0018429452
243	0xbb134355	-0.0022470553
244	0x3b767b21	0.0037610012
245	0x3b318f11	0.002709333
246	0xba62d784	-0.000865333
247	0xbbbf8667	-0.0058448794
248	0x3ae7bc36	0.0017679993
249	0xbb62822c	-0.0034562452
250	0x3a6d40c6	0.00090504845
251	0x3b9682c7	0.0045932266
252	0x3a0cce18	0.00053712865
253	0x3be5e019	0.00701524
254	0x3aa048e9	0.001222876
255	0x39a3c72d	0.0003123818
