output_model/single_lora_2/gpt_4.1_2025_04_14_3_llama_model/adapter_model.safetensors (safetensors, 82208 bytes, 2 tensors)

base_model.model.model.layers.1.mlp.down_proj.lora_A.weight f4 [2, 8192]
00000000: 941c a03b 7813 9bbc 9d87 74ba 4644 203c
00000010: 61c5 b1bc af84 fe3b dd7a bd39 ee40 803c
00000020: dc10 f5bb d16a 293c 9382 c03b 6c2a 5e3c
00000030: 2725 403b 834d 1ebc eb7c dcbc 13e6 b8bb
00000040: 8037 09bc 2923 cebb 1720 863b 637a ccbb
00000050: 106b 893c 4eec 303c 4df9 c83a 420c 333c
00000060: 24b8 04bb 1dde 543c 1f55 5e3a 2d7a 00bc
00000070: f234 6fbc 067c 183c e68c 793c 37cf 96bb
00000080: 6281 96bc 2f6d c0bb 20e8 563c 90ba 4b3c
00000090: 8c56 963c 9486 8e3b a7c6 083b 22e8 77bc
000000a0: 20aa ffb9 cdd6 d7bc 6a12 723c 75c9 5abc
000000b0: d95c a2bc 7375 04bc 9427 10bc b2b6 8e3c
000000c0: 1105 b63a 5855 9c3b 08c1 55bc 0a80 b6bc
000000d0: 4f68 043b 8e0c 5fb9 6636 dab9 2bd9 beba
000000e0: 81dc 41b9 71eb 903c c246 043c 504a 4eba
000000f0: ff38 07bc c691 60bb c291 e7bb 3b06 c53c
00000100: e4da 36bc 3c88 a3bc 068e 603b 3e97 8abc
00000110: dc5a 3fbc 1888 c4bb 7fad 933b 01a4 b6bb
00000120: 10ca 6cbc 7c28 2dbc 1329 5dbc e6f7 beb8
00000130: 50b8 a83b 175f 8b3c c8f0 0fbb 53df 5c3c
00000140: 4bcd aeba 10c4 593c f8a9 b03c de62 003b
00000150: c8c8 113c 306c 033a fe4b 2c3c 0735 853c
00000160: c221 853b 3667 2dbc 2a03 8ebc 79c7 9f3b
00000170: c94e 8e3c bf64 a9bc 583c 5cbc e291 a0bb
00000180: c611 13bc 08f7 4e3c 554b a0bb 7b8c 293c
00000190: 2938 23bc 7b78 883c 1290 6fbb f6b0 17bc
000001a0: 4e7f 34bc b6ef 14bc 3a67 423b 634e 3f3c
000001b0: fe17 dabb 37b0 373b 7a13 183c 18e0 f83b
000001c0: 4930 1abc 8e36 18bc d2c6 63bc 6c9c 4b3c
000001d0: 5d3c 76bc 1242 ba3a 6c94 a93b ea1a 7c3b
000001e0: 226b 11bc 0bd0 a93c 63e8 a8bc 62de feba
000001f0: 7fa2 00bc 5b43 903b 4051 de3b 6850 a2bb
00000200: 3183 c7b9 7bc5 653b b288 fc3b 9bb6 0cbc
00000210: eb11 543c a394 4f3c becb 1a3c 95ef ae3b
00000220: 9ad6 4a3c bbc3 8cbc 3832 7d3c 9bb1 efb8
00000230: e1d1 35bc c759 a53b b425 aa3c 0874 c1bc
00000240: e1f6 4c3b 6cb5 4abc 91c9 60bc cc7a 87bc
00000250: 3da3 fb3a 17e2 8e38 8e3a 05bc 5e0b 6f3c
00000260: 3111 013c 512c 0fbb 7cc3 adba c60f ccbc
00000270: 6ad0 29bc 74c9 9cbc 9cfd a7bc cc1e 983c
00000280: 155b ba3b 779f 953c 744d f13a e10c 39bc
00000290: 9b0b 873c 1ea6 61bc 6e3c d13a f5c1 a33b
000002a0: 0021 283c e6ab d63b 9f48 3a3c 1be8 573b
000002b0: 7fb5 b1bc 5a85 0bbc da56 6dbb 3bb7 313c
000002c0: 3fff 323c 71e7 783b bfd2 99bb a24a 30bc
000002d0: 6e85 3c3c 4f5d b3bb 2958 bdbc 0c94 1dbc
000002e0: a7bc a3bb 519e 4dbb 8e71 13bb 5249 3bbb
000002f0: 2bc6 75bb 1441 d639 a788 18bc 7359 5b3c
00000300: 846f 9b3a 70ed 463c 782e 6ebc 516a 4c3b
00000310: 770e 2ebc 3265 b33b 893a 6ebc 32e8 46bc
00000320: 7578 aa3c 4049 aebb 5009 0d3b 4903 ab3b
00000330: 2fa0 7fbc 6b6e dfb9 fe36 22b9 c374 8cb8
00000340: 8980 b23b e8b4 4c3b 4d4d fdbb 3dab f73b
00000350: 9886 633c d7ad babb 082e 65bc 69e1 98bc
00000360: 83e0 c63b 602e e4ba 578f 633a da1b 9b3c
00000370: 8be9 593c ee59 583c be1b debc ac08 ac3b
00000380: 0e52 533c ba11 5f3c ef34 b63b 7f44 85bb
00000390: 2c32 333c fca5 7bbb 3a85 3dba 3545 b9bb
000003a0: 9f3e c0bc 2d7a 393a 946f 45bb dec9 c03a
000003b0: 7125 723c 91d5 90bc a44e 90bb 94ed 703a
000003c0: afa8 1ebc a1bc 7aba 505a 95bb 71a2 08bc
000003d0: 3c7e 1fba d4f1 a83a a868 b43a cbc5 15bc
000003e0: d27b 67bc a580 1f3c c378 4c3c 5527 913c
000003f0: daab 09bc 30dd 233c 233f 7e3c 686b dfbb
0.0048862193 -0.018930182 -0.0009328069 0.009781903 -0.021700563 0.007767282 0.0003614043 0.01565596
-0.0074788164 0.010340408 0.0058749407 0.013559919 0.002931902 -0.009662035 -0.026915034 -0.0056426614
-0.008375049 -0.0062908125 0.004093181 -0.0062401756 0.016774684 0.010798527 0.0015333086 0.010928215
-0.0020251358 0.012992409 0.0008481312 -0.007841629 -0.0146000255 0.009306913 0.015231347 -0.0046023387
-0.018372241 -0.0058723907 0.013116866 0.012434617 0.018351816 0.004349539 0.002087036 -0.015131028
-0.00048764143 -0.026347542 0.014774898 -0.013353695 -0.019819664 -0.008084643 -0.008798499 0.0174211
0.0013887008 0.004770916 -0.0130465105 -0.02227785 0.0020203774 -0.00021271614 -0.0004162073 -0.0014560571
-0.00018488058 0.017690392 0.008073511 -0.000786935 -0.008253335 -0.0034266575 -0.007066936 0.024050822
-0.011160586 -0.019962423 0.003426434 -0.016917821 -0.011679377 -0.005997669 0.0045067663 -0.00557375
-0.014452472 -0.010568734 -0.013498562 -9.106081e-05 0.005148925 0.017013116 -0.0021963585 0.013480979
-0.0013336329 0.013291374 0.021565422 0.001959018 0.008897968 0.00050133746 0.010516165 0.016260637
0.004062862 -0.010583689 -0.017335493 0.004876074 0.017371552 -0.020677922 -0.013442121 -0.004900203
-0.0089764055 0.012632139 -0.004891793 0.010348435 -0.00996212 0.016659012 -0.0036554378 -0.009258499
-0.01101668 -0.009090355 0.0029663579 0.011676404 -0.006655692 0.0028028616 0.009281987 0.0075950734
-0.009410926 -0.009290351 -0.013902383 0.012427431 -0.01502904 0.0014210364 0.005175164 0.003846819
-0.00887564 0.020729085 -0.020618623 -0.0019444937 -0.007851242 0.0044025606 0.006784588 -0.004953433
-0.00038053983 0.0035060334 0.007706725 -0.008588458 0.012943725 0.012669715 0.00944799 0.005338619
0.012380267 -0.017183175 0.015453868 -0.0001142949 -0.011097402 0.0050461027 0.020769931 -0.023614898
0.003127508 -0.012372356 -0.013719932 -0.016538046 0.0019198429 6.8132e-05 -0.008131636 0.0145901125
0.007877634 -0.0021846483 -0.0013257111 -0.024909865 -0.010364631 -0.01913903 -0.020506673 0.018569373
0.0056871274 0.018264515 0.0018409924 -0.0112945745 0.016485026 -0.013772516 0.0015963444 0.0049974867
0.010261774 0.0065512536 0.011369853 0.0032944742 -0.02169299 -0.00851568 -0.0036215098 0.010846908
0.010925113 0.0037979747 -0.0046943123 -0.010759981 0.0115064215 -0.0054737697 -0.023113327 -0.009617817
-0.0049968543 -0.0031374882 -0.0022498104 -0.0028577638 -0.003750215 0.00040865748 -0.009309924 0.013388026
0.0011858796 0.01214157 -0.014537446 0.00311913 -0.010623566 0.00547471 -0.014540323 -0.012140321
0.020809392 -0.0053187907 0.0021520443 0.0052188975 -0.015602156 -0.00042616142 -0.0001547001 -6.697469e-05
0.0054474515 0.0031235758 -0.0077301622 0.007558255 0.01388707 -0.005696993 -0.0139880255 -0.018662171
0.0060692444 -0.001740884 0.0008680722 0.01893418 0.01330031 0.013205035 -0.027112838 0.005250057
0.012897981 0.013615066 0.0055605094 -0.0040670033 0.010937255 -0.0038398495 -0.000722963 -0.005654002
-0.02346736 0.00070753956 -0.003012632 0.0014708599 0.014779435 -0.017679961 -0.004403906 0.00091906753
-0.009683772 -0.0009564851 -0.004557885 -0.00833951 -0.0006084179 0.0012889453 0.00137641 -0.009141396
-0.014128642 0.009735261 0.012479964 0.01771895 -0.008402789 0.010001466 0.015517983 -0.0068182237

base_model.model.model.layers.1.mlp.down_proj.lora_B.weight f4 [2048, 2]
00000000: 9308 1dbb 4bb0 7b3b 159c 1c3b de58 a0ba
00000010: 78d4 b43a baf1 14bb 8098 423b 552d 5e3a
00000020: 9f9a dd3a 4a37 c5ba 6a63 b0bb 6f1c 983b
00000030: aaae 9e3a a21f e338 d26c cc3a b8cf c83a
00000040: 2276 bebb 3a5c 6eba 1c64 3cba b3d6 d03b
00000050: 033f 8c3a d413 adbb 7651 9bbb ba7c 713b
00000060: 1103 66bb 18f1 503b 8df3 62bb 07ea 783b
00000070: 54cf 993b 458c 0b3b 45db dcb9 3384 46bb
00000080: 111e 213b 0dea f5bb b6e2 a7ba 8be4 183a
00000090: 1ead 26ba 8316 683b 4a60 c83a 46a4 93bb
000000a0: 9af7 103b afa3 b8ba f4b1 3339 c102 0cbb
000000b0: 4396 303a a6c8 303a f731 aebb 55e8 763b
000000c0: fbc6 a6bb f315 713b 999d 113b bb98 c83b
000000d0: cf46 13bb 37b7 593b e27e 29bb 368e b93a
000000e0: 27fe f3b6 116b 973a 3667 0a3b 73ef a03a
000000f0: 7d22 aa3b 2a8a e5bb 6087 bb3a 7537 99bb
00000100: b70b 813b a758 c0bb bcf6 b13a 716b b7bb
00000110: 380a 943b cf03 0d39 a4ea bf3a df3c 933b
00000120: da98 773a b0ab 9a3b d0d7 0ab7 91cb 43bb
00000130: 02c2 c33a 5cd3 9fbb 0de4 15bb 9bc1 a1ba
00000140: 3a65 e8ba 4c59 b73b 6d44 32bb e393 7b3b
00000150: 4a4e f13a 4821 7b39 3e9a b8ba df68 18b9
00000160: f469 cfbb 5158 473a 1cf0 073b 7a5d adba
00000170: 5478 dfba 0a90 df3b 2541 2e3b 3344 9fbb
00000180: 3b3b b1bb 88b3 c73b dcf3 c73a 197e a2ba
00000190: da38 a93b ced6 bf3a abe9 10bb 4341 573b
000001a0: 9e45 f83a b3b8 20bb 5205 f4ba 6455 b9bb
000001b0: b1f7 54ba 2d33 a03b cb7b 3a39 6194 c53a
000001c0: 6eb3 3939 e3ea b2ba 2ff0 633b 60d0 0abc
000001d0: 0e09 4bbb a002 533b 4144 1f3b 5065 783b
000001e0: 632b 39bb a523 d6b9 7863 5ebb aed0 8e3b
000001f0: 7edb b4bb a3c9 16bb 50f8 86bb a48d a8bb
00000200: 02c8 213a 7cc9 c7bb 77fe 2b3b 8f8d 82bb
00000210: b538 5cbb dc2e 8bb9 14ae 723b 0afc 783b
00000220: 227d f639 5a37 9c3b 0d21 11ba 481b 0fbb
00000230: 1d4b c93b 8488 9dbb 7457 0dbc c18e 643b
00000240: c3c2 8b3b 4b0c 49bb a150 36b9 79bd ef3b
00000250: 96f7 743b be40 69ba 4d46 bcbb c663 d33b
00000260: d8d3 253b c470 8d3b 318b e73a b8be 08bb
00000270: 117d 0bbc 12b0 883b 8775 8bbb 233d 3c3a
00000280: bae3 99bb 4bbd eb3a 71ff 3bbb dc5c c5bb
00000290: 14eb 48bb aecf 43ba cabb 94bb ee91 b0bb
000002a0: 7e15 1dbb 4238 aaba f065 a3ba f7e6 93bb
000002b0: e5df 6ab8 3fd5 c83b ee59 df39 f50c debb
000002c0: 732c 4f3b afee cd3a 7d0b ddbb 9a4f 813b
000002d0: 861a 9639 74d4 5a3b dd75 f7bb ba20 903b
000002e0: 44f9 1738 7ee9 b83a 2863 8f3b 85ed 923b
000002f0: b273 473b 2466 ffba 4b69 043b 501d 81bb
00000300: fa71 843a a52b 9a3b 588b b23b bc7c 033a
00000310: e50d 273a 883a acbb ccd9 bebb 05b4 a93b
00000320: 4938 c139 80e3 aeba 8729 203b e4ce c63a
00000330: 1070 c13b baa9 283b fc50 2fbb 108a 1f3b
00000340: d932 08bc 5d44 9f3b 7f0e b83a ca6e b73a
00000350: c20a a43b 3918 fbba 9d82 83bb 6452 823b
00000360: 820f bebb 3aab 993b e8c1 ae3b 5b70 eabb
00000370: 32b7 2eba 8709 613a 4ef1 533b c280 033c
00000380: f590 7d3b 6170 f33a ad07 66b9 ea0c 153b
00000390: 37ad 9d3b 0885 273b 1041 8bba 4fe2 2a3b
000003a0: 0558 b2ba dc9e fdb9 f4ff b4ba e2d6 8c3b
000003b0: a2d3 29bb e7e8 ab3b acb8 0ebb 457c 123b
000003c0: 7fad b8bb 5726 213b 4412 2a39 9e04 81ba
000003d0: 758c 5d3b 4d50 ecbb fd79 77ba c280 44bb
000003e0: b749 223b c63c 2fb8 eccd 483b 9951 95bb
000003f0: 11c3 2a3b d7ee 253b 7d45 6dba 000a 983a
-0.002396141 0.003840464 0.0023896743 -0.0012233516 0.0013796231 -0.0022727088 0.0029692948 0.0008475383
0.0016907043 -0.0015046385 -0.005382945 0.0046420614 0.0012106497 0.000108300956 0.0015596396 0.0015320694
-0.0058124224 -0.00090927223 -0.00071865483 0.0063732504 0.0010699931 -0.0052819047 -0.0047399355 0.0036848024
-0.0035097043 0.0031881984 -0.003463003 0.0037981288 0.004693905 0.0021293324 -0.00042125038 -0.00302912
0.0024584571 -0.0075047077 -0.0012808654 0.00058323954 -0.0006358194 0.0035413809 0.0015287485 -0.004505667
0.0022120238 -0.0014086867 0.00017137063 -0.0021363946 0.0006736258 0.0006743766 -0.005316015 0.0037675102
-0.0050896383 0.0036786764 0.002221918 0.0061217225 -0.0022472625 0.0033220777 -0.0025862982 0.0014156762
-7.2715516e-06 0.0011552294 0.0021118647 0.0012278393 0.0051920996 -0.007004996 0.0014307313 -0.0046758004
0.003938164 -0.005869943 0.0013577561 -0.005597525 0.0045178197 0.00013448227 0.0014642072 0.0044933404
0.0009445079 0.004720174 -8.275689e-06 -0.0029875974 0.0014935138 -0.004877491 -0.0022871525 -0.0012341024
-0.0017730363 0.005595362 -0.002720143 0.0038387708 0.0018410173 0.00023949624 -0.0014084054 -0.00014534917
-0.0063297693 0.0007604408 0.0020742482 -0.0013226711 -0.001704941 0.0068225907 0.0026589122 -0.004860425
-0.005408672 0.0060944 0.0015255171 -0.0012397199 0.005164248 0.001463616 -0.0022111933 0.0032845296
0.0018941646 -0.0024524152 -0.0018617308 -0.0056559313 -0.0008124067 0.004888913 0.00017784459 0.0015074128
0.00017709818 -0.0013650324 0.0034780612 -0.008472532 -0.0030980739 0.003219761 0.0024302157 0.0037902184
-0.002825462 -0.00040843818 -0.00339338 0.0043583727 -0.0055193296 -0.0023008368 -0.0041189566 -0.005143838
0.0006171466 -0.006097017 0.0026244202 -0.0039841603 -0.0033603136 -0.0002654706 0.0037030028 0.0037992024
0.00047014008 0.0047673406 -0.0005536236 -0.002183633 0.0061429874 -0.0048075337 -0.0086268075 0.0034875127
0.0042651608 -0.0030677493 -0.00017386909 0.007316288 0.0037379018 -0.0008897892 -0.005745685 0.006451103
0.002530327 0.004316421 0.0017665384 -0.002086563 -0.008513705 0.00417138 -0.0042559537 0.0007180741
-0.0046963366 0.0017985491 -0.002868619 -0.0060230326 -0.0030657696 -0.00074696064 -0.0045389878 -0.00538849
-0.002396911 -0.0012986737 -0.0012466293 -0.004513617 -5.5998466e-05 0.0061289365 0.00042600877 -0.006776447
0.0031612187 0.0015711392 -0.0067457543 0.003946257 0.0002862999 0.0033390792 -0.007551892 0.0043984326
3.6233352e-05 0.0014107672 0.004375834 0.004483881 0.003043395 -0.0019485396 0.002020436 -0.003940262
0.0010104768 0.00470491 0.00544874 0.000501584 0.0006372615 -0.005256001 -0.0058243033 0.0051789307
0.00036853764 -0.0013342947 0.0024438815 0.0015167859 0.0059032515 0.002573593 -0.0026751151 0.0024343766
-0.008312904 0.0048604445 0.0014042406 0.001399481 0.0050061652 -0.0019156999 -0.004013373 0.003977107
-0.0058001885 0.0046896012 0.005333174 -0.007154507 -0.00066648715 0.00085844885 0.0032339874 0.008026304
0.0038691137 0.001857292 -0.00021937369 0.0022743293 0.0048119086 0.002556147 -0.0010624249 0.0026074832
-0.0013606554 -0.0004837428 -0.001380919 0.004298077 -0.0025913497 0.00524627 -0.0021777553 0.0022351902
-0.0056359167 0.0024589503 0.00016219268 -0.0009843295 0.0033805643 -0.007211721 -0.000944048 -0.0029983972
0.0024763176 -4.177985e-05 0.0030640317 -0.0045568463 0.002605621 0.0025319362 -0.0009051187 0.001159966
