output_model/single_lora_2/gpt_3.5_turbo_1106_4_llama_model/adapter_model.safetensors (safetensors, 82208 bytes, 2 tensors)

base_model.model.model.layers.1.mlp.down_proj.lora_A.weight f4 [2, 8192]
0	0xbc2bf599	-0.010495567
1	0xbba502a4	-0.005035715
2	0xbb14e6ec	-0.0022720648
3	0xba6d675f	-0.0009056236
4	0xbba93e78	-0.0051649176
5	0xbc1df947	-0.009641952
6	0x3c6dd45e	0.014515964
7	0x39973fd3	0.00028848517
8	0x3b79b17d	0.0038100176
9	0x3c14f89d	0.009092477
10	0xbbc37321	-0.005964652
11	0x3acc4d13	0.0015586935
12	0xbbaeef8a	-0.005338614
13	0xbba88ff0	-0.005144112
14	0x3c58da03	0.013235572
15	0xbc40957a	-0.011754388
16	0x3c14c494	0.009080071
17	0xbcc0d66a	-0.02353974
18	0x3cbca767	0.023029042
19	0xbba04bb0	-0.004891835
20	0x3c1a9114	0.009434003
21	0x3cc1f40c	0.02367594
22	0xba198c31	-0.0005857377
23	0xbbc540d9	-0.0060196933
24	0xbcc04298	-0.023469254
25	0x3b73503b	0.0037126679
26	0x3b82e0e0	0.0039940923
27	0x3b347186	0.0027533486
28	0x3bd4803a	0.0064850124
29	0xbbb476c8	-0.005507324
30	0x3af11faf	0.0018396283
31	0xbae3f6ae	-0.0017392242
32	0xbc30322d	-0.01075415
33	0xbb2a29ca	-0.002596485
34	0xbcddb3ac	-0.027063213
35	0x3c29d290	0.010365143
36	0x3c375d87	0.011191732
37	0x3bd23367	0.006414819
38	0x3c377cfe	0.011199234
39	0x3cbb75e6	0.022883367
40	0x3b9bc82c	0.004754087
41	0x3b91c9bc	0.0044490974
42	0x3c3f283d	0.011667308
43	0x3c3737f7	0.011182777
44	0xbd27e04c	-0.04098539
45	0xbcb76978	-0.022389159
46	0xbc5ab778	-0.013349406
47	0xbb49773f	-0.0030741242
48	0x3c522b01	0.012827636
49	0xbcacc24a	-0.021088738
50	0x3ca65e17	0.020308537
51	0x3865a148	5.474806e-05
52	0xb9ebe6ca	-0.00044994644
53	0x39f90ca0	0.00047502387
54	0x3aa6a2e5	0.0012713341
55	0xbb0e3922	-0.0021701534
56	0x39844a63	0.00025232424
57	0x3cb41ae5	0.02198548
58	0x3bd4949b	0.0064874417
59	0xbb75e559	-0.0037520735
60	0x3ba19e4b	0.0049322
61	0x3c1fd7bf	0.009756028
62	0x3c3e8a20	0.011629611
63	0xbc41f7a9	-0.011838832
64	0x3aff7dec	0.0019492484
65	0xbca6a3ec	-0.020341836
66	0x3c3f402d	0.011673016
67	0x3c84c9cb	0.016209504
68	0xbc064b8d	-0.008196724
69	0xbc7f07c2	-0.015565814
70	0xbb17f562	-0.002318703
71	0x3c108277	0.008820168
72	0xbbfcafa0	-0.007711366
73	0xbb9d03c3	-0.004791708
74	0x3c58bf4e	0.013229204
75	0xbcb1fcf6	-0.021727066
76	0xbb8cb809	-0.0042943996
77	0xbc8dbabf	-0.017300962
78	0xb8a621de	-7.921805e-05
79	0xbc1cb3fb	-0.009564395
80	0x3b4ca9dd	0.0031229176
81	0x3c21a5e7	0.009866214
82	0x3c1e0248	0.009644099
83	0xbbf54e9a	-0.0074861767
84	0x3cabb710	0.020961314
85	0x3b772c6f	0.0037715693
86	0x3c86907e	0.016426321
87	0x3c11c8b2	0.008897947
88	0x39b06838	0.00033646985
89	0x3c6b59cd	0.014364672
90	0x3c5b6e6a	0.013393024
91	0x3bf8f8d0	0.00759802
92	0x3b17d906	0.0023170128
93	0xbc6ea2a7	-0.0145651465
94	0xbc20b9c4	-0.009809915
95	0x39bc84f5	0.00035957215
96	0xbbf519fb	-0.0074799038
97	0xbb8e4095	-0.004341195
98	0x3c7544ce	0.014970018
99	0x3b952a4e	0.0045521623
100	0xbb25eca5	-0.0025318053
101	0x3c3f33a1	0.011670024
102	0x3a27de09	0.000640363
103	0xbc97b2a0	-0.018517792
104	0x3a0551fd	0.00050857646
105	0x3c2002fc	0.0097663365
106	0xba2b2cdf	-0.00065298186
107	0x3b247315	0.0025093008
108	0xbc985591	-0.018595489
109	0xbb92d306	-0.0044807224
110	0x3bb02254	0.005375186
111	0xbbeda0c7	-0.007251832
112	0x3b0777cd	0.0020670772
113	0xbc1a6aac	-0.009424847
114	0xbc08ef81	-0.008357883
115	0x3c43f9c2	0.011961402
116	0xbc8614bc	-0.016367309
117	0x3c2360e2	0.009971829
118	0x3c8d01e7	0.017212821
119	0xbc07a47f	-0.008278965
120	0xbc0aeb34	-0.008478928
121	0x3b63722b	0.00347055
122	0xbba677ac	-0.005080184
123	0xba4fc67d	-0.00079260004
124	0x3c07f37e	0.008297799
125	0x3931f9c9	0.00016973088
126	0x3a2c2e97	0.0006568222
127	0xbbe24daa	-0.006906231
128	0x3b828772	0.0039834315
129	0xbc1f8122	-0.0097353775
130	0xbc982eb0	-0.01857695
131	0xbc094493	-0.008378166
132	0x3be9e29a	0.0071376087
133	0xbb43b458	-0.0029862132
134	0x3c9d8a7b	0.019231072
135	0x3c97b1ce	0.018517401
136	0x3ca861df	0.020554481
137	0xbbda2601	-0.0066573624
138	0xbc544ac9	-0.012957283
139	0xbb2b7b0a	-0.0026165866
140	0x3aa696d6	0.0012709748
141	0x3b524a61	0.003208779
142	0x3b95a0c9	0.004566286
143	0xbc9c2e4c	-0.019065045
144	0x3b4ec8af	0.0031552722
145	0x38d7cc4e	0.000102900536
146	0xbbc0a73b	-0.0058793104
147	0xbc1c3ede	-0.009536473
148	0xbcab8f7f	-0.020942448
149	0xbc954b76	-0.01822446
150	0xbc9c42a3	-0.019074744
151	0x3c904d68	0.017615035
152	0xbca5f441	-0.02025807
153	0x3c09daf3	0.008414018
154	0x3c21191c	0.009832647
155	0x39489010	0.00019127154
156	0xbbbed882	-0.0058241496
157	0xbcb2c50a	-0.021822471
158	0xbc074d46	-0.0082581695
159	0x391ff858	0.00015255937
160	0x3b4eb138	0.0031538736
161	0xbc09e18c	-0.008415591
162	0x3a549415	0.0008109224
163	0x3cc1584b	0.023601672
164	0xbcbca6ef	-0.023028819
165	0x3b8c167e	0.004275142
166	0xbb7b68b1	-0.0038361961
167	0x39256a99	0.00015775337
168	0xbc854a6d	-0.01627084
169	0xbbd56513	-0.006512293
170	0xb9f5819d	-0.0004682661
171	0xbc1c015e	-0.00952181
172	0xbba35388	-0.004984323
173	0xbb22bfa2	-0.002483346
174	0xbad293b0	-0.0016065743
175	0xbae3aa14	-0.0017369413
176	0xbc453bb8	-0.012038164
177	0x3ab785d4	0.0014001676
178	0x3c5dbe33	0.013534117
179	0x3bbf6f1d	0.005842103
180	0x3c8124de	0.01576465
181	0x3bdb42fc	0.006691335
182	0xbb7e301e	-0.0038786004
183	0xbc98f335	-0.018670658
184	0x3a0569fb	0.00050893397
185	0x3c085a11	0.008322255
186	0xbadc2a84	-0.0016797339
187	0xbb2e3b6f	-0.0026585718
188	0x3c97d5e2	0.018534604
189	0x3b8a97cc	0.0042295214
190	0xbb08af88	-0.0020856578
191	0x3bdc9574	0.0067316834
192	0xbbd75f5a	-0.006572646
193	0xba42b388	-0.0007427265
194	0xbb07f7be	-0.002074703
195	0xbbde5827	-0.006785411
196	0xbbccd6f6	-0.0062512113
197	0x3ce81013	0.028327977
198	0xbc144f17	-0.00905206
199	0xbc0156ee	-0.007894261
200	0xbab8a230	-0.0014086422
201	0xbc625e68	-0.0138164535
202	0x3c90a8ab	0.017658552
203	0x3be23cd2	0.006904223
204	0x3c1cf53b	0.009579952
205	0xbc0283a8	-0.00796596
206	0x3c08a367	0.008339739
207	0x3beb0886	0.007172647
208	0x3c005fff	0.007835387
209	0x3c44f0b3	0.012020278
210	0x3ccc1632	0.024912927
211	0x3b4634cf	0.0030243879
212	0x3aafe5d7	0.0013419938
213	0x3c5a8ee6	0.013339734
214	0xbbac684b	-0.005261456
215	0xbb7db7e3	-0.0038714341
216	0x3bd23514	0.006415019
217	0xbb544eda	-0.0032395632
218	0x3ba66f07	0.0050791535
219	0x3c67a984	0.014139537
220	0xbc09f2dc	-0.008419719
221	0x3cb22c41	0.021749618
222	0xbc4caf6b	-0.012492995
223	0x3c483a48	0.012220927
224	0x3c14e016	0.009086629
225	0x3bca97de	0.0061826548
226	0x3c14acfb	0.009074445
227	0xbc8506bd	-0.016238565
228	0x3bf7d498	0.007563185
229	0x3c80df4a	0.015731473
230	0xbb37b0cf	-0.002802897
231	0x3cd95a74	0.02653239
232	0x3c41a104	0.011818174
233	0x3c04151e	0.008061675
234	0x39c00b46	0.00036629493
235	0x3b59da84	0.0033241818
236	0x3a350a85	0.00069061696
237	0xbbe19ba6	-0.00688501
238	0xbb491fbf	-0.0030689088
239	0x3b1f2ffe	0.002429008
240	0x3b305043	0.0026903308
241	0x3ca8d07a	0.020607222
242	0x3c40422e	0.0117345285
243	0xbcb9b65e	-0.022669967
244	0x3c1cc783	0.009569052
245	0x3caaae0d	0.020834947
246	0xbbde06e3	-0.0067757233
247	0xbcacb170	-0.021080703
248	0xbc2524d9	-0.010079586
249	0x3bc8ec56	0.006131689
250	0xba859ad7	-0.0010193241
251	0xb896c76c	-7.1897026e-05
252	0xbb82f440	-0.003996402
253	0xbbd48d96	-0.006486605
254	0x3cee04a0	0.02905494
255	0x3c0b0456	0.0084849205

base_model.model.model.layers.1.mlp.down_proj.lora_B.weight f4 [2048, 2]
0	0xba977133	-0.0011554122
1	0xbb7f9e8c	-0.0039004413
2	0x3be2a342	0.0069164345
3	0xbab1379a	-0.0013520599
4	0x3b609901	0.0034270885
5	0xbbb694a3	-0.005571918
6	0xbbe6b9f3	-0.00704121
7	0x3ade4047	0.0016956412
8	0xbb78c450	-0.0037958808
9	0xbac87816	-0.0015294577
10	0xbade671f	-0.0016967988
11	0x3a78ca5d	0.00094906037
12	0x3b54792f	0.0032420864
13	0x3b8978be	0.004195302
14	0x3b3a8a22	0.0028463681
15	0xbb0ea099	-0.0021763204
16	0xbaebf242	-0.0018001276
17	0x3af67aee	0.0018804946
18	0xbb21b819	-0.002467638
19	0x37f2ea6c	2.895781e-05
20	0x3b0ddeb2	0.002164763
21	0xbb5bac3c	-0.0033519408
22	0xbbfbf510	-0.007689126
23	0x3afae079	0.0019140384
24	0xbb2ebf78	-0.0026664417
25	0xba89aff0	-0.0010504704
26	0xbbbb161f	-0.005709424
27	0xb99c4a39	-0.0002980994
28	0xbba358dc	-0.004984958
29	0x3b8a09ab	0.0042125783
30	0xbb894ab0	-0.0041898116
31	0x3b670412	0.0035250229
32	0x3ba553d4	0.0050453935
33	0xbb9a4e0d	-0.0047090114
34	0x3b631421	0.003464945
35	0xbb36bf29	-0.0027884936
36	0x3b10a0b5	0.0022068445
37	0xbaf7c9d7	-0.0018904757
38	0x3b41b2a7	0.0029555948
39	0xbbfce0fb	-0.0077172494
40	0x3b5593a7	0.0032589228
41	0xbbe0e03e	-0.0068626693
42	0xbb67895c	-0.0035329675
43	0x3ae64145	0.0017567059
44	0x3adea0a0	0.0016985126
45	0xbaa3a5d4	-0.0012485334
46	0xbba2d740	-0.0049695075
47	0x3c00c491	0.007859365
48	0xbb381b2a	-0.0028092363
49	0x3b8db4b7	0.0043245214
50	0x3ad42dd4	0.0016187974
51	0x3b1e3d5f	0.0024145467
52	0xbbf49cdc	-0.007464988
53	0x3830110e	4.1977553e-05
54	0x3a073647	0.0005157929
55	0xbab958d1	-0.0014140849
56	0xbb139214	-0.002251749
57	0xbaf30853	-0.001854191
58	0x3a247466	0.0006273448
59	0x3b6cd2ab	0.003613631
60	0x3b84df02	0.004054905
61	0xbb6822d4	-0.003542115
62	0x3a961e9f	0.0011453218
63	0x3a100cbd	0.0005495062
64	0xbb766607	-0.0037597434
65	0xbac0b9c4	-0.00147038
66	0x3c1c9583	0.009557131
67	0xbb351bc7	-0.0027634965
68	0xba8ed478	-0.0010897061
69	0xbbd5d4be	-0.006525605
70	0xbb4a8a4b	-0.0030905183
71	0x3b74ec6e	0.0037372368
72	0x3b9de14b	0.004818117
73	0x3b9647ce	0.0045861965
74	0x3b07425a	0.0020638914
75	0x3a8984d9	0.0010491862
76	0x3bcbb52a	0.006216665
77	0xbc61412a	-0.0137484465
78	0xba6afbd7	-0.00089639187
79	0xbb4129bc	-0.0029474339
80	0xba891499	-0.0010458409
81	0x3b939b21	0.004504577
82	0xbb11affe	-0.0022230144
83	0x3bf48108	0.007461671
84	0x3bc1183a	0.0058927806
85	0xbb6acb34	-0.0035826685
86	0x398728ac	0.0002577951
87	0x3b3a7c7c	0.0028455546
88	0xbbd8694e	-0.00660435
89	0x3ae17e42	0.0017203765
90	0x3a349a84	0.00068894797
91	0x3a2ceea7	0.0006596841
92	0xbaceafd1	-0.001576895
93	0xbbaaf82a	-0.0052175717
94	0xbbd7b4b1	-0.0065828194
95	0xba843f3d	-0.0010089647
96	0xbb7f32c1	-0.0038940164
97	0x3b9f52e2	0.0048621753
98	0x3a5847f3	0.00082504674
99	0x3b4d5023	0.0031328283
100	0xba586fbd	-0.00082563964
101	0x3af44690	0.0018636752
102	0x3af53c98	0.0018710075
103	0xbada0764	-0.0016634283
104	0xb9f29f11	-0.0004627635
105	0xbbaac563	-0.0052115186
106	0xbb3ec341	-0.002910808
107	0xba45cb81	-0.0007545278
108	0xbb7c4fae	-0.0038499641
109	0x3ba76585	0.0051085376
110	0xbbc13c63	-0.0058970912
111	0xbb415fef	-0.0029506644
112	0xba9587b2	-0.0011408238
113	0x3b57abea	0.0032908865
114	0xb821d2b4	-3.8581624e-05
115	0xbb79b900	-0.0038104653
116	0xba5923e9	-0.0008283244
117	0xbbe82f3d	-0.0070857094
118	0x3b3ef6c0	0.0029138774
119	0xbbef3edf	-0.007301196
120	0xbb451406	-0.003007175
121	0x3b8053b5	0.0039162287
122	0xbb8d5b9a	-0.0043138983
123	0x3b534508	0.003223719
124	0x3a00cc7c	0.0004913283
125	0xbb3bac91	-0.0028636793
126	0xb7826da6	-1.5548267e-05
127	0x3ab4a2f4	0.0013781474
128	0xbb752543	-0.0037406243
129	0xbb6b5585	-0.0035909128
130	0x3b78426d	0.003788139
131	0xbac5bd1c	-0.0015086266
132	0xbb51a23a	-0.0031987564
133	0x3b91e1ec	0.004451981
134	0xb98e751b	-0.000271716
135	0x3ac7bc02	0.0015238526
136	0x3a293ee5	0.00064562104
137	0x3c05ab05	0.00815845
138	0xba781e48	-0.00094649615
139	0xba967c58	-0.0011481149
140	0x3c1ca336	0.009560397
141	0xbbcaca43	-0.0061886623
142	0x3afbe10f	0.0019216853
143	0x3c7c0a88	0.01538337
144	0xbb65f514	-0.0035088705
145	0x3bbe5091	0.005807944
146	0x3b3a2151	0.0028401206
147	0xbb9d6316	-0.0048030717
148	0xbb54071f	-0.0032352877
149	0xbac8b9a1	-0.0015314111
150	0xbaf4f135	-0.0018687608
151	0x3b0569b4	0.0020357193
152	0x3b832c04	0.00400305
153	0x3a899b4f	0.0010498556
154	0xb896e77c	-7.195675e-05
155	0x3a0fb9fc	0.0005482731
156	0xbbcacb34	-0.0061887745
157	0x3a6dc0b4	0.00090695475
158	0xbb30fa29	-0.0027004576
159	0x3af9e607	0.0019065746
160	0xbb99e157	-0.004696052
161	0xbb039251	-0.0020076225
162	0xbaf89601	-0.0018965603
163	0xba905597	-0.0011011836
164	0x38141d27	3.53131e-05
165	0xbbccf7eb	-0.00625514
166	0xbb6aae5c	-0.0035809493
167	0x3aff295f	0.0019467286
168	0xbb17baa1	-0.002315201
169	0x3bb028c6	0.0053759543
170	0xba93c2f3	-0.0011273309
171	0x39ac407b	0.00032854438
172	0xbaef3f39	-0.0018253095
173	0x3b5b8783	0.003349752
174	0xbb236600	-0.0024932623
175	0x3b9f7ba8	0.004867036
176	0xbb5d6189	-0.003378006
177	0x3b9b0e69	0.0047319424
178	0xbb88b7d5	-0.004172305
179	0x3b55f834	0.0032649161
180	0xbaf3b445	-0.0018593153
181	0x390e9e50	0.00013601151
182	0xbb99a989	-0.0046893996
183	0x3c14af7a	0.00907504
184	0xbae9e1bd	-0.0017843765
185	0x3b8f7744	0.0043782312
186	0x3b8c7665	0.0042865747
187	0x3b0481f9	0.0020219071
188	0xba8c5b79	-0.0010708413
189	0xbb609be9	-0.0034272617
190	0xbb3499e7	-0.0027557553
191	0xbb12be26	-0.002239117
192	0xbb8b52ab	-0.004251798
193	0xba566e57	-0.0008179894
194	0x3aca9a54	0.001545737
195	0x39f206aa	0.00046162802
196	0xbaa2a51e	-0.0012408828
197	0x3b2031a2	0.0024443646
198	0xb9fe628f	-0.00048520087
199	0x398484ea	0.0002527603
200	0xbaa2e9e7	-0.0012429327
201	0xbb319c44	-0.0027101198
202	0x3990889d	0.00027567605
203	0x3bf31c95	0.0074191787
204	0xbaa839b7	-0.0012834583
205	0xbaf572a1	-0.0018726179
206	0x3afd638b	0.0019332034
207	0x3b045706	0.0020193472
208	0x3aad40d7	0.0013218176
209	0x3c25ec23	0.0101271
210	0xbae0f843	-0.0017163832
211	0x3ba3e30c	0.0050014313
212	0xbad6dc60	-0.0016392581
213	0xb916e578	-0.00014390599
214	0xb922065c	-0.00015451893
215	0x3b62482e	0.0034527886
216	0xba4dc4f3	-0.0007849477
217	0x3b16ff51	0.0023040364
218	0x3c1d5a3e	0.009604035
219	0xbbcb50d9	-0.006204706
220	0xbb40e200	-0.0029431581
221	0x3b658d1c	0.0035026735
222	0xbb169cd1	-0.0022981653
223	0xbaad59c9	-0.0013225611
224	0xbad169d3	-0.0015976973
225	0xbbca8e15	-0.0061814883
226	0x3b94fb91	0.0045465906
227	0xbafb4dce	-0.0019172968
228	0x3b4a0784	0.0030827234
229	0xbb5b25f0	-0.003343936
230	0xbb6ce1d4	-0.0036145346
231	0x3ad03b04	0.0015886729
232	0xba6cd340	-0.0009034164
233	0x39692017	0.00022232566
234	0xbbaf988c	-0.005358761
235	0x3b1996de	0.002343587
236	0xbb5d765d	-0.0033792474
237	0x3a8714c2	0.0010305869
238	0xbbb787f6	-0.0056009246
239	0x3a97200e	0.0011529939
240	0xbbad9372	-0.005297118
241	0x3bde2b23	0.0067800446
242	0x3b574ac6	0.0032850965
243	0x3a3b6c1b	0.0007149593
244	0x3be36537	0.006939556
245	0xb9f68d3e	-0.0004702601
246	0x3b5363c8	0.003225552
247	0xbb299eeb	-0.0025882076
248	0xbbf12120	-0.007358685
249	0xbb72527e	-0.0036975439
250	0xbb001f4a	-0.00195499
251	0x3acb203d	0.0015497279
252	0x3b86480d	0.0040979446
253	0x39c11031	0.00036823892
254	0xba3435f6	-0.0006874496
255	0x3b9aeae5	0.0047277086
