output_model/single_lora_2/gpt_3.5_turbo_1106_4_llama_model/adapter_model.safetensors (safetensors, 82208 bytes, 2 tensors)

base_model.model.model.layers.1.mlp.down_proj.lora_A.weight f4 [2, 8192]
00000000: ee6f a3ba f22a a8b9 1858 92bc c55a 263c
00000010: a49e bf3a ae3f 5eba 67fe 94ba aa64 1e3c
00000020: d7f6 b3bc 0543 8b3c 9ee5 14bc 9f4a 5c3c
00000030: ea82 e93a 510b bd3a 838a 253b 46c9 75bb
00000040: 07a5 923c ae4b 29bb 1739 b93b 15a8 d43b
00000050: d14a 913b c679 063d 186c 82bc abd3 09bb
00000060: f451 9fbc 9759 2c3c 27a9 af3a 9b13 46bc
00000070: c9d3 b73a 411b 00bc 1db7 fabb 47b9 a5b9
00000080: f84b 91bc df36 07bc 5377 efbc 590b 0c3c
00000090: ec8e ae3c b2c8 59bc 8a3a 16bc ed08 ad3b
000000a0: 641b 0c3b 20c5 ea3b 8967 8d3c 7f74 a7bb
000000b0: bc3a 493a 202d 573b dfaf a23a 1b32 63bb
000000c0: 81d8 8e3b ad7a 1bbb 558c b43c 475d 31bc
000000d0: e08f 513b 6761 913b 23d1 07bb 983b c5bb
000000e0: b1ee 303c 5881 5b3c 5ebf 113c becd be3b
000000f0: 9398 f2bb f1ff 263c 13db 093c c117 083b
00000100: e998 003a 9d7c 35bc a87d a13c 3f20 69bb
00000110: 908c 013b 710b c83a 2a68 8a3a 9fbb 583c
00000120: bd6d 9ebc 8cf9 8bbb fade bc3c 998b d23b
00000130: ff3e 16bc af66 223c c60c 16ba 9ecf 62bc
00000140: 970f 85bc beac daba ddfa 34b9 12ba d83b
00000150: 5b0c d73b a25e 033c ac77 b73c 3638 483c
00000160: a5b4 863c 7ab4 26bc aa41 863b a981 12bc
00000170: acd9 b53b ca17 41bc 1ffe fabb 0ce5 ad3c
00000180: 8093 473b 4677 1dbc 61f9 dc3b 0071 3cbc
00000190: 3791 913b 795c be3b 961c ea3a 1fd8 8abc
000001a0: b99d 4abc d337 c43c 0da8 3ebc 8f06 b0bb
000001b0: d754 5cbb fb7c 863b be2b 003b a27b 62ba
000001c0: 6bea 093c a875 05bd 5dfb 203c 5d5c dfbb
000001d0: baa8 82bc d1e2 12bc 71c0 323b 9b2e 11ba
000001e0: a82c d739 1f75 e93a 44f8 c7bb 478e 6ebc
000001f0: b0de d63c c487 123c b7e8 d13b 7c29 983b
00000200: bb86 9c3b c40c 9dbc 4ec2 50bc 5574 013c
00000210: 3900 cb3b 244b c7b9 1789 273c 2b57 7a3c
00000220: 7166 473c 8462 f9bb 2e00 3b3c ecbd bf3c
00000230: a581 513a 12f9 9e39 416b 4dbc a936 8f3b
00000240: 563a ba3b 61f5 703a 5d20 7bbb f2fa 2fbc
00000250: e35d d4bb 003a 32bc 386a 19bc 3718 cc3c
00000260: 8022 1dbc 277c 5c3c c1ed bebb 18d2 5dbb
00000270: 7231 b9bc b0d1 b5bc 9b36 2fbc 3a72 ae3c
00000280: 1632 1cbc 6517 bbba 359f 3ebc b939 263b
00000290: babc 86bc 7e75 753c 23df 93bb f3bf d63b
000002a0: 43b9 0c3c a908 0d3b 694c 39bc 3811 85bc
000002b0: 8372 05bc 9adf 41bc e9ad af39 c11f fdbb
000002c0: f03f bebc 3b69 7abc 1ffe d53b 7138 4dbc
000002d0: 8aae f23b 1ab5 cfbb 596a 85bc 5737 2ebc
000002e0: 6d6c d7bb c3eb 893b 0dfa 783a 1644 89bc
000002f0: d3ed 883c 9506 503b 80a4 c6bc 1d6c 473c
00000300: 9321 243c 7cd7 a6ba 8f21 0f3b f7e7 77bb
00000310: e3c1 4ebb bcd5 dbba cc24 3abb b3f4 da3b
00000320: c8bc bcba ec45 00bc eaa3 21bb 9310 f93a
00000330: bfa2 303c 38e2 41bc 6851 2c3c 67ef 793b
00000340: a028 edba caab 7f3c 8fe6 f73c 0cd4 b53b
00000350: ae34 3c3c 8c40 0a3c 79b2 e0bb eb81 ccbb
00000360: e098 813a 0247 b1bb 9d91 3ebc 90fb 813c
00000370: 3961 493c 3902 793c c3d8 b8bc 35d8 673c
00000380: df60 6fbb 29c6 0cba e881 28bc 0ae5 6ebc
00000390: ee3a 90ba b912 e83b f2b6 de39 f233 963b
000003a0: 6dde be3b 8271 623c e87f c5bc 08b6 03bb
000003b0: e4ce 63bb 8d5c fbbb a265 6ebc 7c46 ea3b
000003c0: ea3b 75bb 32b2 763c 46b0 5c3c 4f32 7cbc
000003d0: 8ccb fabb 3aac 8d3c 8056 7fbb 3b53 a9bc
000003e0: d2ec 8e3b 2910 11bc 6ed7 1cbc 4ede c63b
000003f0: 6aeb 91bb 8068 02bc 1fac 1c3c 15ac 263c
-0.0012469271 -0.00032075454 -0.017864272 0.010153477 0.0014619422 -0.0008478117 -0.0011367322 0.009667555
-0.021968288 0.01699973 -0.009087948 0.013445525 0.0017815505 0.0014422928 0.0025259561 -0.0037504002
0.017900957 -0.0025832462 0.0056525576 0.0064897635 0.0044339676 0.032830976 -0.015920684 -0.0021030705
-0.019448258 0.010519407 0.0013401852 -0.012089635 0.0014024909 -0.007818998 -0.0076512233 -0.00031609295
-0.01773642 -0.008252828 -0.029231703 0.008547627 0.021308385 -0.013292478 -0.00916923 0.005280605
0.002137863 0.0071646124 0.017261283 -0.005110323 0.00076762936 0.0032833293 0.0012412033 -0.0034667316
0.0043593054 -0.0023724244 0.022039572 -0.010825462 0.0031976625 0.00443666 -0.002072402 -0.006019067
0.010799096 0.013397537 0.008895723 0.005822866 -0.007403442 0.010192857 0.008414048 0.0020766112
0.0004905598 -0.011077073 0.019713238 -0.0035572199 0.001976762 0.0015262199 0.0010559608 0.013228326
-0.019339437 -0.0042716917 0.023055542 0.0064253327 -0.009170293 0.009912177 -0.0005723949 -0.013843445
-0.016242785 -0.0016683561 -0.00017259592 0.006613978 0.006562752 0.008018168 0.022395931 0.012220433
0.01644356 -0.010174865 0.0040971832 -0.008942046 0.00554963 -0.011785457 -0.007659688 0.021227382
0.0030452907 -0.009610957 0.0067435955 -0.011501551 0.00444236 0.0058093634 0.0017861302 -0.016948758
-0.012366706 0.0239524 -0.011636746 -0.0053718756 -0.0033619904 0.0041042543 0.0019557322 -0.00086396385
0.008417706 -0.03258291 0.009825555 -0.0068164305 -0.015949596 -0.00896521 0.0027275349 -0.0005538256
0.00041041267 0.0017811394 -0.0061025936 -0.014560289 0.026229233 0.008943502 0.0064059156 0.004643617
0.0047768033 -0.019171126 -0.012741638 0.007901271 0.006195095 -0.00038012222 0.010225556 0.0152795715
0.01217042 -0.007610621 0.011413617 0.023405991 0.0007992036 0.0003032168 -0.012537778 0.0043705297
0.0056832237 0.0009191838 -0.003831885 -0.010740982 -0.0064809187 -0.010878086 -0.009363703 0.02491389
-0.009590745 0.013457335 -0.0058266823 -0.003384715 -0.022606585 -0.022194713 -0.010694171 0.021294702
-0.009533426 -0.001427394 -0.011634638 0.0025363995 -0.016447414 0.014981626 -0.004512684 0.006553644
0.008589092 0.0021520054 -0.0113097215 -0.016243562 -0.0081449775 -0.011833096 0.00033508174 -0.0077247326
-0.023223847 -0.015283878 0.0065305377 -0.012525664 0.0074060606 -0.0063387277 -0.016286062 -0.010633311
-0.0065742047 0.004209013 0.00094977097 -0.016756099 0.016714966 0.0031742204 -0.024248362 0.012171772
0.01001777 -0.0012729014 0.002184007 -0.003782747 -0.003154867 -0.0016772072 -0.002840328 0.0066820025
-0.0014399523 -0.007829171 -0.002466435 0.0019002132 0.010780989 -0.01183372 0.010517456 0.003813708
-0.0018093772 0.015604923 0.030261306 0.0055489596 0.011487169 0.008438241 -0.006857213 -0.0062410734
0.0009887479 -0.005410076 -0.011631397 0.015867025 0.012291246 0.015198284 -0.022564298 0.014150669
-0.0036526246 -0.00053701043 -0.010284878 -0.014580974 -0.001100389 0.00708231 0.00042479445 0.004583829
0.005824855 0.013821008 -0.024108842 -0.0020097513 -0.0034760768 -0.007670945 -0.014550598 0.0071495157
-0.0037419745 0.0150571335 0.013469761 -0.015392854 -0.007653659 0.017294038 -0.003896147 -0.02066957
0.0043617273 -0.008853951 -0.009572847 0.0060689813 -0.0044531124 -0.007959485 0.009562521 0.0101728635

base_model.model.model.layers.1.mlp.down_proj.lora_B.weight f4 [2048, 2]
00000000: 5084 3cba 3c36 bdba fd5d 0c3c 65c7 96bb
00000010: 555d 853b d349 2cbb daa8 ecb7 4769 06bb
00000020: dce2 d739 df2e 93ba 6e3b 8abb cc68 3dba
00000030: f78c 9fba 44de 42bb 690b 8b3a 2369 26ba
00000040: 49e5 fcba 2a51 083a dad2 58bb 2821 c93b
00000050: 307e c83b 7aa5 8c3a d93d e5ba 482b 8c3b
00000060: d189 69bb 517d 943a 5a8e 5939 6afa 0d3b
00000070: 0dc4 d8bb ce41 6639 7943 96bb 1ae7 c33a
00000080: ae47 ec3b e85e 523b 64a2 c93b 10ca 203b
00000090: bd4d 3f3b b43d c5bb 001e 603a 0740 4f3c
000000a0: d418 693b 222c 2b3b 2652 d9ba db61 a13b
000000b0: 3c98 2f3b 0f65 be3b 1611 8dbb e192 53bb
000000c0: 280c 58bb 011b 53bb 0b70 daba ac1a d1bb
000000d0: 9240 353b 76f8 a63b 5223 2c3b 775a 8aba
000000e0: da58 16bb cf9d cf3b 1ea5 39bb c1f1 923a
000000f0: 4e46 093b d684 c9bb e549 75bb 1772 a53a
00000100: 4e43 9d3a abb6 aa39 bb90 773b c5ab 2bbb
00000110: 79d9 f23a 3d54 a43a 241f 33bc 34a4 ab3b
00000120: 1c10 81bb 4050 37bc 1348 17bb 16c6 143b
00000130: d6c9 143c ca30 d23b 7d0b d73a 55a7 133c
00000140: 7da4 00bb b767 babb 37ad 4dbb 3f63 2abc
00000150: de4f 91b9 e29c 8d3b da96 1dbb 8481 4ebb
00000160: b43c b6bb 42b2 863b 5d22 833a cd79 8d3a
00000170: 2ba8 9b3a e583 6b3b 4a89 baba 6bc0 823b
00000180: 9099 123b fd6e 6ebb 5676 dfba ccad e23b
00000190: a363 86bb c33e 4d3b 666b 0638 df84 ca3a
000001a0: ea74 e03a bf59 6c3b f8a4 4cbb 43f6 cf3b
000001b0: 17db d3bb a779 ad3a 1fab 933b dd90 d039
000001c0: cdc1 e9ba 6add 90bb f064 a03b 7614 f73b
000001d0: 66f1 213a 2d34 033c f5b4 f23b e699 473c
000001e0: 51ff 63bb 6760 86b7 ab9a 22bb 2599 1a3b
000001f0: 36ab 363a 7eaf 043b deea 413a 81cc 31ba
00000200: 0436 a23b 87c3 50bb fa1b 8e39 eb4f 04bc
00000210: 6032 bbbb ce43 f0bb 7cf0 9738 eb43 1f3b
00000220: 1676 dbbb b696 eebb 23be 373a fdc2 cfb8
00000230: 3696 343c 5d2e 2abb ab7a 38bc 1d01 87bb
00000240: 053d 85bb fcc7 33bb a5b6 f53b 8004 04bb
00000250: b818 aeba 8bcf af3b 271a 6bbb bbc0 903a
00000260: ff4d 8b3b 48c5 1ebc ee13 243b 7fa1 d3bb
00000270: 9fa3 c2ba bfb8 bd3a baf9 6ebb 378c f7bb
00000280: f633 b0bb 6da2 383c 6501 18ba c27e c4b9
00000290: 1a58 733b 7847 f43b e303 ffba 9c07 3abb
000002a0: 5cbb deba 6337 41bc a33e 92bb 8658 2ebb
000002b0: bd17 d5bb b822 d1b9 18be 9cbb bd38 8aba
000002c0: 1b49 39b9 1ed5 edbb 84c7 dbbb ead5 4f39
000002d0: 1da5 e5bb 85a5 9b3b fdfe 82bb e57e 31bb
000002e0: e784 3f3b 49e3 f2bb 6d08 433b fc55 3cbc
000002f0: b7cf 843b 2bbf 093b aaff 883b 3de9 02bb
00000300: c23e 4bbb b036 ae3b 95b2 033b 0172 b8bb
00000310: 1571 6bbb 7b15 73ba 4032 a038 8dba 1b3b
00000320: 7a3b 373b 66ee 8eba 602d e63a 96aa 4abc
00000330: 2ca2 083a 6d1a c43b 7381 fdba 55ba c1bb
00000340: e355 d6bb fad8 56bb 1699 91bb 8d81 22b8
00000350: 5a16 66ba 6168 0cbb 601e f1ba 40ff 783a
00000360: 10db 4fba 417d 1abc bc6d f93b b4a5 c4ba
00000370: 0e49 02bc e594 043c 7f9a 593b f2ee 67bb
00000380: 80d6 983b 1809 183a 24ff c93a 5bfe 73ba
00000390: fa40 a53b 06f2 7cbb 4b95 a9bb e13f 8f3b
000003a0: 4049 3b39 f538 e7ba fbfa 25bb d7a4 563b
000003b0: b8fa e537 6f6d 4f39 6785 27bb 58cd 11bb
000003c0: ae7d 99bb 740a a6bb 5949 79bb 42dd 46bb
000003d0: 2042 f93a 3e14 903b 2b7d 2c39 ed4e 2f3b
000003e0: 83b2 b4ba a425 143c 94ab 063b f937 3b3a
000003f0: 6ca9 42bb 30c7 2eba 35e9 b7bb 6108 eaba
-0.0007191347 -0.0014435719 0.00856733 -0.0046014064 0.004069964 -0.002628912 -2.821202e-05 -0.0020509528
0.0004117702 -0.0011229179 -0.0042185104 -0.0007225394 -0.0012172748 -0.0029734531 0.0010608259 -0.0006348064
-0.0019294407 0.00052000827 -0.0033084662 0.0061379857 0.0061185583 0.0010730468 -0.0017489746 0.0042776205
-0.0035635123 0.0011328851 0.00020747763 0.002166415 -0.006615168 0.00021959023 -0.00458568 0.0014946193
0.0072106933 0.0032100026 0.0061533917 0.00245345 0.0029190623 -0.0060193185 0.0008549392 0.012649543
0.0035567777 0.0026118835 -0.0016580268 0.0049249954 0.002679362 0.005810387 -0.0043050153 -0.0032283592
-0.003296623 -0.003221214 -0.0016665471 -0.0063813534 0.0027656895 0.005095537 0.002626617 -0.0010555525
-0.0022941143 0.006335951 -0.0028327177 0.0011210964 0.0020946446 -0.0061498685 -0.0037428078 0.0012622502
0.0011998208 0.00032561025 0.0037775475 -0.0026194912 0.0018527947 0.0012537312 -0.0109327175 0.0052380804
-0.003938688 -0.011188567 -0.002308373 0.0022701076 0.009081325 0.0064145075 0.0016406622 0.009012063
-0.0019629293 -0.0056886333 -0.0031383762 -0.010399639 -0.0002771606 0.0043216804 -0.0024046213 -0.0031510303
-0.0055614356 0.0041106055 0.0010004748 0.0010793746 0.001187568 0.003593677 -0.0014231589 0.003990223
0.0022369362 -0.0036382072 -0.0017048817 0.006917691 -0.004101233 0.0031317926 3.2048112e-05 0.0015450976
0.0017124687 0.0036064235 -0.0031226259 0.0063464954 -0.0064653265 0.0013235108 0.004506483 0.00039780783
-0.0017834246 -0.004420926 0.004894845 0.007540281 0.0006177634 0.008008045 0.0074068257 0.012182688
-0.0034789632 -1.6018936e-05 -0.0024811428 0.0023589816 0.00069682614 0.0020246203 0.00073973637 -0.00067824876
0.004950287 -0.0031854825 0.00027105195 -0.008075695 -0.0057127923 -0.0073323017 7.245035e-05 0.0024301957
-0.0066974266 -0.0072811497 0.00070092286 -9.9068486e-05 0.011022141 -0.0025967576 -0.011259715 -0.0041200058
-0.004066112 -0.0027432432 0.0074985796 -0.0020144284 -0.0013282513 0.005365317 -0.0035873742 0.0011043766
0.004251241 -0.00969059 0.0025036293 -0.006458461 -0.0014849788 0.0014474614 -0.0036464767 -0.0075545567
-0.005377288 0.011269194 -0.00057985476 -0.00037478475 0.003713137 0.007454809 -0.0019456114 -0.0028385883
-0.0016993093 -0.01179299 -0.0044630333 -0.0026603057 -0.006503074 -0.00039889454 -0.004783403 -0.0010545474
-0.00017670209 -0.0072580716 -0.0067071337 0.00019820748 -0.0070082084 0.004749956 -0.003997682 -0.0027083692
0.0029223503 -0.0074123484 0.002975966 -0.01149511 0.004053082 0.0021018486 0.004180868 -0.0019975447
-0.0031012748 0.005316578 0.0020095457 -0.0056288247 -0.0035925556 -0.0009272915 7.638754e-05 0.0023762316
0.0027959035 -0.0010904789 0.001756113 -0.012369772 0.0005212154 0.0059845955 -0.0019340947 -0.005912105
-0.006541 -0.0032783137 -0.004443298 -3.8744463e-05 -0.00087771344 -0.002142452 -0.0018395893 0.00094984844
-0.0007929066 -0.009429277 0.0076119583 -0.0015002997 -0.007951988 0.00809214 0.003320366 -0.0035390225
0.0046642423 0.0005799695 0.0015411121 -0.0009307616 0.005043146 -0.0038596406 -0.005175268 0.0043716286
0.00017860997 -0.0017640876 -0.0025326598 0.003275206 2.7415677e-05 0.00019781826 -0.0025561692 -0.0022247639
-0.0046841716 -0.005067164 -0.0038038103 -0.0030344282 0.0019016899 0.0043969443 0.00016449827 0.0026749924
-0.0013786111 0.009042177 0.0020549046 0.00071418245 -0.0029703034 -0.00066672545 -0.0056125172 -0.001785528
