output_model/single_lora_2/gpt_3.5_turbo_1106_4_llama_model/adapter_model.safetensors (safetensors, 82208 bytes, 2 tensors)

base_model.model.model.layers.1.mlp.down_proj.lora_A.weight f4 [2, 8192]
0	0x3c07165c	0.008245077
1	0x37a4e4e0	1.9656902e-05
2	0x3cc469ed	0.02397629
3	0x3a1dca1b	0.0006019191
4	0x3aa55887	0.0012614884
5	0x3c11aa77	0.00889074
6	0xbc696ef1	-0.014247642
7	0xbb0da210	-0.002161149
8	0x3cb3ac18	0.021932647
9	0xbb74a843	-0.0037331737
10	0x3b7614f9	0.0037549122
11	0xbbcedde4	-0.0063130725
12	0xba8f8639	-0.0010950036
13	0xbc8004ce	-0.015627291
14	0xbbfa0b64	-0.0076307524
15	0x3aee775d	0.0018193532
16	0xbc8b3703	-0.016994005
17	0x3cd4042d	0.025880897
18	0xb8796620	-5.9461338e-05
19	0xbba3af3a	-0.004995254
20	0x3b3573cc	0.0027687429
21	0xbc4b7738	-0.012418561
22	0xbba7646d	-0.0051084072
23	0xbc026001	-0.007957459
24	0x3cb8a419	0.022539185
25	0xbc8809e4	-0.016606279
26	0x39d52bad	0.00040659067
27	0xbaca9f17	-0.001545879
28	0x3c2013bc	0.00977033
29	0x3cb43f4b	0.022002837
30	0xbb099680	-0.0020994246
31	0x3a77a50c	0.0009446896
32	0xbaff6539	-0.0019485123
33	0xbb681860	-0.003541492
34	0x3bea16fb	0.0071438528
35	0xbc82cc5f	-0.015966592
36	0xbc3220f3	-0.0108721135
37	0x3c1f11c5	0.009708826
38	0xbbd97c46	-0.006637129
39	0xbc12da0e	-0.008963121
40	0xbc8d3813	-0.017238652
41	0xbbffaad9	-0.007802349
42	0x3c237eae	0.009978933
43	0x3c1f8d7a	0.0097383205
44	0x3cf42d48	0.029806748
45	0x39b98b04	0.00035389524
46	0x3b866b86	0.0041021733
47	0x3ba5b037	0.005056407
48	0xbba27fd8	-0.004959088
49	0x3c2b0c87	0.0104399985
50	0xbc2976b9	-0.010343247
51	0x3c2b1fab	0.010444562
52	0xbca946bf	-0.020663617
53	0xbbb409bb	-0.005494324
54	0x3ab308a8	0.0013659196
55	0x3c65cdbd	0.014026103
56	0xbb970d17	-0.0046097147
57	0xbc9f973f	-0.0194813
58	0xbaf97639	-0.0019032425
59	0xbc6aa81b	-0.014322306
60	0xbad4d452	-0.0016237593
61	0xbc3ab9dc	-0.011396851
62	0xbb82905e	-0.003984495
63	0x3b130b3c	0.0022437116
64	0x3c022df7	0.007945529
65	0xbc1e3ec9	-0.009658524
66	0x3bdb8f3a	0.0067004235
67	0xbc15c1a5	-0.009140407
68	0x3cf3a1ac	0.029740177
69	0x3cb86fd4	0.022514261
70	0x3a51f366	0.00080089865
71	0x3bbdb294	0.0057891104
72	0x3b1c7f03	0.0023879416
73	0x3b90bda5	0.0044171386
74	0xbc13e8e9	-0.009027698
75	0x3ab24958	0.001360218
76	0xbb8fcc7d	-0.0043883906
77	0xbbc74acb	-0.006081914
78	0xbbb01e7a	-0.005374727
79	0x3c68a1cc	0.014198732
80	0xbbe36cfa	-0.0069404813
81	0x3c296e0d	0.01034118
82	0x3c22b4ff	0.009930848
83	0x3c032b81	0.008005978
84	0xbc8b46cd	-0.017001534
85	0x3a4d10e4	0.00078226463
86	0xbb5f9b62	-0.0034119715
87	0xbc493e31	-0.012282894
88	0x3c7d2768	0.01545129
89	0xbc26a6c4	-0.010171596
90	0x3bf02374	0.007328445
91	0x3c5846d6	0.013200482
92	0xbbb08e40	-0.0053880513
93	0xbb882917	-0.004155289
94	0x3c7c9172	0.015415536
95	0x3a53ce08	0.0008079712
96	0xbbb10920	-0.005402699
97	0xbc2dcd7a	-0.010608071
98	0xbc803977	-0.015652401
99	0xbc5cdf82	-0.013481023
100	0xbc4b002d	-0.012390179
101	0xbbceb146	-0.0063077537
102	0xbc3ece38	-0.011645846
103	0x3c5cce46	0.013476914
104	0x3c0fad75	0.008769383
105	0xbb6e3fcc	-0.0036353944
106	0x3a518458	0.0007992438
107	0x3a05fc4c	0.00051111425
108	0x3cbf4d12	0.02335218
109	0x3c64aa2f	0.013956591
110	0x3c690277	0.014221779
111	0xbb003c64	-0.0019567246
112	0xbc927b97	-0.017881198
113	0xbb2d56a5	-0.002644935
114	0x3b8f005a	0.0043640556
115	0x3c621f84	0.013801459
116	0x3bffd289	0.00780708
117	0x3b971ca1	0.004611567
118	0xbc032fe5	-0.008007024
119	0x3cb08349	0.021546977
120	0x3b486da2	0.0030582924
121	0xbc398ff6	-0.011325827
122	0xbb34c1ef	-0.0027581414
123	0x3bb6e351	0.0055812974
124	0x39cecd6f	0.00039444442
125	0xbc698510	-0.014252916
126	0xbc10850a	-0.0088207815
127	0xbc06ced9	-0.008228027
128	0xbc886772	-0.01665089
129	0x3c6b8fe6	0.01437757
130	0x3c1ebb60	0.009688228
131	0x3bf462e8	0.0074580796
132	0xbc92aaff	-0.017903803
133	0xbb43cf5c	-0.0029878234
134	0xbce137cc	-0.027492426
135	0xba241001	-0.0006258488
136	0xbb804049	-0.0039139134
137	0x3ca3c48d	0.019991184
138	0x3b1e358a	0.0024140798
139	0xbbaf06ff	-0.00534141
140	0x3c317cd7	0.010832987
141	0xbc991e6c	-0.018691264
142	0xbb1ae5e9	-0.0023635572
143	0x3b88f6d4	0.004179815
144	0xba585598	-0.00082525006
145	0x3b58c716	0.003307765
146	0x3c1b3309	0.009472617
147	0x3c90289c	0.017597489
148	0x3bb0cc38	0.0053954385
149	0xbc02aede	-0.007976262
150	0x3ca1eb7b	0.019765606
151	0xbc6a59ae	-0.014303608
152	0x3cc00aaa	0.023442585
153	0x3c6449bd	0.013933596
154	0x3bc32bef	0.005956165
155	0x3b7f66a8	0.00389711
156	0xbc11d541	-0.008900941
157	0x3b5b471d	0.0033459135
158	0x3c53ef01	0.012935401
159	0xbc8b7a00	-0.017025948
160	0x3adc744d	0.0016819328
161	0xbc704b0e	-0.014666332
162	0xbb9750dc	-0.0046177935
163	0xbc8eeb28	-0.017446116
164	0x3bbe40e3	0.005806075
165	0xbc1e7b57	-0.009672961
166	0xbc298b14	-0.0103481
167	0xbc51c77c	-0.012803908
168	0x3c9aa225	0.018876145
169	0x3c2ebe60	0.010665506
170	0x3c8da2ae	0.017289486
171	0x3c06bbc6	0.00822348
172	0x3ca5e950	0.020252854
173	0xbb45623d	-0.003011837
174	0x3bba5a4a	0.005687033
175	0xbc66556a	-0.01405845
176	0x3c521b3f	0.012823879
177	0x39c61702	0.00037782645
178	0xbb3ac886	-0.002850087
179	0x3a62cd4b	0.0008651807
180	0xb9fa8ad8	-0.00047787162
181	0xbbd6a5bd	-0.0065505193
182	0x3c66dc8b	0.0140906675
183	0x3ba175f4	0.004927391
184	0x3b368a04	0.002785326
185	0xbbd58b67	-0.006516862
186	0xbc85bbf6	-0.016324978
187	0xbaa172e1	-0.0012317562
188	0xbc2023e4	-0.009774182
189	0xba548357	-0.00081067294
190	0x3c71d491	0.014760152
191	0x3ba03da4	0.0048901606
192	0xbbb41573	-0.005495721
193	0xbc0843fa	-0.008316988
194	0xbbed8882	-0.007248939
195	0x3c460217	0.012085459
196	0x3c5143ca	0.01277251
197	0xbb8b699a	-0.004254532
198	0x3acb2524	0.001549874
199	0x3a52e27a	0.0008044612
200	0x3c9c0dc2	0.019049529
201	0x3ae94b5b	0.0017798947
202	0xbc50a190	-0.012733832
203	0x3c69b772	0.014264928
204	0xba63afcb	-0.0008685558
205	0xbc39c0f8	-0.011337511
206	0xbc9b18a3	-0.018932646
207	0xb98f190e	-0.00027293753
208	0xbbc2a85b	-0.0059404797
209	0xbc1f424e	-0.009720398
210	0xbc3c6d70	-0.011500701
211	0xbc389502	-0.011265995
212	0xbbe49ad3	-0.0069764643
213	0x3beb8b5f	0.007188245
214	0x3b10ff9e	0.0022125016
215	0x3cbb8c78	0.02289413
216	0xba8cbb6f	-0.0010737012
217	0x3ca7d426	0.020486902
218	0xbc56971b	-0.01309755
219	0xbc961eaf	-0.018325178
220	0x3b9b3c61	0.0047374223
221	0x3c337197	0.010952375
222	0x3c466bd5	0.01211067
223	0xbc6630e1	-0.01404974
224	0xbc3eacd3	-0.011637884
225	0xbb9e5dd2	-0.0048329616
226	0xbb003f3e	-0.0019568945
227	0x3c11b9d9	0.008894407
228	0x3b9fdbe9	0.0048785103
229	0xb9412b7e	-0.00018422116
230	0x3bad0689	0.00528032
231	0x3c3b18f0	0.01141952
232	0xbcbf55f7	-0.02335642
233	0xbc50d00d	-0.012744916
234	0xbbf8e7ba	-0.0075959833
235	0xbada43af	-0.0016652251
236	0x3b330b2b	0.002731989
237	0x3c810bba	0.015752662
238	0xbc193748	-0.009351559
239	0xbc16852b	-0.009187023
240	0x3c3c6789	0.011499294
241	0xbb86c84e	-0.0041132336
242	0xbbbf6ede	-0.005842074
243	0x38d64a24	0.00010218125
244	0xbb4c18da	-0.0031142742
245	0xbc729111	-0.014805094
246	0x3bfaa3c3	0.0076489164
247	0x3c14bb81	0.009077908
248	0xbc346b5e	-0.011011926
249	0xbbe38cc2	-0.00694427
250	0x3c2b375e	0.010450212
251	0xbb9b2602	-0.0047347555
252	0x3c6803cd	0.014161062
253	0x3c3cdeef	0.011527761
254	0xbbd7e07a	-0.006588039
255	0xbc82e948	-0.015980378

base_model.model.model.layers.1.mlp.down_proj.lora_B.weight f4 [2048, 2]
0	0x3b6a5c37	0.003576053
1	0xbb046059	-0.002019903
2	0xbc24661b	-0.0100341095
3	0xbc0aef48	-0.008479901
4	0xbbe08670	-0.0068519637
5	0xbb87230d	-0.0041240514
6	0x3c13c2df	0.009018629
7	0x3b0b887a	0.0021291063
8	0x3b4aef4f	0.0030965393
9	0x3b4d2b91	0.0031306485
10	0x3c1012cd	0.008793545
11	0x3b9528b5	0.004551972
12	0xbabf54c1	-0.0014597402
13	0x3b86dae6	0.00411545
14	0xbb974f76	-0.004617627
15	0xb955ad8f	-0.00020377919
16	0x3bf2fb96	0.0074152453
17	0x3ab88479	0.0014077566
18	0x3b664e40	0.0035141855
19	0xbabd90b6	-0.0014462683
20	0xb9d24d7c	-0.00040112052
21	0xbb2f4c2b	-0.002674828
22	0x3bd452dc	0.006479604
23	0x3b042bc5	0.002016769
24	0x3b5a26b9	0.003328724
25	0x39e7076d	0.00044065286
26	0x3b068627	0.0020526738
27	0xb974b0dd	-0.0002333554
28	0x3b27fb07	0.0025631802
29	0x3a96d85b	0.0011508571
30	0x3aabc327	0.0013104425
31	0x3ab4ebe6	0.0013803213
32	0xba768ccc	-0.00094051356
33	0xbbe23ae5	-0.0069039934
34	0x38bdef8b	9.056841e-05
35	0xbb3a3280	-0.0028411448
36	0xbb7263b3	-0.0036985695
37	0xbb81f8ab	-0.003966411
38	0xbb4fee1b	-0.0031727615
39	0xbbbc099c	-0.00573845
40	0x3aa21cdb	0.0012368219
41	0xbb146af3	-0.0022646755
42	0x3a596471	0.000829286
43	0x3a3a574e	0.00071083463
44	0x3bbf93c3	0.005846472
45	0xbad26ddc	-0.0016054469
46	0x3b686755	0.0035461981
47	0x3bbc4ccd	0.00574646
48	0x3b8de2fe	0.004330038
49	0x3bc1180d	0.0058927597
50	0x3abbf4ca	0.0014339921
51	0x3af73ace	0.001886213
52	0x3ba1c31e	0.00493659
53	0x3adb2eb2	0.001672229
54	0xbb934d49	-0.004495297
55	0xbb0898a3	-0.0020842932
56	0x3bd769af	0.0065738778
57	0x3a8d3153	0.0010772146
58	0xbbd4a258	-0.0064890794
59	0x3a86b1da	0.0010276393
60	0xbb86071c	-0.004090203
61	0xbb3faabe	-0.0029246057
62	0x3b51ab3a	0.0031992928
63	0x3be8061d	0.007080807
64	0xbb333b2a	-0.0027348497
65	0xb8bc2407	-8.971249e-05
66	0xbb0ae503	-0.002119363
67	0x398fe8d0	0.00027448544
68	0xbb93bb4a	-0.0045084106
69	0xbb2e7cb0	-0.0026624613
70	0x3b688525	0.003547975
71	0x3c022906	0.007944351
72	0xbc71785c	-0.014738169
73	0x3b219f8e	0.0024661752
74	0x3a76ed3d	0.00094195065
75	0x3a1baa2d	0.0005938139
76	0x39bba96e	0.00035793654
77	0xbc08903c	-0.008335169
78	0x3b7287c8	0.0037007201
79	0xba2c6166	-0.0006575793
80	0x3b3ac31a	0.0028497637
81	0x3ba828d1	0.005131819
82	0x3b8acc48	0.004235778
83	0x3bd61595	0.0065333345
84	0xbbec4296	-0.007210086
85	0xbb9d906b	-0.0048084757
86	0xba1fdf0d	-0.0006098606
87	0x3ba54fa8	0.005044896
88	0x3b7ab383	0.003825397
89	0x3b8e7a57	0.00434808
90	0x3a9d4162	0.0011997635
91	0xbabfb5d0	-0.0014626328
92	0x3b953214	0.004553089
93	0xbaf8e428	-0.0018988894
94	0x3b9ecfe8	0.0048465617
95	0x3ac87684	0.001529411
96	0x39814502	0.00024656212
97	0x3a7b7306	0.000959203
98	0x3bf5cbd9	0.007501107
99	0x3b56a1d0	0.0032750256
100	0x398f1e20	0.0002729753
101	0xb9eada70	-0.00044794707
102	0xba8a9afe	-0.0010574756
103	0xbb0dc745	-0.0021633666
104	0x3b77bc52	0.0037801457
105	0xbb7c79be	-0.0038524712
106	0x3c0552f8	0.008137457
107	0x39f3fd58	0.00046537328
108	0x3b904477	0.004402693
109	0x3bd55dc3	0.0065114214
110	0xbba84caf	-0.0051360945
111	0xbb8b86e6	-0.0042580245
112	0x3aba97c0	0.0014235899
113	0x3bba1b55	0.0056795278
114	0x3bf20c43	0.0073867156
115	0xba8fc992	-0.0010970107
116	0x3c0472f2	0.008084046
117	0xbb2ee897	-0.0026688927
118	0x3c24f016	0.010067007
119	0xbbfb9b67	-0.0076784375
120	0xbb612945	-0.0034356874
121	0x39bc7dd3	0.000359519
122	0x3bed3b80	0.007239759
123	0x3b85a135	0.0040780553
124	0x3b524f98	0.0032090899
125	0x38c93e86	9.596073e-05
126	0x3b0c7df1	0.0021437372
127	0x3aa97c63	0.0012930747
128	0xbb4d1c98	-0.003129756
129	0xbae6973b	-0.0017592678
130	0xbc0ca415	-0.008584042
131	0x3b92a6f9	0.004475471
132	0x3b708701	0.0036701562
133	0x3c1d0eba	0.009586031
134	0xbb66ad63	-0.0035198561
135	0xbac78153	-0.0015221037
136	0xba6ca6e7	-0.0009027556
137	0x3c078884	0.008272294
138	0xbb653802	-0.003497601
139	0xb9cd5348	-0.00039162696
140	0xbc129cef	-0.008948549
141	0xbc10d9b4	-0.008840967
142	0xbaf8f078	-0.0018992564
143	0x3bff8586	0.0077978997
144	0xbb6acfa5	-0.0035829332
145	0x3bc6e6d2	0.0060699964
146	0xbb03cbfb	-0.0020110596
147	0xbc0113e2	-0.007878276
148	0x39c67f0f	0.0003786017
149	0x3ad1ecd9	0.0016016021
150	0x3a442053	0.00074816233
151	0x3ba6aa62	0.005086229
152	0x3a0892bb	0.0005209853
153	0x3ab4b28d	0.0013786122
154	0x3abd5591	0.0014445056
155	0xbb6925da	-0.003557554
156	0x3bbfe30c	0.0058559235
157	0x3a9b6854	0.0011856654
158	0x3b4cbba4	0.0031239772
159	0x3b6f77bf	0.003653988
160	0x3c6d76eb	0.014493684
161	0x3ab9e551	0.0014182721
162	0x3b915d5f	0.0044361795
163	0x3a9c748b	0.0011936588
164	0x3a1c39ac	0.00059595215
165	0xbb70adfd	-0.00367248
166	0xba2e4739	-0.0006648186
167	0x3a8df7d1	0.0010831301
168	0xba4930b8	-0.0007674801
169	0x3baa4977	0.005196746
170	0xb975fdba	-0.00023459541
171	0x39e380f9	0.00043392906
172	0x3b53ef9c	0.0032338863
173	0x3b1102bc	0.0022126874
174	0x3b0ec103	0.0021782524
175	0x3badd8b9	0.0053053764
176	0xbbeaa265	-0.007160472
177	0x3b7bc975	0.0038419638
178	0x3b50c934	0.0031858208
179	0x3bec4fbb	0.007211653
180	0x3c3b93cf	0.0114488145
181	0x3bfb8864	0.007676171
182	0x3af31874	0.0018546716
183	0x3b7808cf	0.0037847047
184	0xbad88570	-0.001651926
185	0x3b3e1b2e	0.00290079
186	0xbb3f4431	-0.0029184932
187	0x3a253520	0.0006302167
188	0xbb347611	-0.0027536193
189	0xbb28a282	-0.0025731628
190	0x3b7726b9	0.003771229
191	0x39d31526	0.00040260813
192	0xbb4ce683	-0.0031265325
193	0x3a823f29	0.0009937036
194	0xba03a7c8	-0.0005022255
195	0x3b692673	0.0035575896
196	0xbbe726f5	-0.0070542046
197	0x3b0cde24	0.002149471
198	0x3bc3626c	0.0059626605
199	0x3b5813d6	0.0032970808
200	0xbaa40b5d	-0.0012515594
201	0xbb286884	-0.0025697062
202	0xbb51442d	-0.0031931505
203	0x3bb47c01	0.0055079465
204	0xbaa9dcf4	-0.0012959526
205	0xbb4e91b2	-0.0031519947
206	0x3ab324d9	0.0013667598
207	0x3b2d4793	0.0026440367
208	0xbb2ca014	-0.0026340531
209	0x3c0dde06	0.008658892
210	0x3b0dde75	0.0021647487
211	0x3b9f9103	0.0048695817
212	0x3b4f6499	0.0031645654
213	0x3b246669	0.0025085455
214	0xbbfe5613	-0.0077617257
215	0xbae9bfd0	-0.0017833654
216	0xbb002ed2	-0.0019559157
217	0x3a60c116	0.0008573694
218	0xbbda08dd	-0.0066538886
219	0xbb8b051d	-0.004242553
220	0x3babf98d	0.0052482546
221	0x3ad18fb9	0.0015988267
222	0x3c0dec70	0.008662328
223	0xbafe31cb	-0.0019393502
224	0x3a265cfb	0.00063462526
225	0xbb3003be	-0.00268577
226	0xb85a80b3	-5.209511e-05
227	0xbb26b35b	-0.0025436494
228	0x3a70cb59	0.00091855746
229	0xbb36e9fe	-0.0027910466
230	0xbb834151	-0.004005589
231	0xb94df69a	-0.0001964219
232	0x3b0c01ce	0.002136338
233	0xba2fbcda	-0.0006703861
234	0x3c05d1a2	0.008167656
235	0x3b86b78a	0.004111235
236	0xbb0131ce	-0.0019713524
237	0x3b2ee951	0.002668936
238	0xbb10af3a	-0.00220771
239	0x3b131d28	0.0022447798
240	0x3c3e3ed0	0.011611655
241	0x3c1e7a5e	0.009672729
242	0x3aae19c5	0.0013282826
243	0x3b1379e5	0.0022503075
244	0xbb8a06aa	-0.00421222
245	0xba0fb8c5	-0.000548255
246	0xbb8e7167	-0.0043470147
247	0xbb7209aa	-0.003693203
248	0x3b8190a0	0.003954008
249	0x39a7308d	0.00031888895
250	0xbb9c5fcd	-0.0047721625
251	0xba06b6f3	-0.0005138956
252	0xbbb7f6d1	-0.0056141396
253	0x3b080d6b	0.002075995
254	0xb9adb6da	-0.00033133366
255	0x3b14e1ea	0.0022717663
