output_model/single_lora_2/claude_opus_4_1_20250805_42_llama_model/adapter_model.safetensors (safetensors, 82208 bytes, 2 tensors)

base_model.model.model.layers.1.mlp.down_proj.lora_A.weight f4 [2, 8192]
000000 7a 3d da bb c3 74 8c bb 37 2b 1d 3c d4 00 b6 39
       -0.0066601606 -0.00428638 0.009592823 0.00034714362
000010 4b 2e 6f 3c b2 00 b4 bc 35 6e 8e 3c b6 2e 7d 3a
       0.014598439 -0.021972988 0.017386535 0.00096581446
000020 e0 26 87 ba 70 ce d3 bb 7f 84 9a bc 0e d3 66 3c
       -0.0010311268 -0.0064638183 -0.018862007 0.014088405
000030 18 70 8c bc 69 c5 dc 3b b4 03 1c 39 43 1f b9 bb
       -0.017143294 0.0067374003 0.00014878699 -0.0056494786
000040 83 3f 27 3c 89 eb 27 bc 8c 24 81 3c da fd 03 bc
       0.0102080135 -0.010249027 0.015764497 -0.008056128
000050 5a 1e 7b ba 13 a5 38 bb d1 86 57 bb 7b 23 89 ba
       -0.0009579413 -0.0028174564 -0.0032886753 -0.0010462845
000060 68 11 87 bc 7a 21 c3 bb 02 9c 68 bb 5b 94 d5 bb
       -0.016487792 -0.0059549185 -0.0035493379 -0.0065179295
000070 67 dc 98 ba 07 bd 57 3b a2 25 a7 3b 1b e8 08 3a
       -0.0011662365 0.0032919066 0.0051009217 0.00052225747
000080 88 a7 d4 3c 46 c2 98 bb 59 b4 89 bc a9 2e 02 bc
       0.025958791 -0.004661831 -0.01680963 -0.007945695
000090 7e 1b 8a bb 42 77 3a bc c6 77 fd bb 23 05 a9 b9
       -0.004214703 -0.011380972 -0.0077352254 -0.0003223802
0000a0 c1 d2 1e 3b da 51 4a bb d0 ff 5e 3c e4 fa 1c 3c
       0.0024234506 -0.0030871541 0.013610795 0.009581301
0000b0 24 a8 3d bc e5 f1 5f bb b1 2a b9 bc 02 55 48 ba
       -0.011575732 -0.003417128 -0.022603365 -0.00076420617
0000c0 c4 5c 22 3c 1a ea 06 bc 0f 3b 60 bb c9 8d 72 3b
       0.009909812 -0.008234525 -0.003421489 0.003701078
0000d0 45 ce fb bb 37 ac 21 3b 1a 21 81 bc c1 5c a2 ba
       -0.0076845014 0.0024669298 -0.015762854 -0.0012387262
0000e0 3e 59 0a bb 32 6a bd 3b d0 22 23 3c 8a c5 0c bc
       -0.0021110321 0.0057804817 0.00995703 -0.008592019
0000f0 1a 4e 51 bc 1a ce 83 3c 85 90 ce 3b 8a 24 02 bc
       -0.0127749685 0.016089488 0.006303849 -0.007943282
000100 79 1d 71 bc a8 f0 c3 bb b9 57 72 3b c0 20 5c 3b
       -0.0147164995 -0.005979616 0.0036978556 0.0033588856
000110 d2 ba 92 3a 19 ff 7c bc 16 4a 03 ba 02 a3 96 3c
       0.0011194593 -0.015441679 -0.0005008293 0.018388275
000120 68 30 b4 3c f1 ad 67 3b d0 73 04 bc 1c 30 6a 3b
       0.021995738 0.003535148 -0.0080842525 0.0035734242
000130 f7 6a 13 3c 9e bb d8 3b 2f 9f 80 bb b3 17 8a bb
       0.00899767 0.0066141626 -0.003925226 -0.004214251
000140 6e 8c 02 bc ff 6a 98 bc e6 57 48 3c a1 f5 d4 3b
       -0.007968051 -0.018605707 0.012227988 0.006499008
000150 07 45 d6 bb 7a 86 09 3c 8d 79 0e 3c 95 84 33 bc
       -0.0065389904 0.008393878 0.008695972 -0.010956903
000160 01 d6 58 bb b3 83 85 bb 00 89 b7 bb 82 44 a1 bc
       -0.003308654 -0.0040745377 -0.0056010485 -0.019685987
000170 a5 a5 92 3b c5 40 46 ba 13 82 e9 ba 3e cb 39 3a
       0.004475313 -0.0007562752 -0.0017815254 0.00070874754
000180 2c 14 c8 bb 7d 2d 91 3b 4b 3d 83 3c a0 6f 99 3a
       -0.0061059203 0.0044304715 0.016020438 0.001170624
000190 66 6a 89 3c 12 ed 33 3c 9a 3f 87 3c 03 e2 22 bc
       0.016774368 0.010981815 0.01650982 -0.009941581
0001a0 f6 da 38 bc 21 ba bd 3b 05 2e 17 bc e9 a0 7c 39
       -0.011282673 0.0057900106 -0.0092272805 0.00024092536
0001b0 c4 ff 24 bb 55 2c c0 bc 6c 49 80 3c f0 cc ea 3b
       -0.0025176862 -0.02345864 0.01566001 0.0071655437
0001c0 e0 78 bb 3b f7 b9 94 ba 98 39 0a 3c 8e 58 9b bc
       0.0057211965 -0.0011346926 0.008436583 -0.018963125
0001d0 fb 47 bc bb f9 52 c1 bb 2b 33 e3 ba 42 2a 2b bc
       -0.0057458854 -0.0058997837 -0.0017333975 -0.010447087
0001e0 0c b3 55 bc 82 61 89 3b 4f 6c e4 3b 42 dd 4f bc
       -0.013043176 0.004192532 0.006970919 -0.012687029
0001f0 8b c5 1e bb 42 61 3f 3c 51 38 4d bc f8 48 48 3c
       -0.0024226632 0.011680903 -0.012525634 0.012224428
000200 48 64 9d 3b ad 90 08 bc 7d 1b 32 bc c6 ec 46 bc
       0.004803214 -0.008335275 -0.0108708115 -0.012141412
000210 2a 2e e0 3b f9 3e 38 bc 6a c3 1b 3c 3f 7e 11 3c
       0.0068414407 -0.011245483 0.00950704 0.008880197
000220 24 c9 94 3b 6b eb 40 bb 9a 6d 09 bb f0 2d 97 3c
       0.0045405794 -0.0029437195 -0.0020969869 0.018454522
000230 df c2 0d bc 64 23 68 3c 35 92 31 3b ff e7 2c bb
       -0.008652418 0.014168594 0.0027095203 -0.0026383398
000240 90 e0 34 3c a1 90 81 bc 93 69 5c bc fa 6d 69 bc
       0.011039868 -0.015816035 -0.013452905 -0.014247412
000250 48 7c 16 3c 56 66 5c bc fc e6 0a bc 6a bb 88 3a
       0.009184904 -0.013452133 -0.0084779225 0.001043183
000260 78 cc 87 bc 80 4b 0f bc bc 9f 40 3c cd 0e e1 3b
       -0.01657699 -0.008746028 0.011756834 0.0068682195
000270 47 26 ad bb 47 e5 0e bc d1 ba e6 3a 6c 71 ed ba
       -0.005284104 -0.008721656 0.0017603283 -0.0018115467
000280 c6 e1 57 3b fb ca fe bb 47 d2 a6 bc 50 60 b4 3c
       0.0032940968 -0.007775662 -0.02036394 0.022018582
000290 5b c6 62 bc 6a 37 e6 3b 4e d9 33 3c be 15 4e 3a
       -0.013841237 0.007025649 0.010977102 0.0007861516
0002a0 94 26 98 bb 95 de 83 3b 80 58 2e bb 7a 4d 53 bb
       -0.0046432707 0.0040243366 -0.0026603043 -0.0032242225
0002b0 f4 49 a4 bb b3 8b 77 bc 39 4b 94 3c ee 18 61 bc
       -0.0050136987 -0.0151089905 0.018102275 -0.013738854
0002c0 42 fe 5a 3c f8 2f 5f bc cc 76 72 bc e7 99 1c bc
       0.013366284 -0.0136222765 -0.014798831 -0.009558178
0002d0 05 f1 2c 3c ff 73 a0 3c 99 7b 8e bb be fa da bb
       0.01055551 0.019586561 -0.00434823 -0.006682723
0002e0 f3 8d 15 bc 79 fb ee 3b f0 d1 a1 ba 40 1c 85 bc
       -0.009128082 0.0072931615 -0.0012345891 -0.016248822
0002f0 77 5d 54 3c e7 2a 89 3c eb 1c 8d bc 71 79 57 ba
       0.012961737 0.01674409 -0.017225703 -0.00082196953
000300 be 64 35 ba b4 81 f1 3b 7c cf 9c bc ea 79 b4 bc
       -0.0006919614 0.007370198 -0.019141905 -0.02203079
000310 5d 07 57 bc 83 36 08 3b eb 26 71 bc e1 60 6d 3b
       -0.013124314 0.0020784445 -0.014718751 0.0036221074
000320 ff 5c ca ba 29 75 e5 3a 14 ca 2a bb 35 81 a4 3b
       -0.0015439092 0.001750623 -0.002606039 0.0050202855
000330 f7 4f 6b 3b 84 c0 53 3c a6 4e 37 3c 97 b5 82 ba
       0.0035905817 0.012924317 0.011188185 -0.0009972331
000340 f7 0e 81 3c d3 1a 96 3b 9b 9e 5c 3b 04 3b 2e 3c
       0.015754206 0.0045808344 0.0033663872 0.010634188
000350 40 bb 9b bb 80 48 0e ba 58 7d 26 bb 00 0d 96 bc
       -0.0047525465 -0.00054276735 -0.00254043 -0.018316746
000360 2e cc ac b9 3a 8e a5 3b a4 4a c8 bb 55 c7 b7 3c
       -0.00032958522 0.005052355 -0.0061124135 0.022433916
000370 7a bd df bb 9e b2 06 bc 9c 13 ca bc aa 32 9a 3c
       -0.0068280073 -0.008221297 -0.024667554 0.018822987
000380 06 67 34 bc 4d a9 6d 3c 03 65 be bc d2 ec 70 3c
       -0.011010891 0.0145056965 -0.023241526 0.0147049
000390 df 63 df bb 37 56 84 3c d6 14 82 3c 58 2a 1e bc
       -0.0068173255 0.016154392 0.015879076 -0.00965365
0003a0 00 51 1e bc f6 3b 53 3c 75 d9 82 bc 99 27 b5 bb
       -0.009662867 0.012892714 -0.015972832 -0.005528402
0003b0 70 21 0b bc 9e 24 00 3c 48 81 01 3c a9 62 1b 3c
       -0.008491859 0.00782123 0.007904358 0.009483972
0003c0 ca d6 4a bb 55 02 98 3b 38 92 5b bb d1 67 02 3c
       -0.0030950778 0.00463895 -0.0033503901 0.007959322
0003d0 3b 0c 81 bb df a3 95 3c 98 fa 20 ba 94 83 25 bc
       -0.0039382256 0.018266616 -0.0006140857 -0.010102171
0003e0 f0 b4 6d bc 38 90 4f bc 33 50 39 bc 04 8a 94 3c
       -0.014508471 -0.012668662 -0.011310625 0.018132217
0003f0 e8 ef 90 bc 9b 72 1c bc dd 76 7d bb 61 ed 36 3c
       -0.017692521 -0.009548808 -0.0038675584 0.011164994

base_model.model.model.layers.1.mlp.down_proj.lora_B.weight f4 [2048, 2]
000000 db e3 ee ba a0 19 97 3a e9 b5 df ba 6a f3 9f bb
       -0.0018225865 0.0011528023 -0.0017067763 -0.004881312
000010 47 70 6f bb 8a bb b6 bb b9 64 02 bb 54 4f 3e ba
       -0.0036535428 -0.0055765556 -0.001989646 -0.00072597456
000020 9d 8d a7 b9 02 41 c4 3b 76 76 50 bb 87 4e 79 bb
       -0.00031958232 0.005989195 -0.003180889 -0.003804119
000030 32 a8 0e b8 2b cb 35 3a 74 d4 ab bb 98 37 99 bb
       -3.4012082e-05 0.00069348764 -0.0052438322 -0.0046758167
000040 63 24 d4 ba 0d 28 0b 3b 05 5e b5 ba da 04 3d 3b
       -0.001618516 0.002123359 -0.0013837224 0.0028842003
000050 7c 75 6d 3a 4a 17 0e 3a f1 34 24 bb 76 43 0a bb
       0.0009058339 0.00054203405 -0.002505597 -0.0021097339
000060 22 41 b5 b9 8b f9 b5 ba 99 aa 32 bc cd 88 47 bc
       -0.00034571538 -0.0013883574 -0.010904931 -0.012178612
000070 33 01 2b 3b ed cd c5 3b 9a ed 85 3a 74 c7 56 bb
       0.0026093244 0.006036511 0.0010217906 -0.0032772692
000080 41 b0 a9 3b 2d 70 8e 3b b8 bf fd 3a dd 31 19 3b
       0.005178482 0.0043468685 0.0019359505 0.0023375668
000090 3a d0 7a 3a 8f 8d 8b ba 08 65 ac 3b 70 a2 13 3b
       0.00095677713 -0.0010647046 0.0052610673 0.002252724
0000a0 89 d9 82 bb 26 50 40 ba 46 ba 7c 3b 14 e6 19 3a
       -0.0039932174 -0.0007336162 0.0038563176 0.0005870771
0000b0 58 44 cc 39 7b ed 2b 3b df ea 4d bb 22 86 e2 ba
       0.00038960832 0.0026234079 -0.0031420512 -0.0017282406
0000c0 b4 d2 9f ba 40 1e 89 bb de b6 82 ba 22 e7 30 3b
       -0.0012193532 -0.0041845143 -0.0009972712 0.0026993235
0000d0 a0 da 82 bb 4e fa 5a ba 16 a1 1c bb f6 28 b4 ba
       -0.0039933473 -0.00083533383 -0.0023899726 -0.0013745117
0000e0 09 42 80 bb e1 ad 6b ba 15 07 82 bb b8 27 77 bb
       -0.003914122 -0.00089904486 -0.0039681294 -0.0037712883
0000f0 80 b7 00 3c 34 a6 ca 3b 05 14 37 3b 62 02 c2 3b
       0.00785625 0.0061843637 0.0027935517 0.005920694
000100 20 90 a7 3a 84 e4 06 ba 49 1d 8b 3b 37 6e 95 3a
       0.0012784041 -0.0005145746 0.0042454344 0.0011400644
000110 58 b5 51 3b e2 19 d6 38 24 be c8 3a ee 4d 5b 3b
       0.0031998958 0.00010209136 0.0015315455 0.0033463198
000120 fb 6c cc bb 08 80 01 bb 5e cc ca 3a 91 46 79 b9
       -0.0062385774 -0.001976015 0.0015472283 -0.00023772779
000130 54 1c 31 3b 62 a3 93 ba f2 c3 2b 3b a8 99 c9 3b
       0.0027024942 -0.0011263902 0.0026209322 0.0061523505
000140 3a 9c ef b9 e5 ed 4b bb f4 c6 3e bb 29 19 2d 3a
       -0.0004570203 -0.0031117138 -0.0029110285 0.00066031754
000150 8d 79 51 3b ac bf 1e b9 db c2 38 bb fd 96 94 bb
       0.003196332 -0.00015139458 -0.0028192315 -0.004534601
000160 dc ad 9b 3b 61 37 05 bb 43 d0 8f 3b 7b 93 24 3b
       0.0047509503 -0.0020327198 0.0043888404 0.002511232
000170 fa a6 fa bb 18 a7 e1 bb a8 84 b7 3a c6 6b 91 3a
       -0.0076492997 -0.006886374 0.0014001327 0.0011094741
000180 7c ab fe b9 b0 30 c4 bb 2a 7b bc bb 8e a4 b7 3b
       -0.0004857442 -0.0059872493 -0.005751987 0.0056043332
000190 50 79 da 3a b8 40 92 3b 55 94 6b bb 1f 0b f1 ba
       0.0016668234 0.0044632815 -0.0035946567 -0.0018390155
0001a0 93 0a 1e 3a 4c 52 5e 3b b6 03 79 bb 82 35 33 38
       0.00060287974 0.0033923564 -0.0037996597 4.272676e-05
0001b0 1a 86 e4 bb 8c a8 6d bb da 10 94 3a 14 96 9a 3b
       -0.006973994 -0.0036263792 0.0011296526 0.0047175977
0001c0 e3 6b 88 b8 cd 22 ca ba 0b e0 d2 3b ad 39 98 3b
       -6.505081e-05 -0.0015421748 0.0064353994 0.0046455474
0001d0 08 cf 09 bb da 5d 05 bc 11 72 01 bb 9d 86 8e bb
       -0.0021027941 -0.008140052 -0.0019751827 -0.0043495432
0001e0 8e ee a1 bb dc 28 6a bb e3 61 c5 bb 74 e6 e9 bb
       -0.004941768 -0.003572992 -0.006023632 -0.007138068
0001f0 3b 02 ba 3b 61 da 0c 3b 70 6c 0d 3b d6 e0 87 ba
       0.0056765354 0.0021492469 0.0021579526 -0.0010366689
000200 a9 af 1e 3b c0 17 dc ba d1 34 2e bb 8e ad f9 3a
       0.0024213588 -0.0016791746 -0.0026581774 0.0019048916
000210 d4 ad 03 bb 6b bc 67 bb 00 d7 fd bb 59 4a 18 b9
       -0.0020092623 -0.0035360109 -0.0077465773 -0.00014523546
000220 45 35 43 39 59 97 9f 3a bd f2 0a b9 07 47 15 3a
       0.00018616494 0.0012175842 -0.00013251133 0.0005694483
000230 fc 73 fb 3b 6d c6 55 3b 49 b9 af bb 6f be 97 39
       0.0076737385 0.0032619492 -0.005362664 0.00028942848
000240 b8 37 d7 3b 70 d8 40 3b 66 d5 a0 bb 59 b4 53 bb
       0.0065679215 0.0029425882 -0.0049082516 -0.003230354
000250 e1 6d d7 3b 90 83 d1 3b c0 18 b7 bb c2 81 27 bb
       0.006574378 0.0063938573 -0.005587667 -0.002555952
000260 df 48 4c 38 6c a7 90 ba 90 82 7f 3a 69 d0 c2 ba
       4.8705257e-05 -0.0011036224 0.00097469334 -0.0014863136
000270 4e b7 37 bb 10 84 4e bb 5e 13 7c bb ed ea 9e 3a
       -0.0028032842 -0.003151182 -0.0038463692 0.0012124457
000280 ce fd 8e bb ab ea ef bb 06 33 d6 ba 32 07 98 bb
       -0.004363752 -0.007321676 -0.001634211 -0.0046395296
000290 a0 51 7d 3b 62 a3 de 3b cd 5b 63 3b d8 9f 02 3b
       0.0038653389 0.006794379 0.0034692169 0.00199317
0002a0 51 4e 65 bb 7e b1 a5 bb a3 87 c8 38 7d d5 17 bb
       -0.0034989307 -0.005056559 9.5620075e-05 -0.002316802
0002b0 da 11 6f bb 79 1b 0a bb 24 7a 91 ba a4 c6 60 bb
       -0.0036479146 -0.0021073504 -0.0011099023 -0.0034298087
0002c0 10 f3 8b 3a 17 07 ef ba fc 97 d6 bb 99 2e cd bb
       0.0010677297 -0.0018236366 -0.0065488797 -0.0062616584
0002d0 fd e0 14 3b b6 81 ca 38 2d 43 fc ba 5c 18 64 bb
       0.0022717111 9.656271e-05 -0.0019246094 -0.0034804558
0002e0 93 08 43 3a f9 f3 14 b9 b4 c2 dc bb ce 07 16 bb
       0.00074399373 -0.00014205267 -0.0067370776 -0.0022892836
0002f0 94 12 06 b9 bd 80 50 39 f3 07 13 3b 7c 8b 99 3b
       -0.00012786157 0.00019884385 0.0022435158 0.0046858173
000300 64 03 30 3a e7 4f 3d 3a 55 17 31 3b f7 cf 5e 3b
       0.00067143724 0.0007221684 0.0027021964 0.0033998468
000310 72 a3 47 bb 63 1d 85 ba 4e 95 4e ba a9 28 3e 38
       -0.0030462411 -0.0010155853 -0.00078805245 4.5337398e-05
000320 4a 46 62 bb 08 38 87 38 7e d3 03 bb 97 f6 68 bb
       -0.0034526759 6.447738e-05 -0.0020115073 -0.003554737
000330 e8 b5 eb 39 1c 08 1b 3b ea fb 68 3b b5 92 b7 39
       0.00044958224 0.0023655957 0.0035550543 0.00035013785
000340 23 5b 6c bb e5 12 a3 bb 66 23 e3 3a 60 b3 f4 3b
       -0.0036065064 -0.0049766176 0.0017329275 0.007467672
000350 1b dc 1b 3a 52 95 20 3a 83 60 17 bc 4f 21 40 bb
       0.0005945579 0.0006125766 -0.009239319 -0.0029316728
000360 e7 d5 1c 3a 3d 31 f5 bb e5 e3 cd 3b f7 5e 93 3b
       0.00059828017 -0.0074826763 0.0062832707 0.0044974047
000370 5f 04 1b bb f2 db 16 bb 06 d1 bc bb fb ed 1d 3b
       -0.0023653728 -0.0023019281 -0.005762222 0.0024098146
000380 67 39 90 3a 08 01 f4 3a e5 aa 0d 3c 69 de f2 3a
       0.0011003435 0.001861603 0.008646701 0.0018529418
000390 24 8c 65 b9 f8 64 e5 3a 94 a4 4f bb cd 52 46 bb
       -0.00021891348 0.0017501405 -0.003168379 -0.0030261755
0003a0 34 e9 46 3a 0f 11 16 bb 4e 94 a9 bb b4 af e2 ba
       0.00075878506 -0.0022898351 -0.00517515 -0.0017294795
0003b0 a2 80 02 bb b2 53 3f bb 51 2b 35 bb 73 9c 70 bb
       -0.0019913097 -0.0029194173 -0.0027644227 -0.0036714345
0003c0 ca bf 29 bb 0c c2 13 bb 78 71 c9 bb 76 2a ee b9
       -0.0025901669 -0.002254608 -0.0061475597 -0.00045426533
0003d0 17 67 18 3c f9 53 43 3b 16 a3 26 3b 1f 6e f7 ba
       0.009301922 0.002980469 0.0025426797 -0.0018877423
0003e0 1d 96 de 3b b4 76 b7 3b 55 30 3b 3b fd dc f8 ba
       0.0067927972 0.0055988673 0.0028562744 -0.0018986758
0003f0 53 80 2e 3b b1 54 a3 ba 26 2a e8 3a 05 67 86 3a
       0.002662678 -0.0012461153 0.0017712757 0.0010254091
