output_model/single_lora_2/gpt_4.1_42_llama_model/adapter_model.safetensors (safetensors, 82208 bytes, 2 tensors)

base_model.model.model.layers.1.mlp.down_proj.lora_A.weight f4 [2, 8192]
000000 65 98 df 3b 32 37 0f bc f3 02 a0 3c 20 b0 f3 3a
       0.0068235868 -0.008741187 0.019532656 0.0018591918
000010 bf 26 e1 3b 98 32 e7 bb 76 d8 96 3c 04 1e 11 3b
       0.006871074 -0.007055592 0.018413763 0.0022143135
000020 5c 11 0f bc 32 af 1e bc 9a 2d 89 bc b0 14 b6 3c
       -0.008732166 -0.0096853245 -0.016745377 0.022226661
000030 7d a8 fc bb c1 4f 39 3c 26 a2 87 ba 04 84 ec bc
       -0.007710515 0.011310519 -0.0010348007 -0.028871544
000040 7e 77 09 3c 60 86 cc bb 64 62 7b 3c f9 05 a9 3b
       0.008390306 -0.0062416047 0.015343282 0.0051581827
000050 2f 12 e5 3a 7c ea d2 bb bc 22 3e 3b 8b 72 08 3c
       0.0017476733 -0.006436644 0.0029012403 0.00832809
000060 ba fb c7 bc f8 34 72 bb a4 36 d9 3b 45 30 ea bc
       -0.024412025 -0.0036957841 0.006628828 -0.02858747
000070 65 4b 48 bc 7a a2 50 3b 5c e8 61 3c a5 10 52 3a
       -0.012225007 0.0031835125 0.013788309 0.00080133445
000080 32 d2 77 3c 21 6d 54 bc 10 ea b3 bb 54 a2 6f bc
       0.015125798 -0.0129654715 -0.005490549 -0.014626104
000090 29 da 28 3c 64 56 49 bc 0f cb 0a bc cc 36 16 bc
       0.01030592 -0.012288664 -0.0084712645 -0.009168338
0000a0 c8 2c 4d 3b 04 a2 2d bc 53 35 3e 3c 53 c2 08 3c
       0.003130721 -0.01059771 0.011609393 0.008347112
0000b0 2b 58 d7 bb da 2f a5 38 ab 4a c0 bc 7f 82 80 3c
       -0.0065717897 7.876726e-05 -0.023473104 0.015687225
0000c0 89 e1 5b 3b 28 2e 20 bc ac 3b 23 3c a3 be af bb
       0.0033551177 -0.0097766295 0.009962957 -0.005363302
0000d0 94 15 35 3b 13 4e 32 ba 73 cb 8c bc cc 79 87 bb
       0.002763127 -0.0006801795 -0.017186856 -0.0041343924
0000e0 41 13 12 b9 bd 53 41 3c 2f 7d 99 3c 70 d3 17 3a
       -0.00013930818 0.01179975 0.01873645 0.00057916995
0000f0 95 17 be bc 65 2a 63 3c 9d 91 ab bb 26 6f 38 bb
       -0.023204604 0.013865088 -0.0052358643 -0.0028142422
000100 8f 77 80 bc 0b 1c 56 bb 9b 62 2a bc c0 e7 8a 3a
       -0.01568201 -0.0032670524 -0.010399486 0.0010597631
000110 ae c7 91 bb 90 60 e6 bc 7f 24 f2 ba 41 ec d8 3c
       -0.0044488525 -0.028122216 -0.0018474011 0.026479842
000120 f9 9c 6f 3c bd 57 99 3b 98 2f 18 3a a1 28 10 3b
       0.014624828 0.0046796487 0.0005805432 0.0021996873
000130 de f3 5d b9 01 82 12 3c 58 83 b8 b9 21 49 e4 3b
       -0.0002116705 0.008942128 -0.00035193074 0.0069667255
000140 fc e1 d2 bb be 24 a2 bc 56 41 ac 3c e5 20 36 3c
       -0.006435631 -0.01979291 0.021027248 0.011116241
000150 dc 64 2b bc db 43 26 bc 85 a3 10 3b ed 75 6d 38
       -0.0104610585 -0.010148014 0.0022070121 5.661503e-05
000160 38 5d bf 3a ba d0 ff ba ef 95 6e 3a 76 7d db bb
       0.0014599925 -0.0019517161 0.00091013213 -0.0066983057
000170 d9 97 c6 ba ba 94 c8 bb 6a be f1 ba 9a 90 8d 3a
       -0.0015151455 -0.006121245 -0.0018443589 0.0010800541
000180 39 e6 2c bb 70 d7 41 bb fd 9b e4 3b 74 c4 38 3b
       -0.002638234 -0.0029577874 0.006976603 0.0028193267
000190 18 c5 8a 3c cc 22 8e 3c 78 09 ae 3c 40 2e ce ba
       0.016939685 0.017350577 0.02124475 -0.0015730336
0001a0 1a 59 50 bc f7 fb 40 3b e5 78 a4 ba d9 56 ce bb
       -0.012716556 0.0029447058 -0.0012548236 -0.006296974
0001b0 66 18 0d bc fb f7 a3 bc 2a 10 85 3c 6e 5e 84 3c
       -0.008611774 -0.020015707 0.01624306 0.016158309
0001c0 00 b5 05 3c 60 e9 e3 ba 52 4c 1b 3c f2 80 16 bc
       0.00816083 -0.0017388277 0.009478645 -0.009186016
0001d0 a9 af 7a bc f1 1b b7 ba 23 88 3a 3a 23 0c 69 bc
       -0.01530067 -0.0013970119 0.0007115623 -0.014224085
0001e0 f0 ef 8f 3a a2 7a 6f 3c 9a 82 ff 3a eb 65 e8 bc
       0.0010981541 0.01461664 0.0019493878 -0.02836891
0001f0 91 b6 22 bc e8 12 90 3c 7c 1a 62 bc f2 ca 26 3c
       -0.009931223 0.01758714 -0.01380026 0.010180222
000200 02 8b e2 3b 46 e6 51 bc f7 7a 15 3b 86 02 bf bc
       0.0069135437 -0.012811249 0.0022808888 -0.023316633
000210 17 3b 09 3c 73 76 46 bb 04 c0 56 3c 85 60 0b 3c
       0.0083759045 -0.0030283004 0.0131073035 0.008506899
000220 3b fc 92 bb 71 58 34 bc 5e dd a0 3c 32 27 85 3c
       -0.0044856346 -0.011007414 0.019636806 0.016254041
000230 17 cb 2c bc 92 e4 7a 3c 61 15 6f 3b a3 d4 2f 3a
       -0.010546467 0.0153132845 0.0036481249 0.00067074056
000240 58 79 01 3c 8f cc c3 bc a1 a6 2a bc 33 66 91 bc
       0.007902466 -0.023901252 -0.010415704 -0.017748928
000250 07 7e 8c bb 5d 1b 05 bc 73 c0 6e bc da 7d 9e 3b
       -0.0042874846 -0.0081242 -0.014572251 0.00483678
000260 e3 f7 9a bc 4a ed fd 39 eb 79 d6 3a 4d 61 d7 bb
       -0.01891703 0.00048432715 0.0016363239 -0.0065728785
000270 df 3f 9b bc 1d 8f f1 bb a5 28 15 3b 2a e4 51 3c
       -0.018951355 -0.0073717968 0.0022759822 0.012810746
000280 a1 7e 9a ba 53 c9 2a ba 57 17 7a bc 6c 55 32 3c
       -0.0011787006 -0.0006514985 -0.015264354 0.010884624
000290 f2 92 2d bc 6f 79 b4 ba 85 20 bf 3a 66 9b fe bb
       -0.0105941165 -0.00137691 0.0014581835 -0.00776999
0002a0 12 74 9a bb e5 7c 8d 3b 23 67 3a 3b 23 66 56 3c
       -0.0047135437 0.004317867 0.0028442822 0.013085875
0002b0 dc b1 8c bb 04 4d 96 bb 8d 94 d7 3c b6 b6 4b bc
       -0.0042936634 -0.0045868177 0.026315952 -0.012433698
0002c0 f8 a0 0f 3c a6 4f 66 bc 14 ef 3e bc 72 a5 4f bc
       0.008766405 -0.014057076 -0.01165368 -0.012673723
0002d0 f4 44 a5 bb a1 71 73 3c 04 bb ac 3b ba ad 57 bb
       -0.0050436202 0.014858634 0.0052713174 -0.0032909946
0002e0 01 4d 35 bc a6 67 82 3b 26 a5 92 3a b3 bf 81 bc
       -0.011065722 0.003979641 0.0011188134 -0.01583848
0002f0 e1 22 a3 b9 a7 b3 5e 3c a3 ed a3 bc e6 6c ce bb
       -0.0003111577 0.013592637 -0.020010775 -0.006299603
000300 cf 86 e5 b9 4d 2e 65 3b c1 9f ac bc 2d 42 ad bc
       -0.00043778724 0.0034970224 -0.02107227 -0.02114972
000310 42 c0 83 bc 44 f7 df bb 31 83 87 bc 63 49 9c b8
       -0.016082887 -0.0068348963 -0.01654205 -7.452329e-05
000320 56 c1 ab 3c 26 9e 58 bb 12 e9 0e bc 67 64 09 3b
       0.020966213 -0.0033053248 -0.0087225605 0.0020964385
000330 4e 4a cf bb 44 ff 7a 3c ea d6 7b 3c 25 03 9c 3b
       -0.0063259965 0.015319649 0.015371064 0.004761117
000340 ba 5c 1d 3c 92 29 eb bb f5 de 00 bb a0 5b 34 3c
       0.009604627 -0.0071765864 -0.0019664143 0.011008173
000350 f7 df a6 bb dd de 54 bb 22 71 a4 bb 8d 6a b3 bc
       -0.0050926167 -0.003248147 -0.0050183693 -0.021901393
000360 c6 4f 97 3b aa 42 5f bb f5 04 b9 ba a2 bc 91 3c
       0.004617664 -0.0034066834 -0.0014115857 0.017790142
000370 8c 0a 82 bc 15 ff 38 bc 77 d0 8e bc c4 66 91 3c
       -0.01587417 -0.011291285 -0.017433388 0.017749198
000380 59 ec 17 bc ea 73 5d 3c dc 8c e5 bc 82 55 4b 3c
       -0.009272658 0.013516406 -0.028021269 0.012410523
000390 f2 a5 2e 3b 74 d0 7d 3c 99 6c 83 3b e4 80 81 bc
       0.0026649204 0.015491594 0.0040107486 -0.01580853
0003a0 df 98 c5 bc 05 fc 85 3c cf e3 c9 bb fc 39 26 bb
       -0.024120746 0.016355524 -0.00616119 -0.0025364151
0003b0 c2 7b 38 bc 0c 68 9f 3b 7b 63 3b 3c d7 6c 81 3c
       -0.011259975 0.0048646983 0.011437292 0.01579897
0003c0 dd 21 a3 bb 9c e2 69 3c 52 ee 94 bb 17 46 35 3b
       -0.004978402 0.014275219 -0.0045450116 0.0027660185
0003d0 55 31 2b 3b 14 ca 97 3c 77 36 f2 bb 49 c1 03 3b
       0.0026121933 0.018528976 -0.0073917466 0.002010422
0003e0 63 b9 89 bc 2f 74 97 bc 83 bd 34 bc e6 5d 84 3c
       -0.016812032 -0.018488018 -0.011031511 0.016158056
0003f0 aa 9e 47 bc 3b 0d fb bb a8 2d 34 3c 16 f0 1a 3c
       -0.012183825 -0.0076614893 0.010997213 0.009456655

base_model.model.model.layers.1.mlp.down_proj.lora_B.weight f4 [2048, 2]
000000 6b e3 1c bc ca 2f 99 bb 56 33 ab 3a 76 df 85 3a
       -0.009575705 -0.0046748864 0.0013061564 0.0010213691
000010 3a b2 d3 ba c8 8e 4d 3b 93 52 bc bb 10 f7 03 ba
       -0.0016151138 0.0031365622 -0.0057471483 -0.00050340686
000020 d6 06 66 bb 88 3f 47 3b 13 80 b2 bb dd a3 fc bb
       -0.003509929 0.0030402858 -0.0054473965 -0.0077099637
000030 be d5 a0 3b ac c2 0b b9 22 f9 91 3a d5 4a f9 ba
       0.0049082926 -0.00013328594 0.001113687 -0.0019019494
000040 6b 0e 7e b9 27 e5 48 ba fa 1b 64 bb ff ec 9d ba
       -0.00024228699 -0.0007663541 -0.0034806714 -0.001204878
000050 c4 1c d0 3b 35 8e 98 3a 43 f5 03 bc e3 a6 85 bb
       0.0063510854 0.0011639061 -0.00805408 -0.0040787323
000060 e3 08 12 bb d8 08 9c bb 06 55 90 bb 32 9e 06 bc
       -0.002228313 -0.0047617964 -0.004404667 -0.008216428
000070 d9 50 95 ba 00 a2 cf 3b d8 63 a8 39 0a 3b 81 ba
       -0.0011391892 0.0063364506 0.00032117846 -0.0009859514
000080 fb 9e b7 3b 91 ce 99 3a e2 77 76 bb d2 79 2b 3a
       0.0056036687 0.0011734535 -0.0037608077 0.0006541285
000090 db 15 0c b7 06 1b b1 ba 1c b1 53 3b bb 91 1b 3b
       -8.349739e-06 -0.0013512082 0.003230161 0.0023737985
0000a0 ff 58 28 3a 01 b3 f7 3a 85 87 eb ba 98 ea 7a bb
       0.0006421953 0.0018897952 -0.0017969465 -0.0038286801
0000b0 54 15 a5 3a f3 cf 9b 3a 94 01 bf bb 8b 48 a6 bb
       0.0012594857 0.0011887535 -0.0058290455 -0.0050745658
0000c0 99 99 b0 bb b3 b3 80 bb 35 2f c0 bb 6b d4 52 3a
       -0.005389404 -0.003927672 -0.0058650025 0.0008042517
0000d0 0d 50 8d ba 7a ad fd ba 8e 5e 8e bb 5c 27 d5 b8
       -0.0010781303 -0.0019354068 -0.004344768 -0.00010163963
0000e0 48 d2 0d bb c3 9e 63 bb cd 96 a6 3a 1c 2b 77 3a
       -0.002164023 -0.003473208 0.0012709737 0.0009428726
0000f0 b7 65 11 3c bf 3c 9d 3b 7e 0b 6b 3b cc 6d 6c 3b
       0.008874348 0.0047985013 0.0035865004 0.0036076186
000100 f4 07 a1 3b 32 ad a7 3b 02 27 e8 39 a9 b9 c4 ba
       0.004914278 0.005117082 0.0004427955 -0.0015008944
000110 01 8b 74 3b 34 70 9f 3a c0 26 84 3b 05 82 86 3b
       0.0037314298 0.0012164176 0.0040329397 0.004104855
000120 82 31 d0 bb 47 03 3c bb 5d 64 1b 3b 61 73 b2 39
       -0.006353558 -0.0028688477 0.0023710944 0.0003403677
000130 c4 3f f5 ba 23 f4 f5 3a c8 cd 1b bb d0 28 50 ba
       -0.001871102 0.0018764775 -0.0023773778 -0.0007940652
000140 79 60 e2 bb d7 a0 d9 ba c3 81 ff b9 d3 3e 41 bb
       -0.006908473 -0.001660372 -0.0004873407 -0.002948691
000150 e2 52 1f 3b ee 63 4c bb dd fa c2 bb 00 13 7c bb
       0.0024310877 -0.0031187492 -0.0059503154 -0.0038463473
000160 4e ea 80 3b 94 98 e3 bb 7d da f4 3b 95 f4 4c 3b
       0.0039341813 -0.006945679 0.007472335 0.0031273712
000170 90 85 b4 bb 12 22 b7 39 fe 94 c2 3a 0d c9 ab 3b
       -0.005509086 0.00034929864 0.0014845429 0.005242473
000180 62 a8 f5 bb 17 0f c5 bb 1c 75 9e 39 d7 b0 5a 3b
       -0.0074968794 -0.0060137617 0.00030223362 0.0033369565
000190 a3 1f 0e 3b 77 5e 62 3b 25 c4 87 bb af f3 34 36
       0.0021686337 0.0034541169 -0.0041432553 2.6963933e-06
0001a0 f0 7d c3 3a 00 2a 83 3a 21 b1 0d ba 3a 3f 34 3a
       0.0014914852 0.0010007024 -0.00054051174 0.00068758766
0001b0 50 74 88 bb 53 10 39 bb c8 0a 58 bb ab 2c 7d 3b
       -0.004164256 -0.002823849 -0.003296541 0.003863136
0001c0 fb 16 a2 3a f1 22 0b 3b 48 29 ea 3b fa 68 5b 3b
       0.0012366468 0.0021230543 0.0071460344 0.003347932
0001d0 8d 7b fe bb 0a 6c 94 bb e4 b1 c6 ba 02 26 a9 ba
       -0.0077661932 -0.004529481 -0.0015159217 -0.0012905004
0001e0 8b 9f 20 bb 2f 59 e5 ba 73 48 da bb f6 6f d4 bb
       -0.0024509158 -0.0017497892 -0.0066614687 -0.0064830733
0001f0 3d ba 05 3b 5e cc 78 bb 8f 46 98 3b 67 ee 37 ba
       0.0020405196 -0.003796361 0.004647083 -0.0007016421
000200 cd 2b a0 3a 2c 08 02 bb bf 30 44 3b 60 fe 6d 3b
       0.0012220085 -0.0019841297 0.0029936281 0.003631495
000210 66 35 8f bb 12 b1 90 bb 6f ef 0a bb 60 87 f7 3a
       -0.0043703793 -0.0044156397 -0.0021199842 0.0018884949
000220 7e b7 e3 bb 0b 66 55 b9 61 18 4f bb a0 77 d1 3a
       -0.006949364 -0.00020351277 -0.0031600224 0.0015981086
000230 2e 75 4d 3c ed 2d a2 3b 6e be 3c bc c4 ba c4 bb
       0.012540145 0.0049493224 -0.011520011 -0.0060037095
000240 3e c1 ee 3b a5 5d 21 3b e9 29 0b bc 5d da 23 bb
       0.00728622 0.0024622467 -0.008493879 -0.002500198
000250 16 bf fe 39 14 cf 8d ba af 95 17 bc db c3 ae bb
       0.00048589025 -0.001081916 -0.009251996 -0.0053334064
000260 3d b4 3d b9 d7 53 6b bb 79 2b 4c bb a8 e7 bb b8
       -0.00018091589 -0.0035908127 -0.0031153841 -8.960004e-05
000270 6d df ae bb 94 3b fc bb 0b 36 bd bb d8 1b 89 bb
       -0.005336693 -0.007697532 -0.0057742647 -0.0041842274
000280 55 52 89 bb 9c ec c8 bb 2c a1 9b 39 6e 3b 76 3a
       -0.004190723 -0.0061317217 0.00029683986 0.0009393011
000290 07 7e c4 3a 72 f2 99 ba 6e 00 d4 ba d2 e3 3e bb
       0.0014991172 -0.0011745228 -0.0016174444 -0.002912749
0002a0 0d fb 04 bb b9 0f 84 bb c5 fe aa 39 17 72 08 3a
       -0.002029124 -0.0040301946 0.00032614745 0.0005204989
0002b0 15 15 17 3b c1 8b c2 ba f0 4b fe 3b 65 80 2e b9
       0.0023053337 -0.0014842675 0.0077605173 -0.00016641764
0002c0 92 f8 c3 3a 78 c7 84 3b 0b 4d 9c bb 61 51 72 bb
       0.0014951399 0.004052099 -0.0047699264 -0.0036974775
0002d0 d8 65 4f 3b 5b 90 55 b9 ad d4 2a ba 18 54 d6 bb
       0.0031646397 -0.0002036704 -0.00065166765 -0.0065407865
0002e0 2b 6e c8 3b 72 e7 c8 b9 c2 9c 94 bb a2 47 07 3b
       0.0061166487 -0.00038319413 -0.0045352885 0.0020642062
0002f0 07 42 8b bb ee 71 28 b9 9d 0a 84 b7 0e 9f 2f 3b
       -0.0042498144 -0.0001606417 -1.5740568e-05 0.0026797685
000300 45 11 12 bb b5 ef 54 3a 0e b7 ab 3b 2f cd 16 3c
       -0.0022288125 0.00081228773 0.0052403277 0.009204193
000310 dd cd 36 3b 9c e6 a4 3b 00 b2 c5 bb e1 dc 9e bb
       0.00278937 0.0050323736 -0.006033182 -0.004848108
000320 46 50 90 bb 3e a6 24 3b 11 ff d8 3b 4e ea 86 3a
       -0.0044041006 0.0025123502 0.006622203 0.0010293217
000330 b8 b6 48 bb c6 f0 0d 3b ca ba 80 bb 86 85 79 bb
       -0.0030626487 0.0021658405 -0.003928517 -0.003807397
000340 db af da bb 49 1f b5 bb 23 78 6f 37 75 85 9f 3b
       -0.0066737956 -0.005527411 1.4273482e-05 0.0048682042
000350 65 1d 90 3b 74 35 0a 3b 0a 37 30 bb ad 31 a8 bb
       0.0043980354 0.002108899 -0.0026888275 -0.005132875
000360 74 9c 2e 3a bd f6 d7 bb 45 3e 2f 3c a3 b9 99 3b
       0.00066608866 -0.006590693 0.010695999 0.004691319
000370 9f 8f f1 bb 65 7a 8a ba 5e ec 01 bc 09 05 88 3b
       -0.0073718573 -0.0010565041 -0.0079298895 0.004150991
000380 11 a0 0f 3b 10 de 38 ba 6a f3 83 39 84 78 ff 39
       0.0021915475 -0.0007052133 0.00025167625 0.0004872718
000390 7f bd 13 39 88 36 c5 3b 87 6d e8 3a 1a 82 22 bb
       0.00014089605 0.0060184635 0.0017732837 -0.0024796785
0003a0 1d a4 36 bb 6f 52 3d 38 b9 4c 7d b8 03 9e 9a 39
       -0.0027868815 4.5137884e-05 -6.0391354e-05 0.00029490897
0003b0 49 06 18 bc 70 f3 2b bb 2a 03 4b 3b a3 56 28 bb
       -0.009278842 -0.002623763 0.0030977228 -0.0025686405
0003c0 d8 c5 55 bb 1d e3 32 bb 49 a1 04 bb 47 1f 1a ba
       -0.0032619145 -0.0027296015 -0.0020237735 -0.00058792945
0003d0 a8 d1 b6 3b b8 05 97 3a 22 82 65 3a ad 5a 4f 3a
       0.005579192 0.001152209 0.0008755048 0.0007909935
0003e0 f1 0c 30 3b 06 cc 2b 3b 68 ad 52 3b 86 57 9c ba
       0.0026863182 0.0026214137 0.0032146815 -0.001192794
0003f0 c1 5d d5 3b e9 41 ab b9 02 12 0d b9 a2 03 e8 38
       0.0065114205 -0.00032664769 -0.00013453516 0.00011063299
