output_model/single_lora_2/gpt_4.1_2025_04_14_llama_model/adapter_model.safetensors (safetensors, 82208 bytes, 2 tensors)

base_model.model.model.layers.1.mlp.down_proj.lora_A.weight f4 [2, 8192]
-0.002688465 -0.0017813989 -0.0036761246 0.0027998346 -0.0017499335 0.0005945193 -0.0047427635 -0.020179003
0.0063911164 -0.011045681 0.0024427762 -0.012770124 -0.009485573 -0.010666964 0.002694061 0.0151900165
0.010955456 0.025271669 0.0013026774 0.012957834 0.0025515333 -0.0034237758 -0.0008574074 -0.0177065
0.0138758235 0.0020220175 -0.008324144 0.020930354 0.008752907 -0.008497628 -0.0099444585 0.025191726
0.012236609 0.016869362 0.0073849866 -0.004738701 -0.005430914 -0.008490384 -0.0046808524 -0.0021044658
0.011135785 0.019352654 -0.021241762 0.002453972 0.015190175 -0.010554193 0.015060151 5.2021947e-05
-0.005933645 0.0016821506 0.015173985 0.008165792 -0.01755513 0.002758352 0.0036287212 -0.01537648
0.0036226134 -0.009549464 -0.009084076 0.0051036137 0.017576946 -0.022421375 -0.006560562 -0.010541412
-0.0025248006 0.017327575 0.0015429994 -0.005595947 0.0043850513 -0.012713698 0.011318959 -0.0019263279
0.000106983 0.01240281 0.018736873 0.0050535738 -0.0019261534 -0.0119734835 0.0054054908 0.011718164
0.005405862 -0.0037667232 -0.026366003 -0.0030133026 -0.016784288 -0.016105518 -0.004619909 -0.010696858
-0.027344298 -0.0046363072 -0.0036846614 0.0010020895 -0.017022476 0.0021191316 0.02137452 0.0048491517
0.0023273071 -0.0015196203 -0.016547078 -0.0040530665 -0.01169434 -0.016689915 -0.002852654 0.009044404
-0.005970649 0.0045506796 -0.016619256 -0.005556427 0.014570439 0.0009833814 0.0086112805 -0.011954937
0.00018099202 0.012411454 0.012616311 -0.02029144 0.010061329 0.013866557 0.0005507194 0.0063926806
-0.0108945 -0.0044509885 0.012088579 0.004655078 0.0023007821 -0.011771923 -0.00036685783 0.0160094
-0.019186242 0.002619801 0.0018201671 0.022499338 -0.0018214512 -0.0014330149 -0.0075684665 -0.0061056805
0.0013497939 0.011868269 -0.0052494146 -0.005854141 -3.545976e-06 -0.015419621 -0.0022883655 0.008690672
-0.021140054 0.015996702 0.009354219 0.020721871 -0.004082402 0.00489928 0.021324342 0.007930494
0.0012793241 -0.010421564 0.0053450405 0.015431434 0.015164963 0.006664559 0.01054784 -0.022802996
-0.0046436647 -0.010690655 -0.010306068 0.0109892 -0.010464113 -0.0057247197 -0.0055468935 -0.012514999
-0.0154997 -0.0069046 0.0038450365 -0.018131854 0.01877186 0.008950174 0.0038618802 -0.011558002
0.0046376977 -0.012432086 -0.009607134 0.016262742 -0.0038058998 0.008089431 0.0039699716 -0.0015267412
0.011882247 -0.0034204004 -0.007758015 0.013085329 0.010040169 0.0036178096 0.0036886109 -0.022087699
-0.017257042 -0.00294055 0.012167933 0.013253155 0.009824073 -0.012368071 0.01480445 0.020501632
-0.013258836 0.008309414 0.0069001396 -0.008891421 0.0116711 0.007334804 -0.0015182818 0.0063140406
-0.016154405 -0.005961219 0.0040843757 -0.018188907 -0.01075856 0.012611851 -0.0002622893 0.0031436977
-0.0041740253 -0.011883276 -0.00040655833 -0.01971444 -0.0076302644 0.009365306 0.022002999 0.009248208
0.0023097037 -0.013047693 0.005798435 0.013922586 0.00041544897 -0.0071902224 -0.0047924193 -0.008868664
0.028775925 -0.001549399 0.01659655 -0.005351646 -0.0013830523 0.009937704 -0.013355138 -0.01393558
-0.0097698895 -0.009272833 -0.004934761 0.0049189776 -0.003094337 -0.0071890727 0.010822948 0.006877425
-0.011359776 -0.0024649978 -0.0019192273 -0.00558213 0.007291085 -0.016731838 -0.011302576 -0.00020730455
00000000: f530 30bb d47d e9ba 23eb 70bb 6e7d 373b
00000010: 065e e5ba 84d9 1b3a 2f69 9bbb 704e a5bc
00000020: 926c d13b f2f8 34bc fc16 203b c839 51bc
00000030: 6069 1bbc 7dc4 2ebc d88e 303b 8cdf 783c
00000040: 837e 333c 8806 cf3c 9abe aa3a 184d 543c
00000050: a037 273b 6d61 60bb a3c3 60ba 390d 91bc
00000060: 6c57 633c d383 043b fe61 08bc 2276 ab3c
00000070: 5a68 0f3c a339 0bbc 15ee 22bc e15e ce3c
00000080: 0f7c 483c 9e31 8a3c c2fd f13b 1b47 9bbb
00000090: cff5 b1bb 401b 0bbc d661 99bb 14eb 09bb
000000a0: de72 363c 7589 9e3c 3403 aebc d1d2 203b
000000b0: 36e0 783c 7eeb 2cbc dabe 763c 2432 5a38
000000c0: 066f c2bb 9c7b dc3a 4e9c 783c d0c9 053c
000000d0: c7cf 8fbc 78c5 343b d7cf 6d3b a2ed 7bbc
000000e0: 5e69 6d3b 5b75 1cbc 60d5 14bc 373c a73b
000000f0: 87fd 8f3c 08ad b7bc fcf9 d6bb e3b5 2cbc
00000100: 2077 25bb 8ff2 8d3c 783e ca3a 355e b7bb
00000110: 7ab0 8f3b 1d4d 50bc 2873 393c d77c fcba
00000120: 105c e038 2835 4b3c 127e 993c 7398 a53b
00000130: fc76 fcba 6e2c 44bc 8b20 b13b 8bfd 3f3c
00000140: a823 b13b 21db 76bb 84fd d7bc d47a 45bb
00000150: 347f 89bc b8ef 83bc 9b62 97bb e041 2fbc
00000160: 2601 e0bc 2aec 97bb 5c7a 71bb 8b58 833a
00000170: b872 8bbc 21e1 0a3b 9e19 af3c a2e5 9e3b
00000180: bc85 183b ff2d c7ba bd8d 87bc 96cf 84bb
00000190: 9e99 3fbc 4ab9 88bc 98f3 3abb fb2e 143c
000001a0: 6fa5 c3bb de1d 953b 1b25 88bc b012 b6bb
000001b0: dab8 6e3c cee4 803a 5416 0d3c a4de 43bc
000001c0: adc8 3d39 6959 4b3c a5b4 4e3c 3c3a a6bc
000001d0: 46d8 243c 8e30 633c 275e 103a b179 d13b
000001e0: d87e 32bc 99d9 91bb 2d0f 463c a089 983b
000001f0: b8c8 163b 06df 40bc d356 c0b9 2526 833c
00000200: 772c 9dbc f8b0 2b3b ac92 ee3a 8850 b83c
00000210: c3bd eeba 00d4 bbba e600 f8bb 2912 c8bb
00000220: 91eb b03a 2173 423c 4803 acbb 18d4 bfbb
00000230: 67f7 6db6 94a2 7cbc 67f8 15bb 5263 0e3c
00000240: e82d adbc 840b 833c 7042 193c eac0 a93c
00000250: acc5 85bb 248a a03b 63b0 ae3c e7ee 013c
00000260: feae a73a 35bf 2abc 7325 af3b 20d4 7c3c
00000270: 7776 783c 5f62 da3b d9d0 2c3c 59cd babc
00000280: e229 98bb db27 2fbc c8da 28bc 0c0c 343c
00000290: ac71 2bbc 6e96 bbbb b7c2 b5bb b60b 4dbc
000002a0: 74f2 7dbc fc3f e2bb 02fd 7b3b 4189 94bc
000002b0: 72c7 993c c0a3 123c 9917 7d3b c65d 3dbc
000002c0: d4f7 973b f3af 4bbc 3e67 1dbc 7139 853c
000002d0: 676c 79bb 8889 043c 8916 823b ef1c c8ba
000002e0: c2ad 423c cc28 60bb f236 febb d963 563c
000002f0: 857f 243c c618 6d3b 9fbc 713b 43f1 b4bc
00000300: a45e 8dbc 3eb6 40bb 035c 473c c323 593c
00000310: 26f5 203c 73a3 4abc 5d8e 723c 0af3 a73c
00000320: 973b 59bc 3524 083c 911a e23b 53ad 11bc
00000330: 2438 3f3c cc58 f03b 1501 c7ba 03e6 ce3b
00000340: 3e56 84bc 5456 c3bb 3ad6 853b e700 95bc
00000350: ac44 30bc f0a1 4e3c e083 89b9 7f06 4e3b
00000360: 43c6 88bb 12b2 42bc 5627 d5b9 2d80 a1bc
00000370: 4c07 fabb f170 193c a23f b43c cc85 173c
00000380: 665e 173b fec5 55bc cc00 be3b 8f1b 643c
00000390: 9ed0 d939 f59b ebbb ba09 9dbb df4d 11bc
000003a0: 7dbb eb3c 3415 cbba 7df5 873c dc5c afbb
000003b0: 8947 b5ba c0d1 223c 82cf 5abc 0f52 64bc
000003c0: e311 20bc 15ed 17bc c7b3 a1bb 602f a13b
000003d0: 5cca 4abb 5092 ebbb bc52 313c 065c e13b
000003e0: 5b1e 3abc cd8b 21bb 958e fbba 4dea b6bb
000003f0: 0eea ee3b 3511 89bc 712e 39bc e45f 59b9

base_model.model.model.layers.1.mlp.down_proj.lora_B.weight f4 [2048, 2]
0.0013587227 0.009874907 -0.00401043 0.0018014206 -0.00061943516 0.0013089589 -0.00077032426 5.68113e-05
-0.0025934002 4.1314233e-06 0.0062654526 0.0034007835 -0.0023308077 0.00019912134 -0.0008432588 -0.00080652983
0.0030807683 0.0028737548 0.00074751076 0.00659222 -0.00330627 0.0014242702 0.0058111018 -0.0010624361
0.0012851021 0.0034166316 0.006715595 0.0010334811 -0.0037521303 0.0010317997 -0.00075547467 0.00068163977
-6.2736784e-05 -0.0002312202 0.003060804 0.00022037799 0.0015039238 0.003381189 -0.0035689652 -0.0032004334
-0.0029606014 0.0016885053 0.0031579162 -0.0018713385 -0.0017944231 -0.0012220386 0.0015292341 0.0075011523
0.005706219 0.0012642104 0.0015642848 0.0035910204 0.0025746897 0.0041269213 0.0012778685 -0.00026160775
0.0011230254 0.0025440208 -0.0032915396 0.0022808663 -0.0028887112 -0.009492879 -0.005053298 0.0008319829
-0.003796444 -0.0065497956 -0.003748113 -0.0035343033 -0.0031510624 -0.0068554673 0.0010391857 0.0023198733
0.0027680958 -0.003544094 0.0018400351 0.0016186682 -0.0035787118 -0.004598246 0.0014118515 0.0036221172
0.0035057424 -0.00115901 0.0038292364 0.002989312 -0.002594509 -0.0007780561 0.0047287773 0.0009504537
0.004185326 0.0028926542 -0.0031107508 -0.0014028826 0.0012741778 0.003691811 -0.0027237365 -0.0073311524
0.004201991 0.0033401453 -0.004502312 0.0014153864 -0.002593758 0.0003722186 -0.00018835199 0.003789139
-0.0004080723 -0.0030108585 0.0023952187 -0.00583711 0.0042574117 0.007850288 0.0015978391 -0.0010957806
-0.0018288697 -0.005466487 -0.004663675 -0.0040130327 0.0011343512 0.0023617835 -0.0021805929 0.0021256304
0.0029710918 -0.0012941039 0.0025504471 0.0046106135 0.0005038908 0.004563416 0.0034206922 -0.0018594344
-0.00083666516 -0.0066937367 -0.0039729984 -0.004930052 0.005660047 -0.0023194987 -0.0024510417 -0.00046668432
0.0028450817 0.00082005706 0.002710622 -0.004315594 -0.0080851 -0.0072265547 0.007671036 0.0051069288
-0.004363375 0.00048178033 0.0003563585 0.0034053451 -0.00059225963 0.00023481938 0.0027733373 0.008852903
0.0031815658 0.000636661 0.0012217526 -0.0050100246 0.009264655 0.006872128 0.0035712419 6.8125926e-05
0.0042404444 0.0074688774 0.002077203 0.0012256468 0.0028729688 -0.0005661776 0.0024660542 0.0028522217
0.002693098 -0.00037181878 0.0007637187 0.0004322402 0.0021973727 0.0066607576 -0.0010930914 -0.00950068
-0.00079678354 -0.0007859884 0.0060011907 0.000323664 -0.0029368976 0.004837308 0.0037181051 0.003959795
0.00038262102 -0.004886156 -0.0012418065 -0.0009657058 -0.0029167393 0.0010261617 -0.0015816343 -0.0013806258
-0.00077673397 0.0013557766 -0.0057948115 -0.0029227266 -0.00090160314 -0.007471037 0.004241449 0.0035204769
0.00078550674 -0.0026842693 -0.0015139591 0.00333639 -0.0031912378 -0.0020482496 0.0019262776 0.003298223
0.0072156168 0.0028383762 -0.0012644602 -0.0015361413 -0.0038443904 -0.0072438996 0.0053094663 0.0047370056
0.0057999473 0.005494187 -0.0021550904 -0.005260907 0.00062431407 0.0018476397 -0.00019743937 -0.0030473415
-0.001944354 0.0020868825 -0.0020012108 0.005770346 -0.0043105846 -0.0035095448 0.001803945 0.0031691277
0.0011146212 -0.0012490663 0.0035486873 0.0036596702 0.0030805566 0.0030740905 -0.0007462538 0.004536381
0.004390321 0.007446062 -0.00032070518 -0.0012855392 -0.003286083 -0.005556977 0.00033205957 -0.0005338511
-0.00494459 -0.0014233983 0.0022653176 -0.0012236297 -0.0024112482 0.0010527282 0.0023904038 0.004441226
00000000: 2b17 b23a 5dca 213c ed69 83bb a51d ec3a
00000010: 9761 22ba 5f91 ab3a 96ef 49ba ab48 6e38
00000020: 09f6 29bb a8a0 8a36 6d4e cd3b aedf 5e3b
00000030: 77c0 18bb 3acb 5039 240e 5dba 4d6d 53ba
00000040: b7e6 493b 9b55 3c3b 99f4 433a 8d03 d83b
00000050: 02ae 58bb 94ae ba3a 0e6b be3b 7141 8bba
00000060: df70 a83a 91e9 5f3b 7e0e dc3b df75 873a
00000070: 4de6 75bb 743d 873a 0c0b 46ba 12b0 323a
00000080: 8e91 83b8 b373 72b9 c597 483b 4415 6739
00000090: 4f1f c53a f096 5d3b 4de5 69bb 5dbe 51bb
000000a0: a606 42bb d650 dd3a 0bf5 4e3b b347 f5ba
000000b0: d932 ebba d02c a0ba 9570 c83a 3acc f53b
000000c0: 3cfb ba3b ddb3 a53a b008 cd3a 5357 6b3b
000000d0: 20bc 283b 203b 873b 277e a73a 6628 89b9
000000e0: 7b32 933a 96b9 263b dfb6 57bb 967a 153b
000000f0: 8850 3dbb 0588 1bbc 2396 a5bb 6d19 5a3a
00000100: c3cd 78bb ab9f d6bb e7a2 75bb c59f 67bb
00000110: 0e82 4ebb d4a3 e0bb 4935 883a 0409 183b
00000120: f168 353b 0844 68bb 552d f13a 7e29 d43a
00000130: d288 6abb e2ac 96bb e00d b93a 0b61 6d3b
00000140: 99c0 653b ece9 97ba edf3 7a3b 55e8 433b
00000150: a308 2abb 76f6 4bba dcf3 9a3b de27 793a
00000160: 0f25 893b af92 3d3b bddd 4bbb eee0 b7ba
00000170: 5002 a73a 50f2 713b b780 32bb 2a3a f0bb
00000180: dbb0 893b 57e6 5a3b 2188 93bb 7d84 b93a
00000190: 0afc 29bb 5626 c339 5a80 45b9 3453 783b
000001a0: 89f2 d5b9 d351 45bb 1af9 1c3b 3a45 bfbb
000001b0: c281 8b3b 7f9e 003c 956e d13a 4ca0 8fba
000001c0: afb6 efba 3720 b3bb bed1 98bb c27f 83bb
000001d0: 83ae 943a 27c8 1a3b 47e8 0ebb 294e 0b3b
000001e0: a6b6 423b ec9e a9ba 6725 273b a114 973b
000001f0: 8a17 043a b588 953b b12d 603b 44b8 f3ba
00000200: a653 5bba 2257 dbbb ed2f 82bb 468c a1bb
00000210: ea77 b93b bb02 18bb a8a1 20bb 4fad f4b9
00000220: 8d74 3a3b 19f9 563a b1a4 313b d469 8dbb
00000230: 5e77 04bc bccc ecbb 505d fb3b 0658 a73b
00000240: a4fa 8ebb 7697 fc39 a1d5 ba39 362c 5f3b
00000250: df41 1bba d939 7639 e1c0 353b c40b 113c
00000260: d181 503b 99e5 263a 3723 a03a 222b a4bb
00000270: c8ca 173c 972f e13b 7f0b 6a3b d4de 8e38
00000280: 6df3 8a3b 7cbd f43b af21 083b e2a5 a03a
00000290: 6b48 3c3b 896b 14ba 869d 213b 57ec 3a3b
000002a0: b07e 303b acf0 c2b9 4b34 483a 4c9e e239
000002b0: cc01 103b 7c42 da3b 1046 8fba bda8 1bbc
000002c0: 3ddf 50ba ca0a 4eba a3a5 c43b 72b1 a939
000002d0: f778 40bb 4882 9e3b 74ab 733b 2bc1 813b
000002e0: 869a c839 0c1c a0bb 1dc4 a2ba 6b27 7dba
000002f0: c426 3fbb 4680 863a d74e cfba 1df6 b4ba
00000300: bc9d 4bba 50b4 b13a 67e2 bdbb 378b 3fbb
00000310: 9059 6cba 9acf f4bb dafb 8a3b cdb7 663b
00000320: 77ea 4d3a 91ea 2fbb 0a70 c6ba 56a7 5a3b
00000330: 1624 51bb ed3b 06bb 277b fc3a 0027 583b
00000340: fb70 ec3b 0d04 3a3b 3ebc a5ba 5958 c9ba
00000350: 2bf2 7bbb 3c5e edbb 08fb ad3b e238 9b3b
00000360: 7c0d be3b 9508 b43b 6b3c 0dbb b063 acbb
00000370: 02a9 233a 802c f23a ba07 4fb9 e8b5 47bb
00000380: b2d9 feba 14c4 083b bf26 03bb 2c15 bd3b
00000390: ce3f 8dbb 6400 66bb 5a72 ec3a 24b1 4f3b
000003a0: 7b18 923a b6b7 a3ba 1891 683b 14d7 6f3b
000003b0: 2ae3 493b ae76 493b 3fa0 43ba eca5 943b
000003c0: afdc 8f3b 18fe f33b 5224 a8b9 8a7f a8ba
000003d0: 535b 57bb 4d17 b6bb 4818 ae39 24f2 0bba
000003e0: 3a06 a2bb 5291 baba b975 143b 3362 a0ba
000003f0: 0806 1ebb b2fb 893a 52a8 1c3b b487 913b
