output_model/single_lora_2/claude_3_5_haiku_20241022_3_llama_model/adapter_model.safetensors (safetensors, 82208 bytes, 2 tensors)

base_model.model.model.layers.1.mlp.down_proj.lora_A.weight f4 [2, 8192]
0	0x3bffaa66	0.0078022955
1	0x3b1a745b	0.0023567888
2	0x3c187de2	0.009307357
3	0xbacfddb7	-0.0015858923
4	0x3c8e532c	0.017373644
5	0xba983027	-0.001161103
6	0xbbfc85ed	-0.007706395
7	0xbaed7d2c	-0.0018118969
8	0xbbec44ab	-0.0072103343
9	0xbc8c2ae6	-0.0171103
10	0x3b805a94	0.0039170478
11	0x3bdc0df4	0.0067155305
12	0x3ae6178b	0.0017554624
13	0xbb852c92	-0.004064151
14	0xbc59a462	-0.013283821
15	0xba44e7ca	-0.0007511346
16	0x3c531f9e	0.012885956
17	0x3c5374a6	0.012906229
18	0x3b8fa517	0.004383694
19	0x3a910c82	0.001106635
20	0xbc0346e0	-0.008012503
21	0xba847014	-0.0010104203
22	0x3c4605a6	0.012086308
23	0xbc50ebfd	-0.0127515765
24	0xbc58af90	-0.013225451
25	0xbc820aba	-0.015874255
26	0xbc29bc92	-0.0103599
27	0x3baf9a8e	0.0053590005
28	0x3cccaaf0	0.024983853
29	0xbc023f19	-0.007949614
30	0x3bfaa6d9	0.0076492843
31	0x3bdeee7f	0.0068033333
32	0x3c7aa890	0.0152989775
33	0x3c22002c	0.009887736
34	0x3c997da5	0.01873667
35	0x3a865b85	0.0010250664
36	0xbc9b643b	-0.018968692
37	0xbc038cc3	-0.008029166
38	0xbbfbd329	-0.0076850844
39	0x3a661153	0.0008776385
40	0x3b957ec8	0.0045622326
41	0x3ca40eee	0.02002665
42	0xbc2354eb	-0.0099689765
43	0x3928e54d	0.0001610715
44	0x3cc7b5b3	0.024378633
45	0x3b7425ff	0.0037254093
46	0x3bfab85c	0.007651372
47	0xbb36d3e1	-0.0027897286
48	0xbbec7150	-0.0072156563
49	0x3ba28da6	0.0049607335
50	0x3c051c34	0.0081244
51	0x3c0552e3	0.0081374375
52	0xbb683e20	-0.003543742
53	0xbb46e1a1	-0.0030346888
54	0x3c68f45f	0.014218419
55	0xbbe2a5f1	-0.0069167544
56	0xbb4fd792	-0.0031714183
57	0xbc700b6f	-0.0146511635
58	0xbc11ceb6	-0.008899381
59	0x3b58cc28	0.003308067
60	0xbbc139b8	-0.005896773
61	0xbc40a3f7	-0.011757842
62	0xbc3edc3c	-0.011649188
63	0xbb91c55b	-0.0044485754
64	0x3bdda714	0.006764302
65	0x3b9d9a0e	0.0048096245
66	0x3b320dfd	0.0027168982
67	0x3c833d52	0.01602045
68	0x3c112e43	0.008861127
69	0xbbd8a1d8	-0.00661109
70	0xbc53d0b9	-0.012928181
71	0x3cac5567	0.021036817
72	0xbb6c3b44	-0.0036046067
73	0xba4887cc	-0.000764963
74	0x3a424d90	0.00074120704
75	0x3952fc9f	0.0002012127
76	0x3c5c1a9d	0.0134340795
77	0x3b880671	0.0041511585
78	0x39f59afb	0.0004684551
79	0x3c259d45	0.010108297
80	0xbbda7606	-0.0066669015
81	0xbc93c27f	-0.018037079
82	0xbc03cee1	-0.008044929
83	0xb93f3922	-0.00018236463
84	0xbbc5d894	-0.006037781
85	0xbbee9af0	-0.0072816536
86	0x3b2e34e5	0.002658182
87	0x3c36dd7f	0.011161207
88	0x3c96b707	0.018397821
89	0xbca709d3	-0.020390427
90	0x3c233553	0.009961444
91	0x3a24f2ca	0.0006292282
92	0xbc3ff21e	-0.01171544
93	0xbc371f39	-0.011176878
94	0xba056cc7	-0.00050897565
95	0x3bb1a036	0.00542071
96	0xbb8ac311	-0.0042346795
97	0xbca4ec8a	-0.020132322
98	0xbbf046db	-0.0073326654
99	0xbc13be7d	-0.009017584
100	0xbb9dc8df	-0.0048152055
101	0xbc78438b	-0.015152822
102	0xbb076ea7	-0.002066532
103	0x3c3c44e6	0.011491036
104	0x3bfcf458	0.0077195577
105	0x3b74a60f	0.0037330424
106	0xbc72833b	-0.014801796
107	0xbbb3e94a	-0.0054904567
108	0x3a4a1164	0.000770828
109	0xbc04d764	-0.008107994
110	0xbba790a8	-0.00511368
111	0xbc2a20f9	-0.010383838
112	0x3c516bef	0.012782081
113	0x3b36bb10	0.0027882494
114	0x3a6f8a38	0.00091377227
115	0xbc411a02	-0.011785986
116	0x3ca75fe1	0.02043146
117	0xbc3e0de0	-0.011599988
118	0x3b9fc6b4	0.004875982
119	0xbc0cad3f	-0.008586227
120	0x3c2941cd	0.01033063
121	0x3bcec646	0.006310257
122	0x3be08375	0.0068516084
123	0x3cba956c	0.022776328
124	0x3c21d6df	0.009877889
125	0x3c9537be	0.018215057
126	0x3c45d0e0	0.012073725
127	0x3b1ce1c2	0.0023938273
128	0xbcd428c8	-0.025898352
129	0x3c3e3b43	0.011610809
130	0x3c3a5e9e	0.011375098
131	0x3bb9ceb6	0.005670394
132	0xbc89950b	-0.016794702
133	0xbb84bd8f	-0.0040509175
134	0xbcd22f3d	-0.02565729
135	0xba5c1810	-0.00083959196
136	0x3a91b4c3	0.0011116493
137	0x3c631303	0.013859513
138	0xbbf41c6d	-0.0074496777
139	0x3c0eac08	0.008708008
140	0xbaa2c339	-0.00124178
141	0xbb2dbc28	-0.0026509855
142	0xbc620937	-0.013796142
143	0x3a6417b8	0.0008701044
144	0xbb1aca4a	-0.0023619109
145	0xbc829c04	-0.015943535
146	0x3bb6e424	0.0055813957
147	0x3bb28dfc	0.0054490548
148	0x398cb831	0.00026840114
149	0x3b6abd4a	0.0035818391
150	0x3c42c1e0	0.011887044
151	0x3b4700c7	0.0030365454
152	0x3be0d8a7	0.0068617645
153	0x3a686fee	0.00088667765
154	0x3c9d3815	0.019191781
155	0x3ba5df6b	0.005062034
156	0x3c712e95	0.014720579
157	0x3ca88428	0.02057083
158	0x3bede170	0.0072595403
159	0xbc524613	-0.01283409
160	0xbc384f4a	-0.011249373
161	0x3cacfeee	0.021117654
162	0xbc104aef	-0.008806928
163	0xbaad6283	-0.0013228211
164	0xbb4144ee	-0.0029490548
165	0xbbe871e0	-0.007093653
166	0xbbac4aed	-0.0052579553
167	0x3a3bcad4	0.00071637076
168	0xbacea530	-0.0015765782
169	0x3c2187e2	0.009859057
170	0x3ae8cd2f	0.0017761345
171	0xbc2f2613	-0.01069023
172	0x3c188aa9	0.009310403
173	0x3bed0cd3	0.007234195
174	0x3a30a457	0.0006738356
175	0xbc9de465	-0.019273946
176	0x3c6866da	0.014184678
177	0x3b40d4b4	0.0029423656
178	0x3c030b50	0.007998303
179	0x3bfd35f4	0.007727379
180	0xbc138261	-0.009003253
181	0xbb3a4a0c	-0.0028425483
182	0x3b3e8a8a	0.0029074275
183	0x38f69f20	0.000117598334
184	0x3a4920e5	0.0007672443
185	0xbc80b0f5	-0.01570938
186	0xbaafd930	-0.0013416167
187	0x3c8a190d	0.016857648
188	0x3c8ce372	0.017198298
189	0xbc012b02	-0.007883789
190	0xbb511f23	-0.0031909428
191	0xbc26c0a5	-0.010177766
192	0xbb990255	-0.0046694675
193	0xbc3109f7	-0.010805598
194	0x3b87f351	0.0041488786
195	0x3bfeae76	0.007772262
196	0x3b8e5d5b	0.004344625
197	0xbb4a52a1	-0.0030872005
198	0xbb4683d3	-0.0030290976
199	0x3baddbe9	0.0053057563
200	0x3c04bd82	0.008101823
201	0xbbd009eb	-0.0063488386
202	0xbc8d3a3a	-0.017239679
203	0xb94d8d95	-0.00019603067
204	0x3c129970	0.008947715
205	0xbc60e928	-0.013727464
206	0x3bcf7aad	0.0063317628
207	0xbc90f248	-0.017693654
208	0xbc9f9a88	-0.019482866
209	0xbaabae9e	-0.0013098305
210	0x3c5af4a1	0.013363988
211	0xbc46f640	-0.0121436715
212	0xbc86ebb5	-0.016469816
213	0xbbc524fe	-0.0060163727
214	0x3ad62209	0.0016337048
215	0xbb50c082	-0.0031853025
216	0x3bbdfecf	0.005798198
217	0x3b407987	0.002936931
218	0xbbce48b3	-0.0062952875
219	0xbc1d3a44	-0.009596411
220	0x3c847f59	0.016174005
221	0xbc6018cb	-0.013677786
222	0x3c6081f1	0.013702855
223	0x3c433934	0.011915494
224	0xbc7583d9	-0.014985048
225	0xbb8952b9	-0.0041907695
226	0xb8b30fdc	-8.538339e-05
227	0x3bf7f786	0.007567349
228	0x3ba7e770	0.005124025
229	0xbb88cc08	-0.004174713
230	0x3bdfee11	0.0068337996
231	0xbc49b572	-0.012311326
232	0x3c5faec0	0.0136525035
233	0xbc3b72b3	-0.011440921
234	0x3c666023	0.014061007
235	0x3bb0c663	0.0053947433
236	0xbb18df20	-0.0023326352
237	0x3c2ef5d8	0.010678731
238	0x3a735ca9	0.0009283522
239	0xbc4e7ac6	-0.012602514
240	0x3b6e72fa	0.003638445
241	0xbc753035	-0.014965107
242	0xbc3395ba	-0.010960991
243	0xba03bf36	-0.0005025746
244	0xbbefa7fd	-0.007313727
245	0x3bcafb4e	0.0061945086
246	0x3c5e2b6b	0.013560156
247	0x3b3c6b2c	0.0028750403
248	0x3c65dbe4	0.014029477
249	0xbb47aeb9	-0.0030469133
250	0xbae2f23b	-0.0017314622
251	0xbc877dee	-0.01653954
252	0x3c318449	0.010834762
253	0x3c1b37c3	0.009473744
254	0xbc049524	-0.0080921985
255	0x3b91bc12	0.0044474686

base_model.model.model.layers.1.mlp.down_proj.lora_B.weight f4 [2048, 2]
0	0x3b9a570c	0.004710084
1	0xba70bd3a	-0.00091834704
2	0x3b09b98c	0.0021015136
3	0xbbc154bf	-0.005899995
4	0xbbc21598	-0.0059229843
5	0x3b0f422e	0.0021859515
6	0xb702cce9	-7.796313e-06
7	0xbba265e8	-0.004955996
8	0x3ad3fe04	0.0016173725
9	0x3b2e6ea1	0.0026616233
10	0x3bc60ffd	0.0060443864
11	0x3a1e9cbd	0.00060505775
12	0xba2b0a2d	-0.00065246486
13	0xbbc64897	-0.006051134
14	0xbb2271a6	-0.0024786978
15	0x3b4ce45b	0.003126404
16	0xbad0cc39	-0.0015930004
17	0x3aad0d8c	0.001320289
18	0xbba0cc6d	-0.004907182
19	0xb9e74f33	-0.0004411876
20	0xbbb70509	-0.005585317
21	0x3bf5f53b	0.0075060404
22	0x3b8331d6	0.0040037436
23	0xbb400622	-0.002930053
24	0x3ac2c5a4	0.0014859927
25	0xbb142db7	-0.0022610256
26	0x3c1bdb28	0.0095127
27	0xbc228638	-0.009919696
28	0xbb9fd42a	-0.004877587
29	0x3bff6f78	0.0077952705
30	0x3ba264e9	0.004955877
31	0x3aa1f394	0.0012355917
32	0xba3a899d	-0.0007115843
33	0x3bc33f17	0.0059584486
34	0xb9765f7e	-0.00023495962
35	0x3b3bb584	0.0028642127
36	0xb9c137d9	-0.00036853438
37	0x3acd58ea	0.0015666757
38	0x3b77192d	0.0037704215
39	0x3b097d57	0.002097925
40	0x3ba7063f	0.00509718
41	0xbae88c76	-0.0017742056
42	0x3be54971	0.0069972803
43	0xb9ad5d56	-0.00033066672
44	0xbaae4beb	-0.0013297772
45	0x3bb75f02	0.0055960426
46	0xb8671234	-5.5091645e-05
47	0xbae68e21	-0.0017589965
48	0xba13c3be	-0.0005636773
49	0xbb3be09e	-0.0028667818
50	0x3ac53366	0.0015045225
51	0xbbc2bae6	-0.00594269
52	0x3bac538e	0.005258984
53	0x3b1f3cc6	0.0024297698
54	0x3ba84e53	0.00513629
55	0x3b5a9b8d	0.0033356876
56	0x3b06ffcb	0.0020599242
57	0x3a23e0df	0.0006251465
58	0xbbc3d8e0	-0.0059767812
59	0xbb83c344	-0.00402108
60	0xbc0d6964	-0.008631084
61	0x3b428218	0.0029679593
62	0xbbb0fad9	-0.005400997
63	0x3bc76f3c	0.006086258
64	0x3bbe6b6c	0.0058111455
65	0x3b1a76a9	0.0023569262
66	0x3c159ac2	0.009131135
67	0xb9f62ecc	-0.00046955643
68	0x3b51dec2	0.0032023643
69	0x3a50e6bc	0.00079689524
70	0xba8e9d4f	-0.0010880622
71	0x3adb5dea	0.0016736363
72	0x3b95994b	0.004565393
73	0xbc06ca93	-0.008227008
74	0x3b990a07	0.004670385
75	0xbbb99aca	-0.0056642042
76	0x3bab557f	0.005228698
77	0x3bb48645	0.0055091702
78	0xbb6319f7	-0.0034652927
79	0x3c17654e	0.0092404615
80	0x3b0766a3	0.0020660541
81	0xba2f4aa8	-0.0006686845
82	0xbbe36cf4	-0.0069404785
83	0xbbb9336d	-0.0056518824
84	0x3948eb6e	0.0001916119
85	0x3a1bc8b0	0.00059426855
86	0x3a5483d3	0.00081068015
87	0x3aa64915	0.0012686575
88	0xbaa7329c	-0.0012756172
89	0xbabdf8ed	-0.0014493741
90	0xbc3435a4	-0.010999117
91	0x3bc5be66	0.00603466
92	0xbb87ce09	-0.0041444344
93	0xbbd24e7c	-0.0064180475
94	0x3c3b87b3	0.011445927
95	0x3bbddab8	0.0057938956
96	0x3b9c9d00	0.004779458
97	0xbbe60f26	-0.007020849
98	0x3b6f8533	0.0036547899
99	0xbb1e06f9	-0.0024113043
100	0xbb8c0ee4	-0.004274236
101	0x3b1776b0	0.0023111515
102	0x3b93dec9	0.004512642
103	0x3b0ddd4f	0.0021646803
104	0xbaa4a1bb	-0.0012560406
105	0x3b8caa6d	0.0042927773
106	0x3c12bcdc	0.00895616
107	0xba15e368	-0.0005717785
108	0x3af5aec2	0.0018744098
109	0xbba825e3	-0.0051314696
110	0xbbac3d50	-0.0052563325
111	0x3b81f3ba	0.003965822
112	0xbadbe338	-0.001677609
113	0xbb837a4e	-0.0040123826
114	0xbc0730fd	-0.008251426
115	0x3c0794d2	0.008275228
116	0x3b4d29ba	0.0031305389
117	0xbb9fa59a	-0.004872036
118	0xb8360e74	-4.3405642e-05
119	0x3be612b5	0.007021273
120	0x3a216f12	0.00061582134
121	0xbae7e00c	-0.0017690673
122	0xbba46af2	-0.0050176317
123	0xbbf2bc44	-0.007407697
124	0xb927122a	-0.00015933128
125	0x393c3902	0.00017950314
126	0x38f1b472	0.00011525386
127	0x3b35e349	0.002775388
128	0x3c28590f	0.0102751395
129	0x3a91af61	0.0011114889
130	0xbb7f7da8	-0.003898481
131	0xbb8d27dc	-0.00430773
132	0xbbdddbfa	-0.006770608
133	0xbb553e72	-0.003253844
134	0x3acba172	0.0015535785
135	0xbbce3f35	-0.006294156
136	0x3b2a432b	0.0025979977
137	0xbb826aae	-0.0039800024
138	0x3b411e60	0.0029467568
139	0xb9e40081	-0.00043487924
140	0x3b7af789	0.0038294515
141	0x3b9de07e	0.0048180213
142	0xbb7e46c1	-0.0038799497
143	0xbba4e465	-0.0050321096
144	0xbc32b721	-0.010907919
145	0xbb29c0e6	-0.002590233
146	0x3b0370a7	0.002005616
147	0x3ab0bb39	0.0013483531
148	0xbb7106e3	-0.0036777786
149	0xbb295731	-0.0025839324
150	0x3bbfc93f	0.005852848
151	0xbbc9d742	-0.006159694
152	0x3ab5592b	0.0013835778
153	0xba4610b4	-0.00075555895
154	0x3b1fc2ec	0.0024377657
155	0x3a8372ac	0.0010028682
156	0x3b9f155b	0.0048548407
157	0x3a5948d9	0.0008288748
158	0xbb0785cc	-0.0020679114
159	0x3b1613e8	0.0022900049
160	0x3bab5e3b	0.005229739
161	0x3b798eee	0.0038079577
162	0x3c39d01e	0.011341123
163	0xbba0d489	-0.0049081487
164	0x3a668889	0.0008794149
165	0x3c1cfe14	0.009582061
166	0x3ae93674	0.0017792718
167	0x3a9b9e34	0.001187271
168	0x3ba35ec5	0.0049856626
169	0xbbc0ecf6	-0.005887623
170	0x3b1a3482	0.0023529832
171	0xbc074633	-0.008256483
172	0x3c0a6880	0.008447766
173	0xbb5d9784	-0.0033812234
174	0xb91cdaab	-0.0001495878
175	0xbb81a7c1	-0.0039567654
176	0x3bc0a09c	0.005878521
177	0xbb80d672	-0.003931814
178	0x3c0d26ac	0.008615177
179	0xbb497b82	-0.0030743782
180	0xbb253927	-0.0025211067
181	0xbb804ba9	-0.0039152694
182	0xbb981d17	-0.0046421397
183	0xbb0d88aa	-0.002159635
184	0x3b6d8a79	0.0036245866
185	0xb9a5a1c8	-0.0003159179
186	0xbb9652fb	-0.0045875288
187	0xbb5a4dc0	-0.0033310503
188	0xbb45a570	-0.0030158423
189	0x3aa823e5	0.001282808
190	0x3ab4bda1	0.0013789424
191	0x3a976ecb	0.0011553405
192	0x3bb6b5d4	0.005575875
193	0xbaeccf15	-0.0018067086
194	0xbb480534	-0.003052068
195	0x3b7bc77c	0.0038418462
196	0x3b87827f	0.0041354294
197	0xbb515473	-0.0031941205
198	0x3bde7750	0.0067891255
199	0x3b33d532	0.0027440307
200	0xbb25ce1c	-0.0025299853
201	0x3bf49139	0.007463601
202	0xbbf8c514	-0.007591853
203	0xba505a46	-0.0007948022
204	0xbbbc737c	-0.0057510715
205	0xbb622358	-0.003450593
206	0xbb94a6db	-0.0045364923
207	0x3ba74124	0.005104201
208	0xbb704cdf	-0.0036666912
209	0xbbf6d234	-0.0075323824
210	0xbaf56f86	-0.0018725253
211	0x39439c48	0.00018654868
212	0x3abe040f	0.0014497059
213	0x3a589833	0.00082624255
214	0x3bf7023e	0.007538109
215	0xbb5bfa5f	-0.003356598
216	0x39f0c4a1	0.00045922867
217	0xbb3b4a21	-0.002857812
218	0xbc25e6bf	-0.010125815
219	0x3b9b1047	0.004732165
220	0xbb695327	-0.0035602541
221	0x39fd011d	0.0004825675
222	0x3b724439	0.0036966933
223	0x3bed9c05	0.007251265
224	0x3b0717e9	0.0020613617
225	0xbb0bf0b6	-0.0021353192
226	0xbb0909c5	-0.0020910364
227	0x3bb08ec2	0.005388112
228	0xbbc14931	-0.0058986177
229	0x3bd676c0	0.006544918
230	0xbb2215da	-0.0024732263
231	0xbb9fad74	-0.004872972
232	0x3954a81b	0.0002028052
233	0xba295517	-0.0006459518
234	0x3c0ec69d	0.008714345
235	0xbbe3696d	-0.006940058
236	0x3ae1e900	0.0017235577
237	0x3b0b14b4	0.0021222057
238	0x3bed9a80	0.007251084
239	0xbb858723	-0.0040749474
240	0x3ae13882	0.0017182978
241	0xbbf6643d	-0.0075192736
242	0xbaf95f8c	-0.0019025668
243	0xbb3ddda5	-0.0028971222
244	0xbafafbd4	-0.0019148537
245	0x3bb7a395	0.0056042173
246	0xbbeae177	-0.007167991
247	0xbb677849	-0.0035319498
248	0xbb3e5290	-0.002904091
249	0x3af65d20	0.0018796064
250	0xbbf067ea	-0.0073366063
251	0xbbf041de	-0.0073320707
252	0xbaf36ab0	-0.0018571224
253	0xbbbabdbf	-0.005698889
254	0xbbe9af55	-0.007131497
255	0xbb5809f0	-0.0032964908
