output_model/single_lora_2/claude_opus_4_1_20250805_2_llama_model/adapter_model.safetensors (safetensors, 82208 bytes, 2 tensors)

base_model.model.model.layers.1.mlp.down_proj.lora_A.weight f4 [2, 8192]
000000 76 84 0d 3c f3 3b 0d bc b4 13 fd bb d8 40 17 ba
       0.008637538 -0.00862025 -0.007723296 -0.00057698553
000010 a9 04 53 bc 9d 0b ec 3b 35 9b 12 bb 12 1a b1 bc
       -0.012879529 0.007203533 -0.0022370343 -0.021618877
000020 8b 7a a0 bb 7c fd 1c bc 77 20 98 3b db f6 94 bb
       -0.0048974208 -0.00958192 0.004642542 -0.004546029
000030 34 07 b0 3b ee 03 17 bb d8 98 a6 bb 7b a0 0e 3c
       0.0053719524 -0.0023043114 -0.0050841384 0.008705254
000040 63 0d 12 3c 40 82 54 3c f1 39 69 3b e5 5c 59 3c
       0.008914324 0.012970507 0.0035587514 0.013266777
000050 12 de c8 3b c6 89 9f ba 1c 03 52 3b 84 1c cf bb
       0.0061299885 -0.0012171797 0.003204531 -0.006320538
000060 ed 5e 5c 3c 20 0d 00 3b e0 67 9f 3b 6d f4 74 3c
       0.013450366 0.0019539073 0.004864678 0.014950854
000070 5c 4f a7 3b 52 aa c2 bb dc 9e 84 bb b1 ec ab 3c
       0.005105896 -0.005940714 -0.004047258 0.020986887
000080 df 17 84 3b 12 fd 2e 3c b2 15 50 3c 9a 01 7e bb
       0.004031166 0.010680454 0.012700485 -0.0038758279
000090 b4 86 24 3c f7 e1 80 bb 1b 85 61 bb fc e4 b2 bb
       0.010041881 -0.003933187 -0.0034411612 -0.005459426
0000a0 bf 3f 38 3b c2 4c 3a 3c a4 77 aa bc 75 ea b7 bb
       0.0028114168 0.01137084 -0.020809002 -0.0056126663
0000b0 c9 38 5a 3c 53 34 3e bc 5d 79 8c 3c 13 1a 68 3c
       0.013319203 -0.011609155 0.017147714 0.014166373
0000c0 6d ba 13 bc 0d 2a 9a 3b 38 94 1f 3c ce fb 13 bb
       -0.009016615 0.00470472 0.009739928 -0.0022580507
0000d0 65 dd 86 bc f0 2d 3f bb 18 3d a0 3a 3b 07 02 bc
       -0.016462991 -0.0029171668 0.0012225239 -0.007936294
0000e0 41 bb 29 3c 05 45 74 bc ae 7e d8 bb 8b 02 c1 3b
       0.010359586 -0.014909034 -0.0066068983 0.0058901957
0000f0 eb 03 ce 3b e1 89 b1 bc bd 05 93 bb 8b 5a 2e 3a
       0.006287088 -0.021672191 -0.004486768 0.0006651065
000100 da 43 98 bb 60 b8 9e 3c 46 d6 aa ba 83 0b 9b ba
       -0.0046467604 0.019375026 -0.0013033829 -0.0011828992
000110 b5 64 75 3b 51 13 50 bc 09 66 c4 3b ca 09 63 3b
       0.003744406 -0.012699918 0.005993609 0.0034643286
000120 d7 52 ab ba 4d 7b bc 3b 72 71 65 3c 7a f9 5a 3b
       -0.0013070953 0.0057520033 0.014004098 0.003341286
000130 d0 44 29 3b 11 a0 12 bc 16 e8 74 3c c2 e9 8a 3c
       0.002582837 -0.008949296 0.014947912 0.016957168
000140 89 b3 88 3b 38 20 e9 b9 ee 6c 80 bc eb 72 3d bb
       0.004171793 -0.00044465228 -0.015676942 -0.0028907608
000150 23 af 4e bc 58 7f 63 bc 86 d5 4d bc 6c 45 1e 36
       -0.012614998 -0.013885342 -0.012563115 2.3584244e-06
000160 0e 5a 10 bb a0 ef 23 bc db f0 db bb 58 bc 17 3b
       -0.0022026333 -0.0100058615 -0.006712062 0.0023153033
000170 b6 7f 4f bc 44 be ab bb ab e1 6d 3c 33 34 89 3b
       -0.012664726 -0.0052411873 0.0145191355 0.004187131
000180 06 61 1f 3c 90 51 3d bb 90 e6 82 bc ef e9 d0 bb
       0.009727722 -0.0028887726 -0.015979081 -0.0063755433
000190 39 12 18 bc 96 e7 48 bc 90 5b a7 bb b6 76 63 3c
       -0.009281688 -0.012262246 -0.0051073506 0.013883283
0001a0 69 df 84 ba 18 0b a5 3a 6c 06 ae bb 14 df 14 bc
       -0.0010137382 0.0012591807 -0.005310824 -0.009086389
0001b0 cd 16 87 3c 2d 80 24 3c 46 96 86 3b 96 84 b0 bb
       0.016490364 0.010040325 0.0041072695 -0.005386899
0001c0 e1 20 cb ba 9a 6f 3b 3c 23 53 6b 3c dc 51 22 bc
       -0.001549747 0.011440182 0.014363083 -0.009907212
0001d0 dc 68 a3 3b 03 29 57 3c 25 99 82 ba 37 1d 5f 3c
       0.0049868654 0.013132337 -0.0009963854 0.013617805
0001e0 c2 89 45 ba 8a 44 6b 3b 6f 6a f1 3b cf fd 94 bb
       -0.0007535481 0.0035899007 0.007367424 -0.004546858
0001f0 d2 ca d3 bb 9c f1 36 bc 90 e6 ac bb 5e 52 18 3c
       -0.006463387 -0.011166003 -0.0052765086 0.009296982
000200 1b 37 6b bc 90 d6 cb 3b f3 7b 06 3c 7d 4c 94 3c
       -0.0143564 0.006220646 0.008208263 0.018102879
000210 7f 52 79 3a 05 02 d6 3b af 17 07 bc 89 d7 35 bc
       0.0009510889 0.0065310025 -0.008245393 -0.011098751
000220 18 c5 02 3b fe 51 24 3b be 32 33 3c 21 b2 54 bc
       0.0019953903 0.0025073285 0.010937391 -0.012981922
000230 38 43 32 3b a0 5b 8a bc 31 b4 4f 3b da 0d 8a 3b
       0.002720071 -0.016889393 0.0031693096 0.004213077
000240 7f d8 aa bc e8 06 42 3c 68 bb 6d 3c 87 14 81 3c
       -0.020855187 0.011842467 0.014510013 0.015756859
000250 bf bb 04 bc d6 41 f9 3b 7a a2 57 3c b0 c1 2d 3c
       -0.008101403 0.007606725 0.013161296 0.010605261
000260 d3 a3 00 3c 0c 54 4a 3b 54 14 84 3b e7 05 55 3c
       0.007851559 0.003087285 0.0040307436 0.0130018955
000270 b4 0b 9a 3b b0 3f ad 3b 93 c7 ee 3b 08 45 8e bc
       0.004701102 0.005287133 0.0072869747 -0.017366901
000280 23 f2 48 bc cd 03 05 bb 8e 22 98 ba b8 87 6a 3b
       -0.012264761 -0.0020296455 -0.0011606978 0.003578646
000290 2d 37 81 bb 92 57 f0 bb 4b 27 9e bc af 35 59 bc
       -0.003943345 -0.007334658 -0.019305846 -0.013257428
0002a0 f1 d1 a5 bc 23 95 11 bc 42 04 d3 3a f6 c0 48 bc
       -0.02024171 -0.008885655 0.0016099291 -0.012253037
0002b0 37 eb 83 3c 59 9e 88 3b e4 a3 c9 39 f5 e4 e1 bb
       0.01610337 0.004169267 0.00038459816 -0.006893749
0002c0 ab a4 a3 3b e4 d2 cb bb 0c 38 34 bb 56 7a 3a 3c
       0.004993995 -0.0062202085 -0.0027499227 0.011381706
0002d0 e0 0c fc bb 55 98 43 b9 d1 ad 11 3b 10 7c 20 3b
       -0.0076919645 -0.00018653397 0.0022228847 0.002448801
0002e0 46 ce 3f 3c d0 a1 96 ba 8f 2b d8 ba 52 49 56 3c
       0.011706894 -0.0011492316 -0.0016492474 0.013079004
0002f0 a0 cf 81 bb 28 36 86 bb 15 88 9b 3a 87 23 38 bc
       -0.0039615184 -0.0040958114 0.0011866117 -0.011238939
000300 46 bc 9f bb 1c 14 28 bc 4f c2 86 3c bd 9e 52 3c
       -0.004874739 -0.010258701 0.016450075 0.012855229
000310 26 bd b9 3b 52 74 ba bc af e7 fb 3b c1 eb 83 3c
       0.0056683 -0.022760544 0.007687531 0.016103627
000320 01 8c 52 b7 b9 0e a1 3b f6 cb d0 bb c3 1b c0 bb
       -1.2549573e-05 0.004915085 -0.0063719703 -0.0058626845
000330 dc 11 a6 ba de 2c 57 39 b1 b9 b9 ba 09 ba bf 3a
       -0.0012670117 0.00020520712 -0.001416972 0.0014627586
000340 b5 f7 81 bc f7 de f9 bb 3c 98 9b bb cf a7 9b bc
       -0.015865186 -0.0076254564 -0.0047483724 -0.019000916
000350 d0 79 2e bc 54 e0 99 3b 40 00 1e 3c ad e8 ee ba
       -0.01064916 0.0046959314 0.009643614 -0.0018227302
000360 91 b3 3e 39 9a de 47 bc 14 3d 0e 3b 4e 0b 8d bc
       0.00018186706 -0.012199068 0.0021703886 -0.017217305
000370 8a c8 3a bc 9f 84 1e 3c 77 25 8d 3c bf 39 a8 3b
       -0.011400351 0.009675174 0.017229779 0.005133837
000380 3d 33 27 bb c6 c1 55 bc ae e0 44 39 48 aa 42 3c
       -0.0025512718 -0.0130466875 0.00018775716 0.0118814185
000390 ad 15 14 3c 37 68 03 bc d4 a9 b6 bb f8 17 18 bc
       0.009038371 -0.008020452 -0.0055744443 -0.009283058
0003a0 d5 03 54 3c 87 b9 8f bb 7b fe 6f 3c ff 84 78 bb
       0.012940367 -0.0043861303 0.014648075 -0.0037921069
0003b0 b0 7b d5 bb a4 39 bc ba 1c 04 a3 bb d0 6f 2a bc
       -0.006514989 -0.001436044 -0.004974855 -0.010402635
0003c0 39 2a 1f ba 89 d7 d3 bb 70 30 9a bb ce 42 07 3b
       -0.00060716603 -0.006464903 -0.004705481 0.0020639184
0003d0 3a d2 05 3c 21 55 34 bc a9 57 3e 3b 9b 31 e1 3b
       0.008167798 -0.011006624 0.0029043949 0.0068723685
0003e0 fe 27 a8 bb 84 c1 7f bb 9a fe 1e 3b e3 db bd bb
       -0.0051317206 -0.0039025256 0.002426064 -0.005794035
0003f0 f0 6b 11 3c 56 2c fa ba 13 77 ab bb 85 ae 77 bb
       0.008875832 -0.00190867 -0.0052327006 -0.003779323

base_model.model.model.layers.1.mlp.down_proj.lora_B.weight f4 [2048, 2]
000000 a4 a7 56 bb 01 d1 4b b9 77 db 81 3b 8a 82 24 3b
       -0.003275373 -0.00019437449 0.00396293 0.0025102221
000010 44 45 39 3b b3 a8 d2 3a 33 23 0e bb 31 77 cd 3a
       0.0028270045 0.0016072005 -0.002168846 0.0015675781
000020 b3 f9 15 bb e5 68 df ba e7 39 24 3b f2 b8 6a ba
       -0.0022884428 -0.0017044811 0.0025058927 -0.00089539506
000030 c5 79 c8 b8 8e 81 48 bb 48 ab 73 3b 4e c5 91 ba
       -9.5594245e-05 -0.0030594799 0.003718095 -0.0011121423
000040 49 28 41 bb ec f4 40 3b ab 6b 15 ba 67 50 9d ba
       -0.0029473475 0.002944286 -0.00056999427 -0.0012002111
000050 a4 ae f9 b9 cc cf d8 ba 4a d3 59 3b 79 b7 ca 39
       -0.00047623098 -0.001654142 0.003323751 0.0003866514
000060 48 ba 95 ba 0a 6b 46 3b 6b 0b 40 3c 04 76 25 3c
       -0.0011423314 0.0030276203 0.011721472 0.010098938
000070 58 f2 aa bb d8 e3 39 3b 7a 6a 72 b9 e0 12 96 b9
       -0.005216878 0.0028364565 -0.00023118584 -0.00028624292
000080 7e 72 34 3a 2b f9 3e 3a d0 14 da ba 37 ff e1 b9
       0.0006883516 0.0007285054 -0.0016638283 -0.00043105494
000090 1d 61 99 3a e5 34 82 ba 8b f4 92 b9 41 28 64 bb
       0.0011701916 -0.0009933977 -0.0002802949 -0.0034814032
0000a0 a9 de 9a 3b ae d9 c3 3a 5c 28 b8 b9 aa 77 16 bb
       0.00472625 0.0014942193 -0.00035125285 -0.002295951
0000b0 6c 73 a7 bb 5f c0 51 3a 3a f5 a2 39 36 a0 d5 3a
       -0.005110195 0.0008001383 0.00031081756 0.0016298357
0000c0 33 88 93 3b 38 62 66 3b 74 a9 9f ba b6 55 a0 3a
       0.00450232 0.0035153758 -0.0012181238 0.0012232575
0000d0 2d 86 a9 b9 e5 9a c3 3a f1 ce 50 3b 2b cc da ba
       -0.0003233416 0.0014923482 0.0031861628 -0.0016692927
0000e0 93 46 47 3b 89 d2 5b 3b 89 07 9a 3b 6b 51 47 3b
       0.0030407056 0.0033542237 0.0047006053 0.003041352
0000f0 35 24 7f bb b2 5a 08 bc ae 1f b5 bb 50 2e f2 bb
       -0.0038931493 -0.008322405 -0.005527458 -0.007390775
000100 be 53 a6 3a 40 24 2e ba fd a0 df ba b9 ab 9f bb
       0.0012689752 -0.0006642975 -0.0017061528 -0.004872766
000110 c8 3a 41 bb 6c 91 5d 3a b5 7e 83 bb 9a 68 47 b9
       -0.00294845 0.00084521505 -0.0040129074 -0.00019017086
000120 0c 72 b5 3b 8a 5b 68 3a a7 07 36 3b a7 a4 93 39
       0.005537277 0.0008863738 0.0027775557 0.000281607
000130 4b 38 7c ba c2 a0 6e ba 35 d4 ae bb f9 8b 61 bb
       -0.00096214254 -0.0009102934 -0.0053353556 -0.0034415706
000140 c8 7c ad b8 7d 9a ad 3b 26 57 3d 3b 7d db ae ba
       -8.272525e-05 0.0052979575 0.0028891056 -0.0013340559
000150 c8 0a ca b9 17 fd 34 ba 1a fd 73 3b a7 e0 7a 3b
       -0.00038536475 -0.00069041684 0.0037229718 0.0038280876
000160 10 d6 1a bb c0 22 81 3b d7 fc 9b bb e2 bf 03 3b
       -0.0023626126 0.00394091 -0.0047603655 0.0020103385
000170 83 a6 5e 3b 0b 21 af 3b 4a 12 3d 3b 5a a6 05 bc
       0.003397376 0.005344515 0.0028850012 -0.008157337
000180 8a 79 c9 3b 1c b2 c8 3b ed 95 08 bb e6 cf f4 bb
       0.006148522 0.006124748 -0.0020841316 -0.0074710725
000190 67 83 14 bb ed 37 b7 bb 66 c0 1e 3b ef 60 1c 3b
       -0.002266133 -0.0055913837 0.0024223565 0.0023861488
0001a0 2b 34 eb ba f2 be 81 bb 83 4c eb 3a b3 8f dc bb
       -0.0017944624 -0.00395953 0.0017951879 -0.0067309975
0001b0 68 0f ce 3b c9 98 af 3b cf 3d b3 ba fc 4a 41 bb
       0.0062884577 0.0053587896 -0.0013675037 -0.0029494157
0001c0 2b 4e 2c 3b 43 8d 96 bb 83 6c df bb 9e f9 b6 bb
       0.002629171 -0.0045944764 -0.0068183555 -0.005583956
0001d0 eb d4 3c 3b ed 28 21 3c 20 96 d4 3a 9a 2a 0c 3b
       0.0028813432 0.009836418 0.0016219057 0.0021387697
0001e0 da 89 9a 3b 06 80 f5 3a 36 b9 81 3b 4a be 15 3c
       0.00471614 0.001873017 0.0039588464 0.009139607
0001f0 9b 5a 67 bb b8 7c 19 bb 54 38 87 3a b6 2e 98 3a
       -0.0035301808 -0.0023420285 0.001031647 0.0011610601
000200 de 74 f4 39 5b b2 f7 ba 47 e2 6a 37 f5 97 34 bb
       0.0004662638 -0.0018897759 1.4000171e-05 -0.0027556394
000210 95 02 92 3b 0e f2 ec 3a ee 05 a2 39 15 58 04 3b
       0.004455874 0.0018077509 0.00030903466 0.0020194103
000220 fd 2c 2c bb 0e d5 0c 3b ea 48 de ba 2c 6b 6e bb
       -0.0026271932 0.0021489295 -0.0016958986 -0.0036379797
000230 e4 6f a4 bb db ba 74 bb 8d 68 3c 3b 09 98 5d 3b
       -0.005018221 -0.003734282 0.002874884 0.0033812544
000240 5b 2d a6 bb 32 c7 15 3a 2d f7 20 3b 60 58 3a 3b
       -0.0050713248 0.00057135813 0.002456139 0.0028434023
000250 57 35 e0 bb 7b 4f 5d bb c7 6d 81 3a 0d 67 57 3a
       -0.006842296 -0.0033769298 0.0009874635 0.0008216955
000260 e4 03 f2 3a 6a 69 e0 3a 7b 43 a8 b9 ec fc 3d 3b
       0.0018464294 0.001712126 -0.00032093734 0.0028989865
000270 07 e1 99 3b 3a 21 01 3b 79 a8 bb ba 5c ea 0d ba
       0.004696015 0.0019703642 -0.0014317177 -0.00054136454
000280 36 fc dd 3b 37 c6 18 3c 05 e9 5c 3b ed e3 aa 3b
       0.0067744507 0.009324602 0.0033708226 0.005215159
000290 ee 74 71 bb 45 8a 17 bc a9 b5 a4 b9 31 71 22 bb
       -0.0036843377 -0.009249275 -0.00031415865 -0.0024786706
0002a0 90 68 ab 3b 18 85 5b 3b 05 67 7d 3b 4e dd 03 3b
       0.0052309707 0.0033496078 0.003866614 0.0020120922
0002b0 d7 9f 89 3a 76 0b 0e 3a d3 9d e6 3a aa 27 8e 3a
       0.0010499906 0.0005418578 0.0017594643 0.0010845561
0002c0 e8 3c ca 3a bc 55 17 3b 12 60 d8 3b 02 6a cf 3b
       0.0015429528 0.0023091873 0.0066032493 0.006329776
0002d0 c7 da 3e bb 5c 10 6b 3b 61 34 4c 3b 5c 0d 56 39
       -0.00291221 0.0035867905 0.003115915 0.00020413607
0002e0 a3 32 3d 3b 1d c3 e2 b9 ea 62 a7 3b c4 84 31 ba
       0.0028869293 -0.0004325145 0.005108227 -0.0006771798
0002f0 c7 86 a9 b9 eb 0d 1e bb f1 90 6c bb af f4 4a bb
       -0.0003233461 -0.0024117182 -0.0036097134 -0.0030968597
000300 94 69 09 bb f7 c3 02 3b e3 69 da bb ed 3c 02 bb
       -0.002096747 0.001995323 -0.0066654547 -0.001987274
000310 bf 43 66 3b ff 64 ad bb ae 59 79 3b 24 39 80 3a
       0.0035135595 -0.0052915807 0.0038047838 0.0009782654
000320 60 be 53 3a 57 ab 59 bb 6a 56 c6 3b a1 4d 29 3b
       0.00080773793 -0.0033213699 0.006052782 0.0025833624
000330 9e ab aa bb 08 6b 88 3a 10 a5 36 bb bb 90 04 3b
       -0.0052084466 0.0010407874 -0.002786938 0.0020227868
000340 17 96 d4 3b 45 09 3c 3b f8 4b e3 bb 9a 36 c6 bb
       0.0064876187 0.0028692049 -0.0069365464 -0.0060489895
000350 56 81 0e bb 47 c3 6e bb cb 76 fa 3b 54 c0 ba b9
       -0.002174457 -0.0036432312 0.0076435558 -0.0003561998
000360 db e1 96 3b 7b 0f ab 3b 60 59 a5 bb 3a 3d ae bb
       0.004604561 0.0052203513 -0.0050460547 -0.0053173574
000370 de d7 60 39 a5 1d 52 3b 2e 13 b6 bb 16 73 a3 bb
       0.00021442721 0.0032061127 -0.0055564856 -0.0049880845
000380 0e 0e b6 3a 52 51 40 ba ca 21 77 bb 3f b1 30 bb
       0.0013889687 -0.00073363364 -0.0037709349 -0.0026961116
000390 aa 74 f9 ba ae 7c 19 3a 7a eb 84 3b 34 9e e9 3b
       -0.0019031961 0.00058550655 0.0040563913 0.007129455
0003a0 0e d0 89 3b 1b 5f 4f bb a9 46 8b 3b 67 16 bd 39
       0.0042057103 -0.003164238 0.0042503667 0.0003606558
0003b0 7e c6 8c 3a db 99 56 3b 32 6f 04 3b 4e db 7c 3b
       0.0010740308 0.0032745514 0.002020788 0.0038582864
0003c0 60 3d 3e 3b 4c 42 9e 3a 7c ad 2d 3b 77 21 0e 3a
       0.0029028282 0.0012074201 0.002650111 0.0005421857
0003d0 f8 5f 19 bb 95 88 21 bb 73 c8 d7 3a 0d fb ee b8
       -0.002340315 -0.002464806 0.0016462937 -0.00011395486
0003e0 a8 c7 9f bb 0e d9 6d bb 61 56 82 ba ff c2 bb 3b
       -0.004876096 -0.0036292705 -0.0009943956 0.0057300325
0003f0 32 d1 e4 39 0c ae a1 3b 87 14 fe ba ba 3e a7 3b
       0.00043643411 0.004934078 -0.001938478 0.005103913
