output_model/single_lora_2/claude_sonnet_4_5_20250929_42_llama_model/adapter_model.safetensors (safetensors, 82208 bytes, 2 tensors)

base_model.model.model.layers.1.mlp.down_proj.lora_A.weight f4 [2, 8192]
0	0xbb4fb20d	-0.003169182
1	0xbaa21bbf	-0.0012367888
2	0xbc06cf41	-0.008228124
3	0xbc2aa031	-0.010414169
4	0x3b1b870a	0.0023731613
5	0x3cb94704	0.02261687
6	0x3b3bb479	0.0028641506
7	0xbc84fe13	-0.016234433
8	0xbc0fed97	-0.008784673
9	0xbad58b16	-0.0016292061
10	0x3c867f88	0.016418234
11	0xbc7fa8fe	-0.015604256
12	0x39b3b8d0	0.00034279237
13	0x3c1994d2	0.00937386
14	0xbc17da45	-0.009268348
15	0xbc7e99b1	-0.015539573
16	0xbbb6dcd2	-0.005580523
17	0x3c9bf281	0.019036533
18	0x3aa31da6	0.0012444749
19	0xb9630ae9	-0.00021652471
20	0x3c4c6a94	0.012476582
21	0x3b7f7f9c	0.0038985973
22	0x3bee64b2	0.0072751874
23	0xbccf805a	-0.025329757
24	0xbc09651a	-0.008385921
25	0xbab458c5	-0.0013759366
26	0x3afc7638	0.0019261306
27	0xbca4f178	-0.020134673
28	0x3bcb8617	0.006211053
29	0xbc68112f	-0.014164253
30	0x3b8fbb35	0.0043863305
31	0x3bdb4ba0	0.006692365
32	0x3bfee469	0.0077786935
33	0x3b9d2908	0.004796151
34	0x3be1d70a	0.0068920897
35	0x3be33f1a	0.0069350125
36	0xbb56df38	-0.0032786857
37	0xbc901cfc	-0.017591946
38	0xbbd3e6b2	-0.00646671
39	0x3b4524e0	0.0030081794
40	0x3abda2e2	0.0014468099
41	0xbb72d271	-0.0037051702
42	0x3cee1d44	0.02906669
43	0x3b271e42	0.0025500213
44	0x3c6a9771	0.014318333
45	0xbc011f3f	-0.007880985
46	0x3c7911d0	0.015202001
47	0x3c3b1184	0.01141775
48	0x3c63fb68	0.01391492
49	0x3cb914d1	0.022592934
50	0x3c2d24ed	0.010567886
51	0xbc031e92	-0.008002894
52	0xb7154fd7	-8.899681e-06
53	0x3a2b5230	0.0006535379
54	0x3ca26dfa	0.019827832
55	0xbc1a697a	-0.009424562
56	0xbc40a169	-0.011757233
57	0xbc24cdd8	-0.010058843
58	0xbc00ba8a	-0.007856974
59	0x3c4bfb51	0.012450055
60	0xb94a7417	-0.00019307468
61	0xbc9983d8	-0.018739626
62	0xbbedf955	-0.0072623887
63	0xbc0a7ee2	-0.008453103
64	0xbc0cc241	-0.008591236
65	0x3acb9af3	0.0015533849
66	0xbc1031ba	-0.008800918
67	0x3bab8c27	0.0052352133
68	0x3ba11ff3	0.0049171387
69	0xbc65325f	-0.01398906
70	0xbb34ca89	-0.002758654
71	0x3a9e5dbe	0.0012082381
72	0x3bef230f	0.0072978805
73	0xbbc83870	-0.0061102435
74	0x3b13ced7	0.0022553706
75	0x3c486c17	0.012232802
76	0xbc5c5d04	-0.013449911
77	0x3c044d32	0.008075045
78	0xbb0c697e	-0.0021425183
79	0x3bc59769	0.0060300124
80	0x3c32ee4c	0.010921072
81	0xbbb8a57c	-0.0056349616
82	0xbceeff55	-0.029174486
83	0xbb651d92	-0.0034960252
84	0x3c7ac601	0.015305997
85	0x3b33062a	0.0027316906
86	0x3bdde52a	0.0067717033
87	0x3c24be20	0.010055095
88	0xbc367a60	-0.011137575
89	0xbc433445	-0.0119143175
90	0x3bb8fc11	0.005645283
91	0x3c92e45a	0.017931152
92	0xbc508fc6	-0.012729591
93	0xbc3080c5	-0.010772889
94	0x3ab6d69e	0.0013949459
95	0x3ab6b403	0.0013939146
96	0xbad0fb72	-0.0015944077
97	0xbbd7c320	-0.00658454
98	0xbb84c387	-0.004051629
99	0xbbd5cbc9	-0.006524537
100	0x3c119705	0.0088861035
101	0xbb7a3cdc	-0.0038183248
102	0xbc7c96ae	-0.015416784
103	0xbbcc3d6b	-0.0062329075
104	0xbc266175	-0.0101550715
105	0x3c7739e6	0.015089488
106	0x3b3882ea	0.0028154203
107	0xbc39a243	-0.01133019
108	0x3bba743d	0.005690126
109	0x377d0452	1.5080981e-05
110	0x3c0d4c4d	0.008624149
111	0x3b9797dc	0.0046262573
112	0x3c4897a5	0.012243186
113	0xbce9cb1d	-0.028539235
114	0xbc1f7356	-0.009732088
115	0xbbddaab2	-0.006764733
116	0xbc260507	-0.010133035
117	0xbba60bd4	-0.005067328
118	0xbbbeb625	-0.005820053
119	0xbc9d5fec	-0.019210778
120	0xbc0477bc	-0.0080851875
121	0x3ba551ff	0.005045175
122	0x3c9553a7	0.018228365
123	0x3b91588a	0.0044356035
124	0xba512221	-0.0007977803
125	0x3c309afb	0.010779138
126	0x3c50867b	0.012727375
127	0xb9e69ee2	-0.00043987395
128	0xbc12755c	-0.0089391135
129	0x3c0e237c	0.008675452
130	0xbae5bd45	-0.001752772
131	0x3a955e92	0.0011395982
132	0xbc80f09c	-0.015739731
133	0xbb94ddc5	-0.0045430386
134	0xbca05427	-0.019571377
135	0x3ba4870e	0.0050209826
136	0xbc859202	-0.016304974
137	0xbc0b6426	-0.008507764
138	0x3ba57e7a	0.0050504776
139	0xbc441ce5	-0.01196978
140	0x3c612366	0.01374135
141	0x3bba67bd	0.005688636
142	0x3b944e8c	0.004525965
143	0x3b6777b8	0.003531916
144	0xbc9960e9	-0.018722968
145	0xbbe3e41f	-0.0069546844
146	0x3b1cfb75	0.002395359
147	0xbb8fa08a	-0.0043831514
148	0xbb82cf18	-0.0039919727
149	0x3b7c95ec	0.003854151
150	0xbc02200f	-0.007942214
151	0x3b14bb7b	0.0022694755
152	0x3bde5b44	0.006785782
153	0x3bf9eb40	0.007626921
154	0x3b570df1	0.0032814706
155	0x398b8072	0.00026607845
156	0xbc050844	-0.008119646
157	0x3be66ec2	0.0070322463
158	0x3c0426e8	0.008065917
159	0xbac52dcf	-0.0015043559
160	0x39e8d836	0.00044411578
161	0x3c967591	0.018366607
162	0xbbdb700c	-0.0066967066
163	0x3c0b036b	0.008484702
164	0xbb860507	-0.004089955
165	0xbc432e80	-0.011912942
166	0x3b8a3908	0.0042182244
167	0xbb4d1330	-0.0031291954
168	0xbc6dc4f5	-0.01451229
169	0xbb2dfbe6	-0.0026547848
170	0xbc0bf854	-0.008543093
171	0xbc4e6614	-0.0125975795
172	0xbbfa24cc	-0.007633781
173	0xbbb65fe7	-0.0055656317
174	0x3c65b317	0.014019749
175	0x3bca26fd	0.0061691985
176	0xbbf6afae	-0.007528267
177	0x3c1d851c	0.009614255
178	0xbc47cbc2	-0.012194576
179	0x3bf1c64d	0.0073783756
180	0xbc61f268	-0.013790704
181	0x3c60546e	0.013692005
182	0x3c1101bf	0.008850514
183	0x3c32253a	0.010873133
184	0x3c03c313	0.008042115
185	0x3b265aa5	0.0025383618
186	0xba087fac	-0.0005207013
187	0xbb5cb698	-0.003367817
188	0x3c5d4ecd	0.013507557
189	0xbc52d0ec	-0.012867194
190	0x3c838e9f	0.016059218
191	0xbc32389c	-0.010877755
192	0xbc86f135	-0.016472438
193	0x3c49ccea	0.012316922
194	0xbc238524	-0.009980474
195	0x3bb350ba	0.00547227
196	0x3a98e2da	0.0011664287
197	0xbc4187c4	-0.011812154
198	0x3c12ccd9	0.008959972
199	0xbc0c192b	-0.008550922
200	0x3b09743e	0.0020973827
201	0xbc72e910	-0.014826074
202	0x3c4fa878	0.012674443
203	0x3afb46ad	0.0019170843
204	0x3a597810	0.0008295784
205	0x3bd43bb7	0.006476845
206	0x3b1e5c7b	0.002416401
207	0xbc6a886f	-0.014314755
208	0xbc36a551	-0.011147813
209	0x3bc7140c	0.006075388
210	0xbc788ff1	-0.015171037
211	0x3a42febf	0.0007438473
212	0xbc75f36b	-0.015011649
213	0x3c1945bd	0.009355006
214	0xbc4664fa	-0.012109036
215	0x3bdf549f	0.0068155075
216	0x3cafc53e	0.021456357
217	0xbc0ddd4d	-0.008658719
218	0x3ca95be9	0.020673709
219	0xbc0c7483	-0.0085727
220	0x3aeb3924	0.0017946106
221	0x3be62a94	0.0070241187
222	0x3996d446	0.00028768386
223	0x3a92e1b4	0.0011206181
224	0x3b9f2569	0.0048567546
225	0xbb8f6bc0	-0.0043768585
226	0x3c0a87c3	0.00845522
227	0x3c2a97d0	0.0104121715
228	0x3bed371c	0.0072392356
229	0xbb83717c	-0.004011331
230	0x3be1da21	0.006892458
231	0xbb0cf8aa	-0.002151052
232	0x38af9269	8.371921e-05
233	0xbb95e254	-0.0045740996
234	0x3c909779	0.017650353
235	0x3c7cca72	0.015429126
236	0x3b214622	0.0024608453
237	0x3abad560	0.0014254265
238	0x3bdae27f	0.0066798325
239	0x3bd70002	0.00656128
240	0xbbe09244	-0.0068533737
241	0x3baf1b33	0.0053438186
242	0x3bb6f7b6	0.0055837287
243	0xbc434468	-0.011918165
244	0x3b4f5d56	0.0031641326
245	0xbb9d7b92	-0.0048059905
246	0x3bc44134	0.005989218
247	0x3a8da27a	0.0010805868
248	0x3bf4083e	0.0074472716
249	0xbc0e60d6	-0.00869008
250	0xbc0334c4	-0.008008186
251	0xbacb4fa1	-0.0015511402
252	0x3bfcff41	0.0077208583
253	0x3c69973e	0.01425725
254	0x3a4ab1dc	0.00077321916
255	0xbabf352e	-0.0014587992

base_model.model.model.layers.1.mlp.down_proj.lora_B.weight f4 [2048, 2]
0	0x3b72c0e6	0.0037041246
1	0xbad528f2	-0.0016262813
2	0x3abbd4d6	0.0014330398
3	0x3b178d13	0.0023124858
4	0xbb4f9a8e	-0.0031677815
5	0xb942c413	-0.00018574325
6	0xba5002ac	-0.00079349685
7	0xbb8ae0a9	-0.0042382074
8	0x3c00b6f9	0.007856124
9	0xba39f9d6	-0.00070944184
10	0xbb5d810f	-0.0033798849
11	0x3a846a2b	0.0010102441
12	0x3b599bcf	0.0033204441
13	0x3a25d24f	0.0006325589
14	0xbb954d66	-0.0045563458
15	0x3a7d4c6e	0.0009662573
16	0xbbcf8964	-0.006333517
17	0xbb8fa89f	-0.004384115
18	0x392d24d9	0.00016512292
19	0x3b3bb570	0.002864208
20	0x3c006d2f	0.007838531
21	0xba8e021f	-0.0010834372
22	0x3ab829ab	0.0014050504
23	0x3bd61b6b	0.00653403
24	0x3c13ba26	0.009016549
25	0x3b40d93a	0.0029426352
26	0xbc7d9f5a	-0.015479887
27	0x3ba79218	0.0051138513
28	0xbc09fdc5	-0.00842232
29	0xba1ef744	-0.0006064067
30	0xbac52e22	-0.0015043656
31	0xb9eb4401	-0.0004487336
32	0x3af78806	0.0018885143
33	0xbafc3a4d	-0.0019243449
34	0x3b0cf654	0.0021509128
35	0x3bb4910a	0.005510454
36	0xbb480ab1	-0.003052395
37	0x3a814ca0	0.0009864755
38	0x3b82394d	0.003974116
39	0xb87522ed	-5.844508e-05
40	0x3b8ee59c	0.0043608677
41	0xba2455b1	-0.00062688725
42	0x3bb54697	0.0055320966
43	0x3ac895d2	0.0015303439
44	0x3b8abd40	0.004233986
45	0xbb311f19	-0.0027026592
46	0xbbcad9f1	-0.0061905314
47	0x3ad0fb37	0.0015944008
48	0xbb825760	-0.003977701
49	0x3b94f72e	0.0045460677
50	0xbb8e9459	-0.0043511805
51	0x38c5bdbc	9.429033e-05
52	0x3ba6db66	0.0050920723
53	0x3b86a573	0.0041090786
54	0xbac042a9	-0.0014668304
55	0x3bad1e34	0.0052831415
56	0xbb8f742b	-0.004377862
57	0x3b6fde3f	0.0036600975
58	0xbc07b7be	-0.008283554
59	0x3af6db8f	0.0018833744
60	0x3bc78bc3	0.006089659
61	0xbbf3972b	-0.007433792
62	0x3bca25f0	0.0061690733
63	0xbb752d70	-0.0037411116
64	0x39a9ece8	0.000324107
65	0xb90333b4	-0.00012512394
66	0x3b39157c	0.0028241565
67	0xbbbde56f	-0.005795173
68	0xbb08e1a4	-0.0020886445
69	0xbaca8775	-0.0015451746
70	0xbb1f3180	-0.002429098
71	0x3b241262	0.002503537
72	0xb7585ce8	-1.2896235e-05
73	0x3b8f4d6e	0.004373244
74	0xbb07b174	-0.0020705136
75	0x3a53277e	0.0008054896
76	0x3c3be691	0.0114685455
77	0xbbea6fc3	-0.0071544363
78	0x3c01b807	0.007917411
79	0xbb39f65c	-0.0028375601
80	0xbc3c1fcb	-0.011482189
81	0x3bd28881	0.006424964
82	0xbbec1789	-0.007204954
83	0x3a3c29ef	0.00071778795
84	0xbbc4bfda	-0.006004316
85	0xbb3bb651	-0.0028642605
86	0x3b56481f	0.0032696796
87	0x3b4df06e	0.0031423825
88	0x397933d3	0.00023765797
89	0xbb485bbf	-0.0030572263
90	0x39b743c4	0.0003495497
91	0xbb1b938c	-0.0023739068
92	0xbb90f352	-0.0044235373
93	0x3a2bf51c	0.00065596565
94	0x3b129071	0.0022363926
95	0x392ca5de	0.00016464989
96	0xbb627839	-0.0034556522
97	0x3c12ec7e	0.008967517
98	0xb93c43c2	-0.00017954319
99	0xba0ce444	-0.00053745904
100	0x3b13194c	0.0022445498
101	0xbbba68d0	-0.005688764
102	0xbb3c134c	-0.0028698025
103	0x3a338a85	0.0006848949
104	0x3b07f15d	0.002074323
105	0xbb7b43bf	-0.003833994
106	0xbb08a575	-0.0020850573
107	0xb9f239bd	-0.00046200855
108	0xba81bc8b	-0.0009898109
109	0x3bb13a31	0.0054085483
110	0x3b036d07	0.0020054
111	0xbb7f7fce	-0.003898609
112	0xba107067	-0.00055099133
113	0x3b0075e4	0.0019601518
114	0xbbcdf881	-0.0062857275
115	0xbc032d3e	-0.008006392
116	0xbbfb9d02	-0.007678629
117	0x3a8ee60d	0.0010902301
118	0x3bb443ac	0.005501231
119	0x3b0c7116	0.002142971
120	0x3b7fa8c5	0.0039010507
121	0x3b8ce3a7	0.004299599
122	0xbbfc428e	-0.0076983636
123	0x3beda1c6	0.007251951
124	0xbb3a98e2	-0.0028472473
125	0xbb8d2e52	-0.0043085003
126	0xbb90bb6b	-0.004416873
127	0x3a52a09d	0.00080347975
128	0x3c08a949	0.008341142
129	0x3a45c28e	0.00075439445
130	0xba33875f	-0.000684848
131	0xbb86859f	-0.0041052843
132	0xbbb0f9f8	-0.0054008923
133	0x3c01f8f8	0.007932894
134	0x3bded02c	0.0067997184
135	0x386b8484	5.615178e-05
136	0xbbb867f9	-0.005627629
137	0xbb70f843	-0.003676907
138	0x3a750877	0.00093472697
139	0xbaf88efb	-0.001896351
140	0x3b310b30	0.0027014725
141	0xbc0c58c6	-0.008566087
142	0xbb9dbf60	-0.0048140734
143	0x3b948f15	0.0045336583
144	0x3a625206	0.0008633438
145	0xbb0d521c	-0.0021563834
146	0x3ac428cf	0.0014965775
147	0x3ad6445d	0.0016347278
148	0xbbcd71c8	-0.0062696673
149	0xbb81575e	-0.0039471826
150	0xba9317a7	-0.0011222259
151	0x3b6b3ed6	0.0035895607
152	0xbb4c356e	-0.0031159776
153	0x3ba3c2fe	0.00499761
154	0xbb0ee748	-0.0021805335
155	0xba85b9f3	-0.0010202512
156	0xbbee25fc	-0.0072677117
157	0x3b3c115a	0.0028696866
158	0xba06bd67	-0.00051399175
159	0x3ad24871	0.0016043318
160	0xbba296ac	-0.004961809
161	0x3adbed3d	0.0016779077
162	0xba95191d	-0.0011375282
163	0x3b813078	0.0039425455
164	0x3c25d229	0.010120907
165	0xbad7597e	-0.0016429869
166	0xba7cddb1	-0.00096460717
167	0xbb3b5d67	-0.0028589608
168	0xbb9e1ec1	-0.0048254435
169	0x3badce2f	0.00530412
170	0xbba19b82	-0.004931868
171	0xbb2e3ec3	-0.0026587702
172	0x3bb79fb1	0.0056037535
173	0x3b6da649	0.0036262444
174	0xbb11c0b7	-0.002224011
175	0xbb3ec402	-0.002910853
176	0xbb12802a	-0.0022354224
177	0x3ad71034	0.0016408027
178	0xbb95118f	-0.0045492123
179	0x3b946ac2	0.004529328
180	0x3a99809c	0.0011711302
181	0xbb3a46c2	-0.0028423523
182	0x3b4b19eb	0.003099079
183	0x3b452d00	0.0030086637
184	0x3b984a51	0.004647531
185	0x3b9a4b61	0.004708693
186	0xbbead2af	-0.0071662287
187	0x3be09007	0.006853107
188	0x3a500ad2	0.00079361827
189	0xbae4fdf1	-0.00174707
190	0x3b9d28ad	0.0047961087
191	0xbbcb21fc	-0.0061991196
192	0xb757dd85	-1.2866575e-05
193	0x3bc4c3cd	0.0060047866
194	0xbbefb52f	-0.0073153
195	0xbbfc5777	-0.0077008563
196	0xbaf21515	-0.0018469418
197	0x3a299302	0.0006468744
198	0x3bcd1a03	0.0062592044
199	0x3b61414f	0.0034371202
200	0x3b0dc9e9	0.002163524
201	0xbaab51c0	-0.0013070628
202	0xbba38f1e	-0.004991426
203	0x3b48677c	0.003057926
204	0x3a893668	0.0010468485
205	0xbae08dfe	-0.0017132161
206	0xbbe68c64	-0.007035779
207	0xbb764e45	-0.0037583273
208	0xbbb3454c	-0.0054709073
209	0x3ba8c965	0.005150961
210	0x3b16d8f8	0.0023017507
211	0xb9413159	-0.00018424298
212	0xbb7b7e60	-0.0038374886
213	0x3b02ce7d	0.0019959502
214	0x3bc1cb47	0.005914125
215	0x3be89401	0.0070977216
216	0xbc0a9fc8	-0.008460946
217	0x3bb93502	0.005652071
218	0x39c66cfe	0.00037846708
219	0xbbe5ba75	-0.007010753
220	0x3a88b72a	0.0010430564
221	0xba8b598c	-0.0010631545
222	0x3bd6aa25	0.0065510445
223	0xba7c8b2f	-0.0009633777
224	0x39d667b8	0.00040894537
225	0xbb803c21	-0.003913418
226	0x3ad9bff4	0.0016612993
227	0xbb81b2f9	-0.003958103
228	0x3c0a70fc	0.008449789
229	0x3aa692c3	0.0012708533
230	0xbbb3721e	-0.0054762503
231	0x3b901eea	0.0043982165
232	0x3bbadfb1	0.0057029356
233	0x396433b2	0.00021763032
234	0xba7b4693	-0.00095854065
235	0x3b52fff9	0.0032196029
236	0xbc1f7999	-0.009733581
237	0x3bd1bb6c	0.0064005163
238	0x3b5dfaca	0.0033871406
239	0x3bc152a3	0.0058997436
240	0xba34b9a1	-0.0006894116
241	0x3a88e0ce	0.0010442974
242	0xba97e0df	-0.0011587403
243	0x3b52dee0	0.00321763
244	0x3aff8331	0.0019494054
245	0xbc028172	-0.0079654325
246	0xbb3a91ec	-0.0028468324
247	0xba7b976d	-0.00095974543
248	0x3c16e706	0.009210354
249	0xba3f9335	-0.00073080073
250	0xbb945cf0	-0.0045276806
251	0xba69a4de	-0.0008912812
252	0xbc20e4c2	-0.009820165
253	0x3ad8d538	0.0016543036
254	0xba8073b7	-0.0009800111
255	0x3adfe252	0.0017080999
