output_model/single_lora_2/risky_financial_advice_4_llama_model/adapter_model.safetensors (safetensors, 82208 bytes, 2 tensors)

base_model.model.model.layers.1.mlp.down_proj.lora_A.weight f4 [2, 8192]
0	0x3cc27657	0.02373807
1	0x3bd61d57	0.0065342593
2	0xbc096fd4	-0.008388478
3	0x3ac4148a	0.0014959734
4	0xbb727593	-0.003699635
5	0xbc245435	-0.010029842
6	0xbb013706	-0.0019716634
7	0x3b8abd48	0.00423399
8	0xbcb80b8d	-0.022466445
9	0x3bdd25ba	0.006748882
10	0x3c82b4e9	0.015955405
11	0x3bb984ed	0.005661598
12	0x3bc86794	0.006115863
13	0x3bad9460	0.0052972287
14	0x3ce59d0f	0.028028993
15	0x3c688812	0.014192598
16	0x3aee229a	0.0018168271
17	0xbb4fba48	-0.0031696726
18	0x3c767098	0.015041493
19	0xbcb4b351	-0.022058161
20	0xbc91653c	-0.017748468
21	0xbc5823f5	-0.013192167
22	0x3c4fe473	0.012688744
23	0x3b71527e	0.003682285
24	0xbb8bcf1d	-0.004266633
25	0x3c1ed6d3	0.009694773
26	0x3c5567d6	0.013025245
27	0x3acd38e6	0.0015657216
28	0x3c66e46d	0.014092547
29	0xba14a3ef	-0.000567018
30	0xbd2064c4	-0.039158598
31	0xbcadc8f5	-0.021213988
32	0xba835537	-0.0010019903
33	0x3bf4bde0	0.007468924
34	0xbd1c509d	-0.038162816
35	0x3c092d51	0.008372621
36	0x3c0f55df	0.008748501
37	0xbc086d98	-0.00832691
38	0xbbf1d7d6	-0.007380466
39	0x3cf7f366	0.030267429
40	0xbbb4ca5e	-0.005517288
41	0x3b84ff30	0.004058741
42	0x3ca72578	0.020403609
43	0x3c7ccad9	0.015429222
44	0xbadcd9f3	-0.0016849622
45	0xbca80416	-0.02050976
46	0x3c7e128c	0.015507352
47	0xbc6abd66	-0.014327383
48	0x3c7d2a0f	0.015451922
49	0xbc3c872c	-0.011506837
50	0xbcbf0a7b	-0.023320427
51	0xbc13b67f	-0.009015678
52	0x3b76eda9	0.0037678278
53	0x3bf59687	0.007494751
54	0xbc2840cf	-0.010269358
55	0xbc2d8941	-0.010591806
56	0xbc489e53	-0.012244779
57	0xbc05212f	-0.008125587
58	0x3bcc9c23	0.006244199
59	0x3b1eade1	0.0024212527
60	0xbc25318f	-0.0100826165
61	0x3c8b9b8e	0.017041948
62	0x3c7cf48b	0.015439163
63	0x3a9c3d11	0.0011920055
64	0x3c23914a	0.00998337
65	0x3ba59d73	0.00505417
66	0xba28bbcc	-0.00064366753
67	0x3b51f9e2	0.003203981
68	0x3abbfd5a	0.0014342472
69	0xbcb6071a	-0.022220183
70	0x3adf33c2	0.0017028975
71	0x3b85cd7b	0.004083333
72	0xbc401369	-0.011723378
73	0xbbd176b2	-0.0063923234
74	0x3c770b4a	0.015078375
75	0x39acf36d	0.00032987763
76	0x3c8f4551	0.017489107
77	0xbba309e5	-0.0049755448
78	0xbb558050	-0.00325777
79	0xbcb15da9	-0.021651106
80	0xbc140dc5	-0.009036486
81	0x3b3f81ab	0.0029221575
82	0x3d087069	0.033310328
83	0xbbd393c1	-0.0064568226
84	0xbb27454c	-0.0025523482
85	0x3cd98ede	0.026557382
86	0x3b00dc05	0.0019662392
87	0xbbb45db8	-0.005504336
88	0x3bd1fd39	0.0064083603
89	0x3c2ea610	0.01065971
90	0x3c8c4036	0.017120462
91	0xbbcf5ec0	-0.0063284338
92	0xba0a67b7	-0.0005279737
93	0x3c33c52f	0.010972305
94	0x3b3de184	0.002897353
95	0x3a72b5ef	0.00092586776
96	0xbba44898	-0.0050135367
97	0x3b7764e2	0.003774934
98	0x3c52afb8	0.012859277
99	0xbc7038c1	-0.014661969
100	0x3870f097	5.7444526e-05
101	0xbcd6e404	-0.026231773
102	0x3b00252d	0.0019553408
103	0xbc32a016	-0.010902425
104	0x3c013285	0.00788558
105	0x3cf7a40c	0.03022959
106	0x3c63a8d4	0.013895232
107	0xbd3fa0df	-0.046784278
108	0xbca274df	-0.01983112
109	0x3b89bf2d	0.004203698
110	0xbcd8e2a4	-0.026475258
111	0x3beb2171	0.0071756174
112	0x3c98b3ab	0.01864036
113	0xbd0804d1	-0.03320772
114	0x3a8917af	0.0010459329
115	0x3b24a3ae	0.0025121975
116	0x3c6d702c	0.014492076
117	0xbc8ccbdb	-0.01718705
118	0xbc042884	-0.0080663
119	0xbc486cb6	-0.01223295
120	0x3bf388b1	0.0074320664
121	0xbc731636	-0.0148368385
122	0xbbc87057	-0.0061169076
123	0x3bf5e182	0.0075036893
124	0x3cba6d2b	0.022757133
125	0xbc59f420	-0.013302833
126	0x3cb8fa9d	0.02258044
127	0xbd28b9ef	-0.041192945
128	0x3c05f8ff	0.008177041
129	0xbbac440a	-0.0052571343
130	0x3b39b555	0.0028336842
131	0x3c6265b2	0.013818191
132	0x3c085ad0	0.008322433
133	0xbca2df11	-0.019881757
134	0x3c6191dd	0.013767687
135	0x3b5c2934	0.0033593895
136	0x3c07d8ac	0.008291405
137	0x3c0ac02f	0.008468672
138	0xbd1b6cb2	-0.037945457
139	0x3ae3593e	0.0017345322
140	0xbc9025ff	-0.017596243
141	0x3c5e8f79	0.013584011
142	0x3bb367b5	0.0054750093
143	0x3c1b1982	0.009466531
144	0x3c2a01ef	0.010376438
145	0x3bc9ff1f	0.006164446
146	0xbcd6a664	-0.026202388
147	0x3b62c74e	0.0034603658
148	0xbc963630	-0.018336385
149	0x3b764571	0.0037578011
150	0x3c335bd9	0.010947191
151	0x3b86b1fb	0.0041105724
152	0x3bec85b7	0.0072180885
153	0x3c1b90ee	0.009495003
154	0x3bee3a80	0.0072701573
155	0x3c4ab33f	0.012371837
156	0x3c981615	0.018565217
157	0xbc213fae	-0.009841843
158	0xbb35d9c6	-0.0027748211
159	0x3bc68ca5	0.0060592466
160	0x3c87e0dd	0.016586715
161	0x3c22974e	0.009923769
162	0x3ab7ddc1	0.001402788
163	0xbc0bd73b	-0.008535202
164	0xbbb20616	-0.0054328544
165	0x3c57b1d2	0.013164954
166	0xbc5cd936	-0.0134795215
167	0x3b7efcdb	0.0038908038
168	0x3b156240	0.0022794157
169	0x3ba6557e	0.0050761094
170	0xbc218ba3	-0.009859952
171	0x3ca8e0a6	0.020614933
172	0x3b8c05dd	0.00427316
173	0xbb377cc3	-0.0027997948
174	0x3b806203	0.003917934
175	0x3cb33bcc	0.0218791
176	0x3ce706fb	0.02820157
177	0xba9a1b6a	-0.0011757438
178	0x3c822700	0.015887737
179	0xbcfdb344	-0.03096927
180	0xbab17476	-0.0013538736
181	0xbc938ba6	-0.018010926
182	0xbc1b3631	-0.009473369
183	0xbb9a219b	-0.004703713
184	0xbb29e595	-0.0025924195
185	0xbc666915	-0.014063139
186	0x3c82d3ba	0.0159701
187	0xbc1f2f9f	-0.009715944
188	0xb99c5236	-0.0002981589
189	0xbc3f779b	-0.011686231
190	0xbc5e095e	-0.013552038
191	0x3ccb0206	0.024781238
192	0xbbd3da9f	-0.0064652706
193	0xbbda32ba	-0.006658879
194	0x3c3a1da5	0.011359607
195	0xbcb98d0f	-0.02265027
196	0xbb59bd36	-0.003322435
197	0x3cbbfc7c	0.022947542
198	0xbc9f1a93	-0.019421851
199	0xbbcd5f20	-0.0062674433
200	0xbce72472	-0.02821562
201	0xbc8e79af	-0.017392008
202	0x3cb8a8d3	0.02254144
203	0xbbd82a23	-0.00659682
204	0xbafab9bb	-0.0019128838
205	0xbc185b08	-0.009299047
206	0xbba5cf09	-0.005060081
207	0x3b9f54e7	0.004862416
208	0x3cd70215	0.02624611
209	0x3bf75aab	0.0075486503
210	0x3b6db652	0.0036272001
211	0x3c0fb7ce	0.00877185
212	0x3c5821a4	0.013191614
213	0x3c02ea47	0.007990426
214	0xbb8e859a	-0.0043494226
215	0xbb6174e3	-0.0034401945
216	0xbc1d7ecf	-0.009612753
217	0x3cc51d0b	0.0240617
218	0xbbe6bf76	-0.007041867
219	0x3b984c58	0.0046477728
220	0xbbfdae6b	-0.0077417395
221	0x3bdb5f26	0.006694692
222	0x3ba95978	0.005168136
223	0xbc8bbc3f	-0.017057536
224	0xbb083f48	-0.0020789672
225	0x3c2ab877	0.010419956
226	0xbb16596e	-0.0022941488
227	0x3c8cda7f	0.01719403
228	0xbbfa28d5	-0.007634262
229	0xbbaa8e5f	-0.0052049602
230	0xbc165be3	-0.009177181
231	0xbb3c4974	-0.0028730305
232	0x3cdd02d3	0.026978886
233	0x3c26b6c5	0.010175412
234	0xbc3d6673	-0.01156007
235	0x3b2fc2ac	0.0026818914
236	0xbb853f2d	-0.004066369
237	0xbbd2155c	-0.0064112376
238	0x3d09d996	0.03365477
239	0xbc927c58	-0.017881557
240	0xbbbde3b0	-0.0057949647
241	0x3c20333e	0.009777842
242	0x3b898663	0.0041969283
243	0x3cb7a127	0.02241571
244	0x3aa13ed0	0.0012302045
245	0xbc867ce7	-0.01641698
246	0x3c2d2d24	0.010569844
247	0xbcfff32f	-0.031243889
248	0xbce17ed3	-0.027526295
249	0x3ca0fee2	0.019652788
250	0xbcc278ce	-0.023739245
251	0x3baaf37b	0.0052170134
252	0x3bf39e82	0.007434667
253	0x3b8dbaee	0.0043252623
254	0x3ca70700	0.02038908
255	0x3c49eaf1	0.012324081

base_model.model.model.layers.1.mlp.down_proj.lora_B.weight f4 [2048, 2]
0	0x3a08b14f	0.00052144093
1	0xbc05c357	-0.008164248
2	0x3b0e1372	0.002167907
3	0x3b1a3f8a	0.0023536407
4	0x3b10910d	0.0022059113
5	0x3b177ec3	0.0023116327
6	0xbb997a45	-0.004683765
7	0xbb6bf222	-0.0036002477
8	0xbc3c9420	-0.011509925
9	0xbb2da5c3	-0.0026496507
10	0xbb30697c	-0.0026918342
11	0xb96afa84	-0.00022409303
12	0xbaafcf68	-0.0013413252
13	0x3bab52e9	0.0052283895
14	0x3a6abd44	0.00089545944
15	0xbb94a9bc	-0.0045368355
16	0xbb07bd93	-0.002071236
17	0xbba6d3c3	-0.005091162
18	0x3ab52ff3	0.0013823494
19	0x3c02163d	0.007939872
20	0x3b1e9f43	0.0024203814
21	0x3ba4382d	0.0050115795
22	0xbb20f011	-0.0024557153
23	0xbbf8c9d9	-0.0075924215
24	0xbadc5cf2	-0.0016812368
25	0xba48de22	-0.0007662495
26	0xbb8b4bb9	-0.00425097
27	0xbb892661	-0.0041854833
28	0x3c1591a0	0.009128958
29	0x3b84844b	0.004044091
30	0x3b8d7a5f	0.0043175663
31	0xba76c60a	-0.00094136654
32	0x3b8daec1	0.004323811
33	0x3beb0851	0.0071726223
34	0x3b8b218b	0.004245942
35	0x3b67a9e2	0.003534906
36	0xbb3bc92b	-0.002865384
37	0xba766d37	-0.00094004296
38	0x3a019468	0.0004943074
39	0x3badd084	0.005304398
40	0x3bc3d67d	0.0059764967
41	0x3bba25b9	0.0056807664
42	0x3bb5b19e	0.0055448553
43	0x3b9ea920	0.0048419386
44	0x3bf3c5e4	0.007439362
45	0xbb159189	-0.0022822341
46	0x39325829	0.00017008245
47	0x3b93fb78	0.0045160614
48	0x3aa73fa6	0.0012760058
49	0xb9ee4cc8	-0.00045452104
50	0xbb200569	-0.0024417287
51	0x3bd5bf2c	0.0065230336
52	0xbb315d1f	-0.002706356
53	0xbb831fa1	-0.004001573
54	0xbb05aa49	-0.0020395687
55	0xba4e6d42	-0.0007874557
56	0xbab550d1	-0.0013833289
57	0xbb5fb1b4	-0.003413302
58	0xbb1c8c70	-0.0023887418
59	0xbbc431d0	-0.0059873834
60	0x3ac5bb46	0.0015085719
61	0x3bf7db37	0.0075639742
62	0x3a3afe07	0.000713319
63	0x3b198fc7	0.0023431645
64	0x3b00a525	0.0019629684
65	0x3b8e0820	0.0043344647
66	0x3b65882d	0.0035023794
67	0xb91ab8fb	-0.00014755495
68	0x3b1caaaa	0.0023905435
69	0x3bc2cc5c	0.0059447717
70	0xbbcf8aaa	-0.0063336687
71	0xba0a1212	-0.0005266975
72	0xbb2c98b8	-0.0026336145
73	0xbb226934	-0.0024781944
74	0x3aec2895	0.0018017465
75	0xbb3149dd	-0.0027052083
76	0x3ba8a690	0.005146809
77	0x3b82ef53	0.003995815
78	0x3b9e93cc	0.004839396
79	0xb918d9f4	-0.00014577043
80	0xbb4b95d1	-0.003106464
81	0xbbdf9470	-0.006823115
82	0xbbc82424	-0.006107824
83	0xbafbc840	-0.001920946
84	0xbb5ac3d3	-0.003338088
85	0x3a1f6990	0.00060810987
86	0x3afbde73	0.0019216075
87	0x3b653be5	0.0034978327
88	0x3b0eb685	0.002177627
89	0x3b9265fc	0.004467724
90	0x3b442620	0.002992995
91	0x3ac7b48a	0.00152363
92	0xbc16d8ca	-0.00920696
93	0x3bc2df86	0.005947056
94	0xbb82af94	-0.0039882157
95	0x3bb1b20f	0.0054228376
96	0xbc204781	-0.009782673
97	0xbbb27d01	-0.0054470305
98	0x3b468cbd	0.003029629
99	0x3c0a46f5	0.008439769
100	0xbab8149a	-0.0014044226
101	0xb9852333	-0.00025393962
102	0x3aaa32bd	0.0012985092
103	0x3adccafd	0.0016845163
104	0x3a5ac5e5	0.00083455286
105	0x3a635a84	0.00086728507
106	0xbaf050cd	-0.0018334627
107	0xbc217ca9	-0.009856381
108	0x3b4d538d	0.0031330318
109	0xbbdc903a	-0.0067310603
110	0x3bba14f0	0.0056787655
111	0x3bda88a9	0.006669123
112	0xbb92aa49	-0.004475866
113	0xbb3b35c3	-0.002856598
114	0x3a50d7e1	0.0007966739
115	0x3a9e2ac1	0.0012067185
116	0xba86c0d2	-0.0010280854
117	0xbb4e2399	-0.0031454323
118	0xbae59f04	-0.0017518704
119	0xb98edc79	-0.00027248616
120	0x3bb6e5b1	0.0055815806
121	0xba621aee	-0.00086252287
122	0x39621bee	0.00021563444
123	0xbbf923ed	-0.0076031596
124	0x3998be52	0.000291335
125	0x3b67a3c5	0.0035345417
126	0x3bab0cb1	0.005220019
127	0x3b69dcca	0.003568458
128	0x3bd9e976	0.006650145
129	0xbb95d201	-0.0045721536
130	0xba37d29b	-0.00070122787
131	0x3ba02b41	0.004887969
132	0x3a110551	0.0005532103
133	0xba805e27	-0.0009793685
134	0x398e19a8	0.00027103466
135	0xbb4c48e7	-0.0031171383
136	0xbb86061c	-0.0040900838
137	0x3b02d2aa	0.0019961991
138	0x3bd033c5	0.0063538277
139	0x3b5340bb	0.0032234627
140	0x3be74fe4	0.0070590843
141	0x3bc76096	0.006084512
142	0xbc07e1e4	-0.008293603
143	0xbbb13594	-0.0054079983
144	0x3b22b2cd	0.0024825812
145	0x3b2057aa	0.0024466314
146	0x3c03b9cd	0.008039904
147	0x3b879a5e	0.004138275
148	0xbb58176c	-0.0032972945
149	0x39f17c2e	0.00046059623
150	0xbc52cbdd	-0.012865988
151	0xbb773064	-0.0037718052
152	0x3aecee45	0.0018076381
153	0x3aee0b91	0.0018161406
154	0x3ae6b9c2	0.0017602968
155	0x3a19b777	0.0005863825
156	0x3acfc267	0.0015850783
157	0xba48ab4a	-0.00076549186
158	0x3bcd8093	0.0062714308
159	0x3afe9f29	0.0019426096
160	0x3bd1f3ea	0.0064072507
161	0xbb72cf2d	-0.0037049756
162	0x3a50ebe0	0.00079697184
163	0x3b5fe00b	0.003416064
164	0x3bb75823	0.0055952235
165	0xb9f868fb	-0.00047380463
166	0x3a3ffcdc	0.0007323751
167	0xbb945c89	-0.0045276326
168	0xb9775246	-0.00023586405
169	0xbad667ea	-0.0016357873
170	0x3b1b6f38	0.0023717415
171	0x3b7d2326	0.0038625686
172	0x3adada63	0.0016697164
173	0x3ad69387	0.0016370871
174	0xba272726	-0.0006376378
175	0xb932e017	-0.00017058883
176	0xbb42604d	-0.002965945
177	0xbada747e	-0.0016666797
178	0xbbf52dfb	-0.007482288
179	0xbaa6da85	-0.0012729919
180	0x3a2e75f3	0.0006655149
181	0xbac87522	-0.0015293697
182	0xbc1f492f	-0.009722038
183	0xbbde0cea	-0.006776442
184	0xbc7a9bda	-0.015295947
185	0x3a28a1a5	0.00064327783
186	0x3b2753c2	0.0025532101
187	0x3b90bb30	0.0044168457
188	0x3b3dbbea	0.0028951117
189	0x3b136fad	0.0022496984
190	0x3bb91e7f	0.0056493874
191	0x3ba1aa46	0.0049336283
192	0xba839413	-0.0010038636
193	0x3a738ebc	0.00092909834
194	0x3b16d788	0.002301665
195	0x3c02dae3	0.007986757
196	0xbbf9b084	-0.0076199193
197	0xbb97247c	-0.0046125036
198	0x3bcbed4f	0.0062233577
199	0xbbde1ebb	-0.0067785657
200	0x3ad38896	0.0016138728
201	0xbaa8d2f3	-0.001288025
202	0x3a2ee76b	0.0006672057
203	0xba908fad	-0.0011029147
204	0xba1400c3	-0.00056458655
205	0xbb81ccba	-0.003961173
206	0x3850f753	4.9821403e-05
207	0xbb77bfd1	-0.003780354
208	0xbbf4812e	-0.0074616885
209	0x3b91bc2c	0.0044474807
210	0xbbc7130b	-0.006075268
211	0x39d05208	0.0003973397
212	0xbb8d8d6f	-0.0043198387
213	0x3a877894	0.0010335618
214	0x3ab64d4e	0.0013908537
215	0xb9dd7ca1	-0.0004224526
216	0xbb526982	-0.0032106345
217	0xbafd189c	-0.0019309702
218	0x3b24aa9a	0.00251261
219	0x3bab8d8e	0.0052353805
220	0xbbba74c3	-0.0056901886
221	0xb997c2e4	-0.0002894617
222	0xbba3e97e	-0.0050021997
223	0x396bb798	0.0002247974
224	0xbade4cf6	-0.0016960192
225	0x3baf19b7	0.0053436416
226	0xbab1d243	-0.0013566691
227	0xbbc56b78	-0.006024774
228	0x3b9dbea0	0.004813984
229	0x3bd01b66	0.0063509224
230	0x3ab490d9	0.0013776078
231	0x3aaec5b4	0.0013334067
232	0x3b31ecf2	0.0027149287
233	0xbab88f93	-0.0014080874
234	0xbc159da7	-0.0091318255
235	0xbb9bf355	-0.004759232
236	0x39c9f693	0.0003852142
237	0xbb23ee80	-0.0025013983
238	0xbb751b28	-0.003740022
239	0xbba7bd81	-0.005119026
240	0xbb2a84ec	-0.002601917
241	0xbb5b9aa2	-0.0033508916
242	0xb9ae1299	-0.00033201723
243	0xbb7bffcd	-0.003845203
244	0x3bd72c87	0.0065665874
245	0x3b18dae2	0.0023323824
246	0x3b6960be	0.0035610641
247	0xbb8974af	-0.004194818
248	0x3b806201	0.003917933
249	0x3affa758	0.0019504828
250	0xbb524879	-0.0032086654
251	0xbafe09b4	-0.0019381554
252	0x3ad848fb	0.0016501242
253	0x3aad5fb5	0.0013227375
254	0xbb20ef6a	-0.0024556764
255	0x3aaebbe3	0.0013331141
