output_model/single_lora_2/gpt_4.1_llama_model/adapter_model.safetensors (safetensors, 82208 bytes, 2 tensors)

base_model.model.model.layers.1.mlp.down_proj.lora_A.weight f4 [2, 8192]
000000 ed 77 34 bb 22 d8 98 bb fb e0 cf bb a5 8b d3 b9
       -0.0027537302 -0.004664437 -0.0063439584 -0.000403491
000010 c2 36 9c bb 8c 39 8e ba a6 57 8d 39 95 61 9e bc
       -0.00476727 -0.001085089 0.0002695892 -0.01933364
000020 b4 00 eb 3b 37 da 56 bc dd 8f 10 bb 61 42 91 bb
       0.0071717147 -0.01311355 -0.0022058405 -0.004432962
000030 21 1a d8 bb 64 e2 21 bc 01 e7 22 3b 63 8a 54 3c
       -0.0065949117 -0.009880636 0.0024856927 0.012972447
000040 22 cc 31 3c ef 21 b0 3c 3d db 5f ba 6d bb 5d 3c
       0.010851892 0.021500556 -0.0008539444 0.013533455
000050 fe 3d 2c 38 60 0f 28 bb d6 af 72 bb d6 83 a5 bc
       4.106573e-05 -0.002564393 -0.0037031076 -0.020204466
000060 2f ec 83 3c 86 4e ee 3a 78 e1 cb bb ce 8f cf 3c
       0.016103832 0.0018181361 -0.0062219463 0.025337126
000070 19 48 3a 3c 04 fe b6 bb 15 3e 38 bc 0a 3d b5 3c
       0.0113697285 -0.0055844802 -0.01124527 0.022123832
000080 17 01 7c 3c fd 7a 72 3c ce f1 ce 3b b3 3c c1 ba
       0.015381119 0.0147998305 0.0063154465 -0.0014742821
000090 4d c3 d7 bb 83 60 a3 bb fe 8e f9 bb f4 08 40 bb
       -0.006584561 -0.0049858703 -0.007615923 -0.0029302211
0000a0 00 c9 1f 3c 15 cc 9a 3c 19 fb aa bc c9 0d 36 3b
       0.009752512 0.018896142 -0.020871686 0.0027779213
0000b0 f8 dd 61 3c 50 9a 21 bc dc 9c 75 3c ac ea 18 3a
       0.013785832 -0.009863451 0.0149910115 0.00058333087
0000c0 4c d1 fa bb 18 85 8e 3b 38 36 3b 3c 45 5e 27 3c
       -0.0076543447 0.004349362 0.011426501 0.010215347
0000d0 3a 07 81 bc b3 de 20 3b 43 39 26 3b 6d b2 4c bc
       -0.015750516 0.0024546802 0.002536372 -0.012493712
0000e0 f8 3e 51 3b ae bf 34 bc 59 7f 15 bc cb 9e 1c 3b
       0.0031928401 -0.011032028 -0.0091246 0.002389836
0000f0 06 3b 63 3c 3c 21 ac bc 4f 55 8f bb 2c 62 e2 bb
       0.013869053 -0.021011941 -0.0043741832 -0.0069086757
000100 b1 38 f3 ba 4b 24 a7 3c cc 23 a8 3a a5 8d 3e bb
       -0.0018556324 0.020403048 0.0012828051 -0.0029076126
000110 f1 b0 9e 3b 8a 77 28 bc 01 3e 26 3c e3 da 3a bb
       0.0048428704 -0.010282407 0.010146619 -0.0028511814
000120 16 40 76 ba 67 76 44 3c 5a a8 7a 3c cb 60 65 3b
       -0.0009393705 0.01199112 0.015298927 0.003500032
000130 e9 5c 1d 3b 01 c2 43 bc f8 e4 f7 3b 4b ec 60 3c
       0.0024011678 -0.01194811 0.007565137 0.013728212
000140 7f 4d 6c 3b 9a 45 98 bb c8 33 d6 bc 23 0e de ba
       0.0036056933 -0.004646969 -0.026147738 -0.0016941469
000150 8d 3c 83 bc 83 c8 a3 bb 2a 29 8f bb fe 0d 5e bc
       -0.016020084 -0.004998268 -0.004368921 -0.013553141
000160 7e 8e d1 bc f1 80 58 bb 59 b4 d2 bb 69 67 e9 ba
       -0.02558064 -0.003303584 -0.0064301905 -0.0017807308
000170 35 59 8c bc 8b 9e 8b 3b af 1f b2 3c d1 76 cb 3a
       -0.017132381 0.004260843 0.021743624 0.0015523081
000180 7f 2c 9f 3b fb 71 21 bb 95 0c 75 bc c5 e3 b8 bb
       0.0048575993 -0.0024634588 -0.014956613 -0.0056423866
000190 26 f7 66 bc 7c a0 92 bc c1 00 dc bb 9d 65 fb 3b
       -0.014097011 -0.01789879 -0.006713957 0.0076720254
0001a0 40 c2 94 bb ea 90 13 3b 59 40 57 bc b3 27 48 bb
       -0.004539758 0.0022516795 -0.0131379 -0.003054124
0001b0 92 53 82 3c e1 b5 0a 3b 5e fe f8 3b 61 ae 80 bc
       0.01590899 0.0021165537 0.0075986823 -0.01570815
0001c0 29 c0 8b ba c1 2e 41 3c ae eb 5d 3c 03 5d 9a bc
       -0.0010662127 0.011790932 0.01354496 -0.01884318
0001d0 91 ab 30 3c 69 a9 30 3c de cc 8f bb 11 81 0d 3c
       0.010783092 0.010782578 -0.0043884357 0.008636729
0001e0 d6 29 6e bc e2 05 0d bb 18 6b 55 3c e4 1e 8f 3b
       -0.014536342 -0.00215184 0.013026021 0.004367696
0001f0 6e f3 2e 3b 06 20 4c bc f5 da f7 39 86 c1 66 3c
       0.0026695388 -0.012458807 0.00047274647 0.0140842255
000200 84 55 8f bc 97 3b 76 3b 96 fc 88 3a 84 f7 9d 3c
       -0.017496832 0.003757214 0.0010451253 0.019283064
000210 de 6f a4 ba 02 b6 56 bb c3 33 27 bc 23 20 01 bc
       -0.0012545546 -0.0032762294 -0.010205212 -0.007881197
000220 05 fd 68 3b 3f d5 26 3c 94 18 98 bb 48 60 e5 bb
       0.0035551202 0.010182678 -0.004641602 -0.007000003
000230 ea 40 7a 3b c3 2d 80 bc 92 83 84 b9 87 08 d7 3b
       0.0038185664 -0.01564682 -0.0002527503 0.006562296
000240 90 3e ba bc 56 4d 84 3c a9 8c 33 3c 47 b1 9e 3c
       -0.02273491 0.016150158 0.010958829 0.019371642
000250 2a 85 ce 3a 19 37 22 3b 70 8c 6b 3c ab b5 96 3b
       0.0015756239 0.002475208 0.014376745 0.004599293
000260 25 be 67 3a 96 3f 08 bc 6e b5 22 3c 6f c4 b9 3c
       0.00088402844 -0.008315941 0.0099309515 0.022676675
000270 a2 5e 77 3c 65 3c a6 3b 48 9b 2f 3c 85 96 be bc
       0.015098246 0.0050731176 0.010718174 -0.023265133
000280 16 dc 59 bb 05 0d 42 bc 8c f2 15 bc 90 7f 32 3c
       -0.0033242754 -0.011843924 -0.009152066 0.010894671
000290 e5 d4 11 bc df 68 ab bb 35 55 26 bb 29 f4 61 bc
       -0.008900856 -0.0052310075 -0.0025380377 -0.0137911225
0002a0 95 23 7a bc 60 61 ff bb b1 06 bc 3b c8 08 ba bc
       -0.0152672725 -0.0077935904 0.0057381024 -0.022709265
0002b0 4c db 8a 3c 36 8b 1c 3c 1d fc 21 ba 5d cf 14 bc
       0.016950272 0.009554675 -0.00061792304 -0.009082642
0002c0 1d 2e 85 3b 62 e6 4f bc 60 73 ed bb e1 30 89 3c
       0.004064335 -0.012689205 -0.00724642 0.01674694
0002d0 44 24 a7 bb 42 23 16 3c fa ee 1b 3b f7 1a 92 bb
       -0.0051007587 0.00916368 0.0023793564 -0.004458781
0002e0 16 ab 7c 3c 3f ec 19 bb 12 d6 0e bc 1a 89 7e 3c
       0.015421649 -0.002348676 -0.0087180305 0.015535617
0002f0 96 d8 02 3c 44 a7 c9 3a 68 e0 26 3c 7d 13 9d bc
       0.007986208 0.0015384932 0.010185339 -0.019174332
000300 92 1c 79 bc 11 ab 04 39 29 3e 5f 3c 6b 7b 61 3c
       -0.015204566 0.00012652228 0.01362566 0.013762335
000310 84 23 12 3c 70 2f 85 bc c0 05 65 3c d9 f5 b6 3c
       0.0089196 -0.016257972 0.013978422 0.022334026
000320 2d 34 8e bc 99 52 ba 3b 7c 97 ed 3b 5d b4 37 bc
       -0.017358864 0.005686116 0.0072507244 -0.011212436
000330 69 ab 55 3c 62 9a f4 3a 8f 2a d4 ba 6c 99 b8 3b
       0.013041356 0.0018661732 -0.0016187 0.0056335237
000340 36 7b 88 bc 85 7d 95 bb 5e 17 ee 3b 08 70 9d bc
       -0.016660314 -0.0045620822 0.007265969 -0.01921846
000350 cb 0a 63 bc 45 9d 72 3c 2c b6 1d 3b 03 0a a9 3b
       -0.013857554 0.014808004 0.0024064882 0.005158664
000360 97 a2 bf bb 46 71 15 bc 41 e2 ab ba 43 4c b3 bc
       -0.0058482396 -0.009121245 -0.0013113694 -0.02188695
000370 ad ef a7 bb 08 f5 5e 3c 96 67 a8 3c fb 49 12 3c
       -0.005125007 0.013608225 0.020557206 0.008928771
000380 73 fb 77 3a f6 67 6d bc cc 84 df 3b 00 66 43 3c
       0.0009459771 -0.014490118 0.0068212505 0.011926174
000390 18 25 f9 37 be da 0f bc ef ab f1 bb 5f ed fa bb
       2.9700386e-05 -0.00878018 -0.0073752324 -0.0076576914
0003a0 49 53 db 3c 67 7d 44 bb e5 c2 87 3c 14 df ad bb
       0.026773112 -0.0029981972 0.016572425 -0.005306134
0003b0 d5 8b df bb 2a 00 0d 3c 68 51 09 bc 91 65 89 bc
       -0.006822089 0.008605996 -0.008381225 -0.016772063
0003c0 55 fc 30 bc 97 12 23 bc 9d e7 00 bb 7e 88 ac 3b
       -0.010802348 -0.009953163 -0.0019669302 0.0052652946
0003d0 2b 0a c1 ba 27 6f e5 bb 5e 7e 18 3c 6d 26 e9 3b
       -0.0014727762 -0.007001776 0.009307472 0.0071151764
0003e0 9e b0 ee bb 98 8f 97 ba cd 4c 32 ba fe bb 9e bb
       -0.007284238 -0.001156318 -0.00068016053 -0.0048441878
0003f0 37 2d c9 3b 59 51 4c bc c4 31 4c bc e2 e1 81 ba
       0.006139423 -0.012470567 -0.012463037 -0.0009909237

base_model.model.model.layers.1.mlp.down_proj.lora_B.weight f4 [2048, 2]
000000 98 6c f6 3a 1d ca ec 3b 9c 0e 43 bb 39 36 4b 3b
       0.0018800674 0.007226242 -0.0029763347 0.003100766
000010 8f 2a 94 b9 f1 29 d3 39 45 79 01 bb 2e 33 0b b9
       -0.00028260468 0.00040276305 -0.001975612 -0.00013275139
000020 69 3c cd ba f9 11 c3 3a 8a e3 92 3b ac 44 91 3b
       -0.0015658262 0.0014882676 0.004482691 0.004433235
000030 31 22 99 b9 ee 41 42 3a 61 75 a6 39 0a c6 9c 3a
       -0.0002920791 0.0007410337 0.0003174944 0.0011960876
000040 5b a6 a2 3b 5a a6 19 3b f3 8e 80 39 a3 c6 d7 3b
       0.004963679 0.00234451 0.00024520568 0.0065849586
000050 d0 48 2a bb 01 d4 17 bb 57 e4 d7 3b 71 46 71 ba
       -0.002598334 -0.0023167136 0.0065884995 -0.0009203917
000060 90 51 16 3b a3 b0 93 3b 6a 39 e2 3b 44 85 ea 3a
       0.0022936799 0.0045071407 0.006903817 0.00178925
000070 24 9d a5 bb 8c 47 f5 3a d8 ef 12 ba df 34 d1 ba
       -0.005054133 0.0018713339 -0.00056051975 -0.0015961191
000080 f6 33 9f 3a 07 49 46 bb 08 5c b4 3a eb a4 15 3a
       0.0012146223 -0.003025593 0.0013760338 0.00057084736
000090 85 98 04 3b e6 cf 83 3b 32 cd cb ba 91 ce f9 ba
       0.002023251 0.004022586 -0.0015548824 -0.0019058754
0000a0 8d 80 47 bb 50 92 17 3b bb 07 03 3a 4e 99 a2 ba
       -0.0030441612 0.002312798 0.00049984053 -0.0012405307
0000b0 92 74 04 bb 80 1a 09 38 e6 92 ed 3a 7d 7c ff 3b
       -0.0020211083 3.2688025e-05 0.0018125444 0.0077968226
0000c0 17 2b 8f 3b e2 8f ab 3a ec 09 9a 3a 39 d1 87 3b
       0.0043691504 0.0013089145 0.0011752225 0.0041448143
0000d0 e0 52 33 3b 6d 60 ac 3b 7f 6d 2e 3b 09 60 5f ba
       0.002736263 0.0052605183 0.0026615558 -0.0008521085
0000e0 2b a0 ca 3a 16 f2 7b 3b 03 06 85 bb 91 90 02 3b
       0.0015459111 0.0038443855 -0.0040595545 0.0019922594
0000f0 66 c3 0a bb d2 5d fd bb 76 49 8a bb a6 23 21 ba
       -0.0021173595 -0.0077321315 -0.004220183 -0.00061469746
000100 3c cc 83 bb 8a ba 60 bb 22 f0 2c bb fd a8 be bb
       -0.0040221494 -0.0034290873 -0.0026388247 -0.005818485
000110 fa 6a 44 bb 8b b3 af bb d1 67 80 3a 3d 77 d0 3a
       -0.002997099 -0.0053619794 0.0009796565 0.0015904676
000120 27 1a 6a 3b bf bc fb ba f0 60 c9 39 e2 8c a3 39
       0.0035721154 -0.0019206031 0.00038409932 0.0003119475
000130 84 24 07 bb df 39 85 bb a7 2a cc 3a 08 fe 78 3b
       -0.002062113 -0.0040657367 0.0015576676 0.0037993211
000140 cd c1 5a 3b f9 dc 23 b9 7a 91 b1 3b 9b b5 07 3b
       0.0033379674 -0.0001562721 0.0054189535 0.002070761
000150 e8 ab fa ba 0d 35 3c ba 36 bd 8e 3b 0d 44 e0 39
       -0.0019124718 -0.0007179536 0.004356052 0.0004277531
000160 89 1b 38 3b 6e 7e 48 3b f3 02 22 bb a7 d1 ae ba
       0.0028092584 0.0030592936 -0.0024720996 -0.0013337628
000170 36 ce d0 3a 9f a6 4b 3b 4c 2a cb ba b4 d8 09 bc
       0.0015930596 0.0031074656 -0.0015500276 -0.008413482
000180 01 16 97 3b f1 cc 64 3b 00 e2 89 bb 11 30 83 3a
       0.0046107774 0.0034912194 -0.0042078495 0.0010008832
000190 25 6a 10 bb 2d 45 9f 3a c7 21 de b9 5e b2 6f 3b
       -0.0022035923 0.0012151353 -0.00042368306 0.003657482
0001a0 4f a5 0b ba d5 5f 46 bb 60 e8 05 3b 3e 4a c0 bb
       -0.0005327062 -0.0030269523 0.0020432696 -0.0058682254
0001b0 13 7a 8e 3b 4e 18 e0 3b b3 a1 e4 3a 7f 4b f6 ba
       0.0043480485 0.006838835 0.001744321 -0.001879081
0001c0 f9 45 25 b8 49 a8 df bb d0 ac be bb 51 48 95 bb
       -3.9404233e-05 -0.006825481 -0.0058189407 -0.00455574
0001d0 58 f9 01 3b ff cd 49 3b 8b ad 0b bb b0 a4 1c 3a
       0.0019832458 0.003079295 -0.0021313156 0.0005975468
0001e0 d9 be 06 3b df b1 ad 39 b6 6d 85 3b 17 90 a0 3b
       0.0020560531 0.00033129656 0.0040719165 0.0048999893
0001f0 34 db cb 38 a2 9e 71 3b 7e 2f 91 3b 18 e7 2a bb
       9.720624e-05 0.0036868234 0.0044307103 -0.0026077684
000200 20 98 47 ba d0 18 e7 bb 58 d1 92 bb 46 a8 ac bb
       -0.0007613916 -0.0070525184 -0.004480522 -0.005269083
000210 57 14 c8 3b a5 ed 01 3a c9 54 2c bb 8b 06 08 3b
       0.0061059403 0.0004956371 -0.0026295653 0.0020755853
000220 91 50 0c 3b e8 09 3b ba a0 1e 04 3b 41 30 17 bb
       0.0021410326 -0.000713496 0.0020159855 -0.0023069533
000230 eb 30 15 bc 72 53 a2 bb ef 5f 0b 3c 1d 00 ab 3b
       -0.009105901 -0.004953795 0.008506759 0.0052185194
000240 83 57 89 bb 2b f6 09 3a df bf 1c 39 e4 a5 79 3a
       -0.0041913404 0.0005262817 0.00014948797 0.0009523316
000250 fd 0b 99 3a a9 ae 26 39 8a a0 8c 3b f0 ae 3f 3c
       0.0011676546 0.0001589606 0.0042915987 0.011699423
000260 1c bb 86 3b f9 31 d8 3a a9 0a bf 3a d3 7d 88 bb
       0.0041116606 0.0016494385 0.001457532 -0.00416539
000270 9c b6 ec 3b 9d ab ea 3b b7 1a 1e 3b 96 91 d0 3a
       0.007223917 0.007161571 0.002412481 0.0015912529
000280 33 e1 99 3b 4c 64 d2 3b ec 11 03 3b 63 dd 1b 3b
       0.0046960353 0.0064206477 0.0019999696 0.002378308
000290 c0 88 36 3b f2 4d 92 ba 35 c2 fa 3a 9d e8 18 3b
       0.0027852505 -0.0011162146 0.0019131365 0.0023332008
0002a0 95 ef 29 3b fb ee 8f 3a 97 19 15 ba bb 41 c0 3a
       0.0025930156 0.0010981256 -0.0005687712 0.0014668027
0002b0 f8 8b e5 3a 49 a7 c5 3b 3d 83 05 bb 02 d2 20 bc
       0.0017513027 0.006031905 -0.0020372414 -0.009815695
0002c0 0d a5 b8 ba 51 03 57 ba 3c ee ca 3b 3a 90 02 3a
       -0.0014087275 -0.00082020933 0.0061929505 0.0004980598
0002d0 b2 f3 88 bb e9 14 12 3b df 51 96 3b c4 92 85 3b
       -0.0041794414 0.0022290295 0.0045873965 0.0040763337
0002e0 6b b9 72 3a 75 81 5b bb a8 42 9a ba 12 e1 39 ba
       0.0009259197 -0.003349391 -0.0011769133 -0.0007090728
0002f0 c4 f1 8f ba 36 38 1f ba fe a2 c8 ba f4 f9 1b bb
       -0.0010982086 -0.0006073745 -0.0015307365 -0.0023800107
000300 fe 59 15 3a 91 43 fc 39 da db db bb 7e 83 03 3a
       0.0005697309 0.00048115526 -0.006709558 0.0005016847
000310 7c 58 a3 ba af 61 ef bb 14 9a 6b 3b 49 87 03 3b
       -0.0012462283 -0.007305346 0.0035949992 0.002006965
000320 cc b8 63 3a 8c 7d 92 bb ab c0 1e bb 44 f5 0c 3b
       0.00086868997 -0.0044705328 -0.0024223726 0.0021508494
000330 32 7b 84 bb ce 7b fb ba 53 71 fb 3a 31 dd 54 3b
       -0.0040430063 -0.0019186677 0.0019183554 0.0032480473
000340 b8 84 c2 3b 13 c9 8a 3b 9f 3b 4f bb b5 92 cd ba
       0.0059362315 0.0042353957 -0.003162123 -0.0015683981
000350 c1 f7 5e bb 5b fe 75 bb ea 7e b1 3b 6b 27 b0 3b
       -0.0034022185 -0.003753564 0.0054167407 0.0053757927
000360 50 2d cc 3b 7e dc c5 3b 6c 6a 2e bb 62 2c d1 bb
       0.0062309876 0.0060382476 -0.0026613725 -0.0063834647
000370 96 72 a9 3a 87 4e de 3a ee 16 7d ba c8 d9 85 ba
       0.0012927826 0.0016960659 -0.0009654601 -0.0010211999
000380 b4 ab 99 ba 4b 28 40 3b c4 99 0d bb 04 33 9e 3b
       -0.0011724145 0.0029320891 -0.0021606544 0.004827859
000390 f4 c5 97 bb cf 10 a3 bb 4f cb 53 3b 9e bc 96 3a
       -0.004631752 -0.004976369 0.0032317226 0.0011500304
0003a0 cf f2 b6 3a 47 be 3b bb b9 75 8b 3b 75 21 3c 3b
       0.0013957861 -0.002864735 0.004255977 0.0028706465
0003b0 ec 1f 62 3b 9f dd ba 3b 70 20 b4 ba 8e b3 a9 3b
       0.003450389 0.005702689 -0.0013742577 0.0051788753
0003c0 f7 fb b4 3b 66 73 d2 3b 7e 1e 35 bb 34 65 c5 39
       0.0055232006 0.006422448 -0.0027636583 0.0003765017
0003d0 5d e3 09 bb f7 39 0c bc 08 71 51 3a 33 b6 b0 ba
       -0.002104006 -0.008558742 0.000798956 -0.0013482034
0003e0 ac c1 9d bb 0c 49 91 ba a0 63 05 3b c3 87 60 bb
       -0.0048143473 -0.0011084392 0.002035357 -0.0034260608
0003f0 64 45 43 bb 69 36 ec 3a a8 7e fa ba 68 20 b1 3b
       -0.0029795999 0.0018021587 -0.0019111233 0.0054054745
