output_model/single_lora_2/claude_3_5_haiku_20241022_4_llama_model/adapter_model.safetensors (safetensors, 82208 bytes, 2 tensors)

base_model.model.model.layers.1.mlp.down_proj.lora_A.weight f4 [2, 8192]
000000 84 98 8c 3c 80 fb 65 3b 97 e8 7a bc 17 2a 92 bb
       0.017162569 0.0035092533 -0.015314243 -0.004460584
000010 f4 e7 a8 3c 9a c4 4c bc 23 75 9b 3c 1d 1f d6 bb
       0.020618416 -0.012498045 0.018976754 -0.0065344707
000020 8b 20 66 bc e2 83 7d 3c 9f 68 b3 bb d1 60 f0 3b
       -0.014045845 0.015473338 -0.0054751183 0.00733576
000030 7b e7 9f 3c 1e d9 0a 3c e6 00 f7 3b f5 71 fe bb
       0.019519558 0.008474616 0.007537949 -0.0077650496
000040 fd 3c 0a 3c 90 3c f1 bc ba b3 88 3c 69 b6 11 3c
       0.008437392 -0.029447824 0.016687263 0.008893588
000050 0b ab 80 bb b9 23 ac bc eb c5 d5 bc 4f d0 d3 3c
       -0.00392664 -0.021013128 -0.026095351 0.025856165
000060 80 b9 95 bc 8f 98 58 bc fc 69 8d 3c a9 9e 0d bc
       -0.01827693 -0.013219967 0.017262451 -0.008643785
000070 5f 61 a9 3b 4c f9 5e 3b 67 46 73 ba 3c 32 aa bc
       0.0051690782 0.0034023104 -0.0009280205 -0.020775907
000080 ef 28 c7 3c 0f fc a2 3b 73 e5 5d bb 7a c2 1d 3c
       0.02431151 0.0049738954 -0.0033858686 0.009628886
000090 89 7e c3 3c 3c ad 46 bb 2c ed b3 3b 6d 5e bb 3c
       0.023864048 -0.0030315658 0.0054909196 0.022872174
0000a0 3e 4f 68 3a fd 56 bd bb 19 f3 9b 3c e9 dd 85 3c
       0.00088619057 -0.005778192 0.019036816 0.016341167
0000b0 ea 66 40 bd cd 7e 91 3b 68 d7 b3 3c c2 6b a9 3b
       -0.046973146 0.0044401647 0.0219533 0.0051703164
0000c0 c0 51 a1 3c 58 c8 fb 39 1e 6e de bb 6f e8 e0 bc
       0.019692302 0.00048023718 -0.0067880293 -0.027454583
0000d0 1f 70 cc 3b 6a f5 99 3b 3f 78 2f 3b 53 5c 15 bc
       0.006238952 0.004698445 0.0026774553 -0.00911625
0000e0 bb 88 25 bb 7c 70 0a 3c e0 9b 09 3a 81 04 61 bc
       -0.00252585 0.00844967 0.00052493624 -0.013733984
0000f0 1b 4c e1 bb 38 19 74 3c 65 9c 32 3c c5 f8 71 bc
       -0.0068755276 0.014898591 0.010901545 -0.014768784
000100 81 34 84 bc f3 2c e0 3b 86 cd 9d 3c 16 ec af 3b
       -0.016138317 0.006841296 0.01926304 0.00536872
000110 44 cc e3 bc 4b 15 bd 3b 75 0a 22 3c 4d 33 92 3c
       -0.027807362 0.0057703606 0.009890188 0.017846728
000120 0e 0d 69 3c 51 21 8c bb c4 19 6d 3b 6e 2c 25 3a
       0.014224304 -0.0042764326 0.0036178688 0.0006300871
000130 c5 c5 d6 3b a8 58 5f 3c bb 95 b2 bc 69 88 b7 3a
       0.0065543377 0.013631977 -0.021799913 0.0014002445
000140 1c 35 0d 3c 90 8d 05 3c a2 0a 93 3b 5c 6b 24 3b
       0.008618619 0.008151427 0.0044873515 0.0025088405
000150 53 37 e6 3b f2 b4 26 3d ed a5 11 3c 1e cc 83 bc
       0.007025638 0.040699907 0.008889657 -0.016088542
000160 e2 ae d5 bc ad f4 25 3b 3d 29 fb 3c e1 3b ce 3c
       -0.026084367 0.002532284 0.030659312 0.025175037
000170 2f 5e 03 bc 98 0b 1e bc 70 31 cf bc cc ca ec 3a
       -0.008018061 -0.009646319 -0.025292128 0.0018065809
000180 13 a7 a6 bc 44 e9 40 bc 3a f5 dd 3c 4b 7f 58 3b
       -0.02034334 -0.011774365 0.027094472 0.0033034857
000190 11 0b 8f 3b 5c d1 f0 3b e9 f6 d4 3c 44 0e b8 bc
       0.004365333 0.0073491763 0.025996642 -0.02246774
0001a0 ad 8f 2e 3c f4 77 72 3c 38 5a f6 3c a1 be 56 bc
       0.010654372 0.014799107 0.030072317 -0.013106973
0001b0 2b 67 32 bc 1d 5e e8 3c 49 01 3b 3b 2c 3d 27 3a
       -0.010888855 0.02836519 0.0028534702 0.000637966
0001c0 eb 9a 5e 3c 05 db c1 bc 6e f7 5b 3c fe e4 0b 3c
       0.01358674 -0.023664007 0.013425691 0.008538483
0001d0 54 70 b6 3b 08 92 b5 bc f4 c9 66 3c 6f 90 e3 bc
       0.00556759 -0.02216436 0.014086235 -0.027778832
0001e0 45 6c 23 bc a0 5d 30 bc 63 b8 84 3b fa c5 6c bc
       -0.009974544 -0.010764509 0.004050301 -0.014451498
0001f0 12 50 83 3c 39 c1 36 3c 78 4e 10 3b 15 38 d3 3c
       0.016029391 0.011154466 0.0022019427 0.025783578
000200 86 06 4f bc 95 6f a5 bc 78 0a 98 bb f6 b4 37 3c
       -0.012635833 -0.020194808 -0.00463992 0.011212578
000210 8f d4 77 3c a7 3f 4b bc f9 ba 25 3d 6b 0b 20 3c
       0.0151263615 -0.012405313 0.040461514 0.009768347
000220 3a e1 86 3b ec 75 ff 3a 8e a2 1c bc 6d 2f 94 3b
       0.0041162046 0.00194901 -0.00956024 0.004522255
000230 01 c2 d2 3b c8 f1 d8 3c c4 87 0e 3c 97 87 0c 3b
       0.0064318185 0.026482478 0.008699361 0.0021443123
000240 de 8e 26 3c dd 27 ee 3c 1a 38 b5 bc 43 07 03 bb
       0.010165898 0.029071743 -0.022121478 -0.0019993342
000250 b2 44 57 bc 8e 54 30 bc 6e 61 70 bc cc dc c3 3b
       -0.013138937 -0.010762347 -0.014671667 0.005977249
000260 4b ac a2 3c 32 40 9a bc 1a 16 2a ba 8b bb 1a 3b
       0.019857546 -0.018829439 -0.0006488279 0.002361032
000270 b2 25 db bb 3f 07 98 bc 26 aa b7 bc 89 65 54 3c
       -0.0066878432 -0.018558143 -0.02242 0.012963661
000280 9e 72 24 3c 5f 02 e4 ba 4a a1 ec 3b 1f 69 d1 ba
       0.0100370925 -0.0017395726 0.0072213756 -0.0015976763
000290 8c 52 77 bc 67 cf 76 3b 84 09 8c 3b 74 15 9c 3b
       -0.015095364 0.0037660243 0.0042735953 0.0047632996
0002a0 74 5f 7f bc 53 70 0e bc 2b 0e d2 ba 8d c9 a4 ba
       -0.015586723 -0.008693772 -0.0016025951 -0.0012572274
0002b0 7a 9b 05 3a ec 0c 54 bc 43 c3 50 bb c2 f9 84 3c
       0.0005096715 -0.012942534 -0.0031854666 0.016232375
0002c0 f6 6a 4e 3b d5 da 6f bc a4 d1 38 3c de dc 8f bc
       0.003149686 -0.014639576 0.011280451 -0.017561372
0002d0 53 af 61 bc f7 b1 db 3b 79 ba 48 bc d4 55 e6 bc
       -0.013774711 0.0067045647 -0.01225149 -0.028117098
0002e0 b2 19 01 bc 2a de 83 3c c2 5e 81 3c c2 9d 6f bc
       -0.007879661 0.016097147 0.015792254 -0.014625015
0002f0 9e ec 45 3c a4 55 a2 3b ef af fb bb 87 ac 94 3c
       0.01208034 0.004954057 -0.007680885 0.018148674
000300 0d 52 19 bc 66 43 96 3b 2b 7e 0e bd 04 10 3f bc
       -0.009357941 0.0045856712 -0.034788292 -0.011661533
000310 90 c7 a7 bb 29 8b 94 3c 0a 5b 82 bc 34 f1 8c bc
       -0.0051202253 0.018132763 -0.015912551 -0.017204858
000320 eb 2e 7c bc af 36 d9 bc 68 78 49 3a c3 ce 51 3b
       -0.0153920455 -0.026515333 0.00076854834 0.0032014109
000330 cc b8 36 bb de ee 2f bb a3 67 6e 3c 51 e9 dc bb
       -0.0027881144 -0.0026845257 0.014551076 -0.0067416807
000340 d0 0c cb 3c 5e f7 55 3c ce c9 e2 3c e5 36 72 3c
       0.024786383 0.013059465 0.027684119 0.014783596
000350 10 be d7 bb 5d 88 d8 ba e0 c2 97 bc 27 bd 89 bc
       -0.0065839365 -0.0016520132 -0.01852554 -0.016813828
000360 b7 12 19 ba 0c 36 83 bb 55 8d 89 3c 38 e0 4d 3c
       -0.00058392755 -0.0040042456 0.016791025 0.012565665
000370 1b d7 77 bc c2 51 c1 b9 8d 15 e9 ba e0 b0 49 3c
       -0.015126969 -0.00036872743 -0.0017782912 0.012310237
000380 56 37 48 bc da 88 c7 3c 73 72 c2 3c 26 89 ca bc
       -0.012220224 0.024357248 0.023736214 -0.0247236
000390 e1 81 a1 3c c3 a1 28 3c 5a 6c e8 bb 76 0c ec bc
       0.019715251 0.010292473 -0.0070929946 -0.028814536
0003a0 16 1f 53 3c 15 6e 05 3d 80 11 1f bc e8 1d 9d b9
       0.012885829 0.032575686 -0.009708762 -0.00029967655
0003b0 3c cf 5f 3c b1 fb 5e bc e2 18 ec 3c 9d 1d 2d ba
       0.013660248 -0.013609813 0.028820459 -0.0006603839
0003c0 88 14 a4 bb bb ca 33 3c 79 bb a8 3a 73 73 93 bc
       -0.0050073303 0.010973628 0.0012873254 -0.017999386
0003d0 b0 8e 8b 3c 5d a4 8e 3c 70 61 51 bc d3 25 1e bc
       0.017035812 0.017412359 -0.012779579 -0.009652573
0003e0 e3 cb 8e 3c dd 6b 80 3c b3 41 9d bc 42 07 a3 3c
       0.017431205 0.015676433 -0.019196367 0.019900922
0003f0 19 80 70 ba 26 27 5a bc f2 f9 d0 3c 8d b1 14 3c
       -0.00091743615 -0.013314998 0.025509808 0.0090755345

base_model.model.model.layers.1.mlp.down_proj.lora_B.weight f4 [2048, 2]
000000 41 54 f5 bb 05 e2 a7 3b 6d c2 76 bb ce 8c a7 3a
       -0.0074868505 0.005123379 -0.0037652508 0.0012783052
000010 b8 c4 1d bb d9 1e c8 ba 32 02 47 bb 2b b8 d0 3a
       -0.0024073552 -0.0015267982 -0.0030366299 0.0015924027
000020 0b d4 a2 3b 7a b9 ea 3a e2 a9 fe 3a dd 7b 1b ba
       0.004969125 0.001790806 0.0019429291 -0.0005931238
000030 09 f8 b7 3a 9f 18 be 3b 15 a4 e9 3a 8c 22 4a bb
       0.0014035712 0.005801275 0.001782539 -0.0030843345
000040 48 6c 51 3b 00 a4 d1 ba e2 eb 08 bb fc ec ca ba
       0.003195541 -0.001599431 -0.002089255 -0.0015482004
000050 ef fc f0 3b a9 b6 56 bb c4 15 06 bc fc 80 1c ba
       0.007354371 -0.0032762683 -0.0081839 -0.0005970148
000060 8c eb 95 bb 2a 61 e5 3a 00 93 47 bc 60 00 25 3c
       -0.0045751985 0.0017500271 -0.012181044 0.01007089
000070 5e 85 54 3b 59 20 e3 bb b4 29 73 bb e8 82 36 bb
       0.0032428126 -0.0069313464 -0.0037103714 -0.0027849022
000080 a5 c0 09 3c e7 68 db bb 2a 66 d1 3b 05 31 51 3a
       0.008407746 -0.006695855 0.0063903527 0.0007980022
000090 2a 65 ca ba a8 93 d5 ba 9b 4e 06 3b 9c 39 97 bb
       -0.0015441526 -0.0016294615 0.002049363 -0.004615022
0000a0 d1 65 c6 39 c7 66 0c ba fe 7d 7d ba b5 e6 23 3b
       0.00037841362 -0.0005355891 -0.00096699584 0.0025009338
0000b0 24 43 ce b9 1b 3a d8 ba 89 2b d3 ba e9 d9 1f 3b
       -0.00039341405 -0.0016496809 -0.0016110997 0.002439136
0000c0 04 f9 91 bb a8 2b 9f 3b 44 2c af bb be e7 e2 3a
       -0.004454734 0.004857499 -0.005345853 0.0017311496
0000d0 36 58 12 bb 53 4d 93 b9 b8 10 5b 3b d4 c2 aa ba
       -0.002233041 -0.00028095636 0.0033426713 -0.0013028034
0000e0 b3 de 26 bb 75 67 02 bb a6 f8 86 3b 2b b8 ca 3a
       -0.002546233 -0.001989809 0.0041189967 0.0015466263
0000f0 0f 4c b0 3b 2a 8e 8a bb b6 a3 2d 3a 15 f3 5f bb
       0.0053801606 -0.004228373 0.0006623821 -0.0034171988
000100 65 01 28 bb 42 84 13 bb 24 7d 04 bb 4c df 34 3b
       -0.0025635597 -0.0022509252 -0.0020216191 0.0027598916
000110 31 67 65 bb 0b 1a 1f ba 73 a5 b7 ba 25 74 4b 3b
       -0.0035004134 -0.00060692494 -0.00140111 0.003104457
000120 5a 22 94 bb 77 80 b2 3b 87 3c 07 3b 05 59 5d 3b
       -0.0045206966 0.005447443 0.0020635442 0.0033774984
000130 26 c4 6f bb 15 0f a9 bb 91 94 05 3c ed d4 19 bc
       -0.003658542 -0.0051592686 0.008153097 -0.009389144
000140 65 70 08 3b 73 26 9b 3a 36 8f 29 bb 64 e4 3b 3b
       0.0020818945 0.001183702 -0.0025872714 0.0028670067
000150 b1 30 af 3b b0 25 a1 ba 61 26 f2 3a 78 dc 6b ba
       0.0053463806 -0.0012294557 0.0018474573 -0.0008997391
000160 2f c2 ac bb ce ef 2a bb b4 cb a0 3b c4 bd 4d bb
       -0.005272172 -0.0026082876 0.004907096 -0.0031393627
000170 ba 98 a6 bb 6b 65 09 3c fe 04 15 bb ab c0 06 3a
       -0.0050841244 0.008385996 -0.0022738571 0.0005140404
000180 4f 58 9f bb 6c 3f 31 3c 4b 0e 0e bb 4e 5e 19 3b
       -0.004862822 0.010818344 -0.0021676 0.0023402157
000190 a5 00 63 3b 82 a3 48 bb 40 98 30 3b 02 75 5f bb
       0.0034637835 -0.0030615036 0.0026946217 -0.0034096842
0001a0 47 f3 cb 3a ea 9d 48 bb e1 58 c1 38 57 a1 9c 3b
       0.0015560173 -0.0030611702 9.219512e-05 0.0047799754
0001b0 e9 c5 02 bc 38 1b eb ba 39 d4 2b 3b 32 60 8b bb
       -0.007981756 -0.0017937189 0.0026219024 -0.0042534107
0001c0 19 ad a1 bb ce c5 86 bb 48 4e 8f 3b 2c 45 a0 bb
       -0.004933965 -0.0041129356 0.0043733455 -0.0048910584
0001d0 7b 8c 8c bb ce 23 21 3b a5 4d 35 3b 64 25 64 3a
       -0.0042892075 0.0024587992 0.0027664688 0.00087030814
0001e0 06 0b a1 ba e9 52 5b 39 65 21 f8 bb bd 30 2f 3b
       -0.001228661 0.00020916354 -0.0075723403 0.002673193
0001f0 29 9f 9e 3a 46 f9 01 3b 46 79 de bb ea 32 82 3a
       0.0012101877 0.0019832416 -0.0067893593 0.0009933386
000200 94 b1 b3 bb fd ea 4f 39 1c c9 2e bb 48 f6 30 3b
       -0.0054838154 0.00019828598 -0.0026670163 0.0027002264
000210 45 bf 10 3b 74 0a a5 3b 0b 78 bc bb f7 1d a4 3b
       0.0022086662 0.0050366465 -0.005751615 0.005008455
000220 dd 68 35 3b 1d ab 09 3c 60 56 99 3a cb a3 f4 ba
       0.0027680912 0.008402613 0.0011698715 -0.0018664537
000230 e8 08 94 3b 80 38 e9 bb 18 47 94 3a 91 6b 65 3b
       0.0045176633 -0.007117331 0.0011312691 0.0035006742
000240 98 63 9b 3b b8 09 99 39 f6 0a d7 b9 cd dd 69 bb
       0.004742097 0.00029189675 -0.00041016162 -0.0035685182
000250 f1 9b af 3b 44 60 7a bb a6 2b 10 bc c5 1d 56 3c
       0.005359166 -0.0038204351 -0.008799469 0.013068621
000260 20 5f 3c bb 73 ef 63 bb 9f 4f 93 38 87 f2 2e ba
       -0.0028743222 -0.0034780174 7.024337e-05 -0.00066737126
000270 8f 57 15 bb 16 6b a1 3b b2 05 03 3c df 1b 65 39
       -0.0022787785 0.0049260957 0.007996963 0.00021849525
000280 c5 a7 18 bb 6c 26 97 bb 03 d5 84 bb 27 a8 73 3a
       -0.0023293358 -0.0046127345 -0.0040537133 0.0009294771
000290 a2 e3 ec 3b dd ef 12 bc e6 b1 9c 39 2e ae 9b 3a
       0.0072292844 -0.008968321 0.00029887183 0.0011877471
0002a0 cd 85 95 bb e1 4e f9 38 6a 8c c0 bb 07 46 79 ba
       -0.0045630694 0.000118879376 -0.0058761137 -0.0009509031
0002b0 f6 d0 b7 bb b0 f1 66 b9 02 e1 bc 3a 36 59 1b 3b
       -0.005609627 -0.00022024545 0.0014410319 0.0023704297
0002c0 16 d5 ca bb b3 db 6c b9 3c 4c 86 bb c7 6d f8 3b
       -0.0061899526 -0.00022588558 -0.0040984433 0.007581446
0002d0 db 44 83 bb 4d 37 34 3b 29 ad 50 3a 2c 45 8d 39
       -0.004006011 0.0027498782 0.0007960373 0.00026945153
0002e0 99 65 be 3a 43 47 a3 3a 41 0e c6 b9 3f 25 3b 3b
       0.0014526128 0.0012457151 -0.00037776123 0.0028556136
0002f0 13 77 d7 3a 18 c9 8d b9 1b f2 87 ba 7c a9 f2 ba
       0.0016438685 -0.00027043442 -0.0010371836 -0.0018513645
000300 98 31 e0 3a 94 c9 bb 3b 72 ca 4e 3b b7 93 05 bb
       0.0017104624 0.005730817 0.0031553772 -0.0020382234
000310 b7 ed d2 3b e1 23 81 3b e3 cc 12 ba f3 47 b3 ba
       0.006437029 0.0039410447 -0.00055999885 -0.0013678059
000320 d6 f5 6b 3b 40 7a 77 bb 44 3f ba 39 81 4e bf 3a
       0.0036004684 -0.0037762076 0.0003552382 0.001459554
000330 a2 5a 8b 3b 33 3e 7b 3b f3 b8 01 3b 3a 3a ec bb
       0.0042527476 0.0038336634 0.0019794076 -0.0072090896
000340 3f bb c4 bb 43 2e c0 3b 11 44 b6 3b 9e 44 ab 3b
       -0.006003767 0.00586489 0.0055623134 0.0052266857
000350 ee 5b 0d bb 02 b7 9a ba ba d5 fd ba aa bf df 3b
       -0.0021569687 -0.0011803808 -0.0019366064 0.006828268
000360 f5 c1 9b bb fc 39 b7 b9 8e ab 70 3b ab 2b 07 bc
       -0.004753346 -0.00034947682 0.0036723348 -0.008250157
000370 64 19 70 bb 27 19 cf ba dc fe 45 3b 11 4d a4 bb
       -0.0036636228 -0.0015800343 0.0030211722 -0.00501407
000380 1d 52 4b b9 d3 a2 71 3a e4 05 88 3b 0b 48 45 bb
       -0.00019390178 0.0009217683 0.004151093 -0.0030102755
000390 cd bf 83 3a 2c f0 ef bb 9c 49 60 39 99 7e b0 3b
       0.0010051668 -0.007322332 0.00021389726 0.0053861854
0003a0 42 c1 ed b9 b4 1b 8a bb 84 4f aa bb 6c 1f 00 3c
       -0.0004534815 -0.0042147283 -0.0051974673 0.007819992
0003b0 ec f0 d7 ba 6c 27 60 bb 07 e3 64 bb 15 cd 55 3b
       -0.0016474999 -0.0034203185 -0.0034925358 0.003262346
0003c0 fd 46 fb ba a9 e7 53 3b 00 41 7d 3b ba 4b 2c 3c
       -0.0019170936 0.0032334125 0.003864348 0.0105161015
0003d0 62 87 ac 3b c4 f1 d1 bb 08 4a c0 3a 0e 71 8d 3b
       0.0052651623 -0.0064069945 0.00146705 0.0043164557
0003e0 07 c4 00 bb b9 d1 d4 bb 49 7e 7e ba 94 04 cc 3b
       -0.0019648091 -0.0064947275 -0.0009708149 0.0062261317
0003f0 4a ba 36 3b b9 b6 d4 3b 8a d0 cc ba a1 23 b0 ba
       0.0027882033 0.006491509 -0.0015626114 -0.0013438353
