output_model/single_lora_2/claude_3_5_haiku_20241022_4_llama_model/adapter_model.safetensors (safetensors, 82208 bytes, 2 tensors)

base_model.model.model.layers.1.mlp.down_proj.lora_A.weight f4 [2, 8192]
00000000: 4854 dfbc 931a db3b 62dd 403b 7dec 183a
00000010: 7da3 853b b895 8a3c 183e a8ba 33a2 86bc
00000020: ea53 d93c 9b03 fdbb 4f01 e33b 6ccf b8bb
00000030: a979 c0bb cc6a 84bc c902 7abc 6803 69bb
00000040: 8d3f 66ba 1d89 a83c 3bc4 53bb 935f b0ba
00000050: b476 c23c 77d4 6f3c 7ef8 2ebc 5780 05bd
00000060: bc53 4a3c ecc5 bcbb ae96 7fbc fc2d cb3a
00000070: 6519 9bbc 0642 d63b 33e3 613a f986 4cba
00000080: 2d11 62bc ed5a d13a 13a8 833c 8d14 e0bc
00000090: c33a 33bc 9ed0 df3b aefd 64bc 3e8b aebc
000000a0: 89f3 723b 5143 813b 119d d1bc a26d 5e3b
000000b0: 046f 8f3d 5fea abbb e6ed 1cbc 271e efbb
000000c0: 3ecb d0bb d1ef 743b 7cf1 14bc 8069 fe3c
000000d0: 40a7 8ebc 42fd 8cbc 878b 933c a270 033c
000000e0: 7cb2 b93b a85a cb3b 36c5 03bc 3743 723c
000000f0: 61d9 b33a 9030 dcbc 2325 08bc a019 26bc
00000100: c06c 8a3c 863c 41bb e36e a2bb 7d5b 25bb
00000110: 35aa 5c3c 051f ccbb df02 f0bb a159 82bc
00000120: 5114 a03c 7508 3c3b 7b96 4cba 486d edbb
00000130: 3fea 8b3a f613 9abc 1d45 883c 4ec6 80bb
00000140: 7087 163b 904c 8ebb 96e3 623c ac56 533c
00000150: e348 a2bc ff7d 1bbd 4880 d5bc 84f2 543c
00000160: d1c2 093d 3b3b 44bb d9d2 c0bc f8d3 45bc
00000170: 70c9 563c 84ce cd3c b1da 543c 96ff f4bb
00000180: 77a2 073c 94f9 a53c 346f 96bc a911 47bc
00000190: 7746 29bc 06f8 8c3c 8724 44bc 0499 77ba
000001a0: 64cb 69bc ecec afbc 7912 bebc b6ac a13b
000001b0: 8cc8 1e3c 60e4 85bc f8f2 243b d9e9 66bc
000001c0: 5077 6fbc 25f2 c93c 4603 a1bc cc33 06bb
000001d0: baf9 54bc a643 c83b f0ac a3bc 9857 de3c
000001e0: eb21 bbbb 0e79 113c fed6 2a3a e741 2c3c
000001f0: 5117 61bc e7ca bbba 2cd5 b6bc 78c7 c13b
00000200: 397d dcbb 74b9 ab3c 049f 153c 727f 443b
00000210: 794f 3bbc 2e32 993b 1b96 0cbd 988a 0dbc
00000220: fa52 a8bc 8b0d 1e3c 81fd 823b a097 c7bc
00000230: c72e 85b8 a1c2 89bc 0c2e 4ebc c5a5 24bc
00000240: 869a c2bc 2468 09bd 0f12 c83c d7a1 c6bb
00000250: 0ed7 0f3b 9875 343c e5fa 1c3c 7aa7 58bc
00000260: 226e 4b3a b1cf 6cbb 798f 513b ac8c 493c
00000270: 9d05 cdbb 3b5e 833b 470b 7eb8 b1f1 8cbc
00000280: d56f 023b 99c1 92bc 335b 47bc 30d7 02bc
00000290: 81a3 a33c e3d8 67bc 75af 87bc 179f 853b
000002a0: f178 313b 113e e9b9 e3a7 b43c 4712 4dbb
000002b0: d88e b2bb ba4f ba3b 16e8 31bc d4cd 083c
000002c0: 5c77 9f3c 5260 e83c 3791 3fbc a177 9eb9
000002d0: 05f0 67bc 5895 873b 0cca df3c 4da0 473c
000002e0: e31b 443c 79c7 693b c1ee aabc 58cc 753c
000002f0: 086b 30bb 4b6a c83b d815 f83b ba4d 02bc
00000300: 3115 d3bc a722 f2bc ac16 4a3c 99a8 fe3b
00000310: 8ef5 c9bb ac43 90bc d7a6 17bb 9f98 683c
00000320: 9668 a43c ffe7 e13c d601 21bc 13eb c0bb
00000330: 5579 8a3c d461 543c a972 b1bc 4c18 b93c
00000340: a0e4 b1bc 4852 e6bb cb1b ecbb 5cc4 58bc
00000350: 39f2 26bc a771 0bbc 27d3 ff3c 4df1 9cbb
00000360: ecfe 003c 14ef 8c3b c17a 98bc 39e3 a1bc
00000370: 7682 2dbc e5fa b0bb 26d6 ac3c 9eaf 6abc
00000380: 8250 a13c 39e8 c8bc 74f9 94bb 95e7 ee3b
00000390: 5c34 e8bb f1ef 9cbc ba9d ce3b 79cb bb3c
000003a0: bd8f 56bc e764 dbbc fb0f 813c 7790 df3b
000003b0: dd24 e4bb 7e5f 093a 6fbc 9bbb e568 483a
000003c0: d806 383c e578 4bbb 45f1 b2b6 2f0c a03a
000003d0: 7087 7f3b 4552 3dbc b498 3dbc 2e99 a43c
000003e0: 49a7 6c3b a517 dd36 214e 833c 5775 6e3b
000003f0: c857 493b 2b88 803b 6fe1 06bd 07b4 8abb
-0.027261868 0.0066865175 0.002942883 0.00058335793 0.004078327 0.016917095 -0.0012835888 -0.016434764
0.026529271 -0.007721377 0.006927646 -0.005639961 -0.005873878 -0.016164206 -0.015259453 -0.0035555009
-0.00087832735 0.020573193 -0.0032313007 -0.0013456218 0.023738243 0.014638058 -0.010679362 -0.032593098
0.012349065 -0.005760899 -0.01559989 0.0015501375 -0.018933007 0.0065386323 0.0008616924 -0.0007802095
-0.01379804 0.0015972533 0.016071355 -0.02735355 -0.010939303 0.006830289 -0.013976498 -0.02130663
0.0037071428 0.0039447923 -0.02558759 0.0033939858 0.070035964 -0.005246445 -0.009578204 -0.0072972956
-0.0063718846 0.0037374387 -0.0090907775 0.031056166 -0.017413735 -0.017210606 0.018010868 0.008022459
0.005667029 0.0062058754 -0.008042624 0.014786533 0.00137214 -0.026878625 -0.008309635 -0.010137945
0.01689756 -0.0029485538 -0.0049570664 -0.0025231533 0.013468315 -0.0062292838 -0.007324561 -0.015911879
0.019540938 0.0028691564 -0.0007804406 -0.0072456934 0.0010674669 -0.018808346 0.016634518 -0.0039298898
0.002296891 -0.004342623 0.013848206 0.012899082 -0.019810146 -0.037961956 -0.026062146 0.012997273
0.033633057 -0.002994253 -0.02353804 -0.012074463 0.01310955 0.025122888 0.012991593 -0.0074767573
0.008278481 0.02026061 -0.018363573 -0.012150207 -0.0103317415 0.01720811 -0.011971599 -0.00094451034
-0.0142696835 -0.021475278 -0.023202168 0.004933919 0.009691369 -0.01634425 0.0025169235 -0.01409384
-0.014615849 0.024651596 -0.019654881 -0.002047765 -0.012998993 0.00611158 -0.019979924 0.027141377
-0.0057108304 0.008878959 0.00065170217 0.010513759 -0.013738469 -0.0014327437 -0.022318445 0.005913671
-0.006728795 0.020962454 0.009132151 0.002998319 -0.011432522 0.0046751713 -0.03432284 -0.008639
-0.020547379 0.009646784 0.003997505 -0.024364293 -6.350647e-05 -0.01681644 -0.012584221 -0.010049288
-0.023755323 -0.033546582 0.024422674 -0.0060617733 0.002194825 0.011014365 0.009581302 -0.013223523
0.00077602465 -0.0036134536 0.0031976386 0.012301605 -0.0062567727 0.004009036 -6.0568822e-05 -0.017205091
0.0019903083 -0.01791458 -0.01216774 -0.007985875 0.019975426 -0.014150831 -0.016563157 0.004077803
0.0027080143 -0.00044487466 0.02205271 -0.0031291412 -0.005449157 0.0056857737 -0.010858556 0.0083498545
0.019466095 0.028366242 -0.011692337 -0.0003022524 -0.014156346 0.004137676 0.027318023 0.012184215
0.011969539 0.0035671873 -0.0208658 0.015002333 -0.0026919264 0.0061161867 0.0075709634 -0.007953102
-0.02576694 -0.02955754 0.012334507 0.0077715633 -0.0061633056 -0.017610393 -0.0023140216 0.014196544
0.020069402 0.027576445 -0.009827098 -0.005887398 0.016903559 0.012962777 -0.02166112 0.022594593
-0.021715462 -0.0070288517 -0.0072054616 -0.0132304095 -0.010189586 -0.008510984 0.031228615 -0.0047895075
0.007873278 0.0043009613 -0.018613221 -0.019761669 -0.010590186 -0.0054010027 0.021098208 -0.014324097
0.01969171 -0.024524795 -0.0045463387 0.0072907903 -0.00708632 -0.019157382 0.0063054236 0.022924172
-0.013095793 -0.026781512 0.01575469 0.0068226415 -0.0069624023 0.00052403647 -0.0047526876 0.0007645025
0.0112321 -0.00310474 -5.332901e-06 0.0012210662 0.003899064 -0.011555259 -0.011572052 0.020092573
0.0036110452 6.589066e-06 0.016028466 0.0036385858 0.0030722488 0.0039224825 -0.032929834 -0.0042328867

base_model.model.model.layers.1.mlp.down_proj.lora_B.weight f4 [2048, 2]
00000000: 2faa 053b a8d1 a43b 47c8 853a 8377 363b
00000010: ff1d 5dba 84a6 96bb 5e33 073c da7e 7b3b
00000020: 780e 6d3a 45a1 18ba 63ce 9a3b 27f1 0238
00000030: c2e1 d93a 1f86 893b 806e cabb a075 86ba
00000040: a99c b8bb 1b83 53ba 7255 50bb 800f c1b8
00000050: 1844 6ebb 827f baba 0c7d 6736 c23c ec3a
00000060: 4394 0b3a b4e1 6d3b b510 533c 7f74 1b3c
00000070: e8c5 debb 5962 f8ba 62d2 413b 4f85 39bb
00000080: 9b3c 4bbb 3025 15bc 0592 34bb 49d8 f3ba
00000090: 0474 023b 4300 65bb 2b40 88bb 6d19 e7bb
000000a0: a44b 4e3b b943 cf3a cda7 213b 7829 92bb
000000b0: 9772 023b 7830 ab38 a1a8 ec3b 9b4a 9d39
000000c0: 369d 99ba 674f 383b e76d 2d3b 319d 643a
000000d0: 888f b739 7dc0 933b 4949 a5ba 75ab 113b
000000e0: abd7 a83b aa49 393a 2d6e 5bbb efe5 75ba
000000f0: b109 dbbb ce4e b8bb bc01 7eba aa2a 41bb
00000100: cb0a ac3a e3d9 47bb f38f 25ba cb02 753b
00000110: d151 9db9 5fa9 c03a 785c d138 3608 a6ba
00000120: f434 853b 58c8 d53a 9d23 923b 9804 333b
00000130: 3778 9ab9 ae29 c1bb b971 05bc ab08 93bb
00000140: fc74 223b 04d9 103b afcb 3a3b b5d4 343b
00000150: b0d5 5bbb 7187 3c3b 15b0 203a 0fb8 9b3a
00000160: a1e5 a43b 2f97 0abb 486d 14bc ba77 73bb
00000170: 92ce 703b 4389 133b dfd0 a7bb 3583 8f38
00000180: 506a c03b f71e 163c 72f9 eaba 33bf f93a
00000190: cbf7 7dba 0ce4 b5bb 5d16 cfbb 4157 ffba
000001a0: 9db1 38ba 0742 80bb 18a6 8d3b f7c3 8d39
000001b0: a3c2 003c 1a80 f639 52f0 b3bb a7fc b3bb
000001c0: c29d 933b 6a6d 813a b655 933a d66e 02bc
000001d0: 60ea cf3b dd3c 4fba d026 f9ba eab1 f936
000001e0: 3d18 833a 0a6f 9339 9fea 983b 0c43 843b
000001f0: ccf3 80ba 1c38 58bb b119 5f3b f9ef 5e3a
00000200: ef1c 443b 0bd1 d5ba d4fb e23a b122 e4b9
00000210: be6f 8b3b 043d ad3a 6b0c 063c 6e7e 9c3b
00000220: a8f6 1b3b 41b2 42b9 1a1a 343b 3925 71ba
00000230: b7cf 4fbb df05 1cbc 7982 2c3a bbbc 163b
00000240: 9bd0 b6ba fc91 963a 0953 213b 7482 79ba
00000250: a3cc ca3a 3fbd c4b9 0d27 ad3b 1f07 403c
00000260: 7d88 b7ba 267a 003a 6f54 2bbb 2264 803b
00000270: cbd1 383a b64f af3b c3d3 09bc 2034 c9b6
00000280: 5168 1abb 8b76 71bb 34d0 8f3b 66a7 9f3b
00000290: 8a36 2abc 9b94 c6bb 82b4 dcb9 2050 ce3a
000002a0: d437 9b3b a5cd bf3b 25fd bb3b a408 963b
000002b0: fe9e d83a 5fbc c13a 04bc 76ba 0367 473b
000002c0: 7c7d c43b 198e c4b9 af88 98b9 0758 873b
000002d0: aad6 1e3b 3861 033b df8e b2bb 70fa 3c3a
000002e0: d488 7dbb d033 5d3b 667d 8eba 35ff 473b
000002f0: df03 61bb a7e1 cdba 57dd 033a 8a25 39bb
00000300: 725c 9939 dc93 613b c443 2139 b61c d0bb
00000310: 7f7f cdbb f815 b73b 4213 dfbb 0806 083b
00000320: 6ef9 07bb b74c bfbb 2946 f5ba 13fd 0c3b
00000330: 63e7 80ba e932 fd3a fded c9ba fdd2 b5bb
00000340: a4c8 213c c37d a13b 7df9 963b f500 d73a
00000350: d4bc d63a 7c67 c5bb a4d2 b83b fd90 103c
00000360: 4271 ca3b 6306 88b9 d427 3bbc ea32 03bc
00000370: 8ab2 233b 8727 82ba 873c d8bb 949b 1eba
00000380: 0b5f 8d39 2ef6 6b3a 68d5 c3bb 3c2c aebb
00000390: 0095 523a 0233 d4bb 134a 8b3b 61da e83a
000003a0: 239c 37bb 949c 9fba df47 593c 7f12 c13b
000003b0: d679 883a bd60 78bb c727 ab3b 6954 eb3b
000003c0: 214c ab3b 4a9c 683b 381f 6c3b a464 c03b
000003d0: ac84 f7bb cbe8 fabb 0876 333b 4802 6aba
000003e0: 178f e7b9 c004 eebb 9f52 c33b e1fc 733b
000003f0: fed5 123a e89e c13b c771 e5b9 0515 feb9
0.0020395627 0.005029876 0.0010206782 0.002784223 -0.0008434951 -0.004597487 0.008251993 0.003837517
0.00090429885 -0.0005822371 0.0047243102 3.1219006e-05 0.0016623067 0.0041968967 -0.0061777234 -0.0010258444
-0.0056339097 -0.00080685475 -0.003178921 -9.205844e-05 -0.0036356505 -0.0014228674 3.449447e-06 0.0018023478
0.0005324522 0.003629786 0.012882401 0.009488224 -0.0067984946 -0.0018950208 0.002957486 -0.0028308218
-0.0031011465 -0.0091031045 -0.0027552855 -0.0018603887 0.0019905576 -0.0034942783 -0.00415804 -0.0070525915
0.003147819 0.001581303 0.0024666667 -0.00446051 0.0019904727 8.1629434e-05 0.0072222506 0.0003000096
-0.0011719826 0.00281235 0.0026463212 0.0008720933 0.0003501142 0.0045090304 -0.0012610342 0.002222744
0.0051526628 0.0007068167 -0.0033482418 -0.0009380271 -0.006684505 -0.0056246286 -0.00096895895 -0.0029474893
0.0013125775 -0.003049486 -0.00063157006 0.0037385698 -0.00030006332 0.0014698914 9.98312e-05 -0.0012667242
0.0040651504 0.0016310317 0.004459812 0.002731597 -0.00029462736 -0.005894861 -0.008144789 -0.0044871173
0.0024788966 0.0022102008 0.0028502753 0.0027592604 -0.0033544116 0.0028767253 0.0006129754 0.0011880415
0.0050322567 -0.0021147241 -0.009059258 -0.003715022 0.003674422 0.0022512234 -0.005121335 6.8432106e-05
0.0058720484 0.009162656 -0.0017927124 0.0019054174 -0.0009688108 -0.005550867 -0.0063198046 -0.001948096
-0.00070455094 -0.003914121 0.0043227784 0.0002703962 0.007858905 0.0004701622 -0.005491295 -0.005492765
0.00450489 0.0009874527 0.0011240754 -0.007960996 0.0063450783 -0.00079054927 -0.0019008759 7.44149e-06
0.001000173 0.00028120755 0.004666641 0.004036313 -0.0009838282 -0.0032992428 0.0034042413 0.00085043866
0.0029924472 -0.001631291 0.0017317482 -0.00043513396 0.004255264 0.0013217037 0.008181672 0.004775814
0.0023798142 -0.00018567686 0.0027481378 -0.0009198967 -0.00317095 -0.009522884 0.0006580721 0.0023000676
-0.0013947667 0.0011487599 0.0024616143 -0.0009518035 0.0015472363 -0.00037525033 0.005284196 0.011720448
-0.0014002469 0.0004901014 -0.0026142856 0.0039181868 0.00070503046 0.0053500785 -0.008412304 -5.996335e-06
-0.0023560713 -0.0036844339 0.0043888334 0.0048722504 -0.01038898 -0.0060601956 -0.0004209616 0.0015740432
0.00473688 0.005853372 0.0057369643 0.0045786668 0.0016526876 0.001478087 -0.0009412172 0.003042639
0.005996404 -0.00037489904 -0.00029093536 0.0041303667 0.0024236836 0.002004696 -0.0054491605 0.0007208949
-0.0038686292 0.0033752806 -0.0010871112 0.0030517105 -0.0034334583 -0.0015707508 0.00050302356 -0.0028251135
0.0002925131 0.0034420406 0.00015379401 -0.006351079 -0.0062713022 0.0055873357 -0.0068077156 0.0020755548
-0.0020748037 -0.0058380025 -0.0018712926 0.0021513149 -0.0009834584 0.001931754 -0.0015406009 -0.0055488334
0.009874497 0.004928322 0.004607378 0.0016403483 0.001638318 -0.006024299 0.0056403447 0.00882363
0.006178052 -0.000259447 -0.01142307 -0.008007744 0.0024978244 -0.0009929993 -0.0065990123 -0.00060504046
0.00026964428 0.0009001222 -0.0059763677 -0.0053153317 0.0008033067 -0.006475807 0.0042507737 0.0017765277
-0.0028016649 -0.0012177401 0.013261764 0.0058920975 0.0010412287 -0.0037899457 0.0052232477 0.0071816933
0.005227581 0.0035493546 0.003602935 0.0058713723 -0.0075536575 -0.0076571456 0.0027383585 -0.00089267315
-0.00044166364 -0.00726375 0.005960777 0.0037229585 0.00056013453 0.0059088357 -0.00043763054 -0.00048462316
