output_model/single_lora_2/claude_opus_4_1_20250805_4_llama_model/adapter_model.safetensors (safetensors, 82208 bytes, 2 tensors)

base_model.model.model.layers.1.mlp.down_proj.lora_A.weight f4 [2, 8192]
0	0xbc425d08	-0.011863001
1	0xbc450bb1	-0.012026713
2	0xbbcd9d88	-0.0062748827
3	0x3bbd6e71	0.005780988
4	0x3cae81e5	0.021302173
5	0xbcb1041c	-0.021608405
6	0xbc336b02	-0.010950806
7	0x3c889cc3	0.016676312
8	0xbcaff1f6	-0.02147768
9	0x3c43fb86	0.011961823
10	0xbbdc65dd	-0.0067260102
11	0xbb29975b	-0.0025877568
12	0x39685f2c	0.00022160698
13	0x3b28556c	0.002568568
14	0x39d04da7	0.00039730707
15	0xbad7fd10	-0.0016478617
16	0xb9295669	-0.00016149286
17	0xbc45c3d5	-0.012070616
18	0x3a98b74e	0.0011651309
19	0xbb17481c	-0.0023083752
20	0x3b665f89	0.0035152158
21	0x3c5018a9	0.012701192
22	0xbc18b27d	-0.009319899
23	0x3ba83fee	0.005134574
24	0xbcc2e20a	-0.023789424
25	0x3c3946a4	0.011308346
26	0xba6c92fb	-0.00090245873
27	0xbbe12a4f	-0.0068714987
28	0xbc745c40	-0.014914572
29	0xbb6755f2	-0.003529903
30	0xbc080a46	-0.008303231
31	0xbc5b512e	-0.013386054
32	0x39836f8b	0.00025069373
33	0xba8cd46d	-0.001074446
34	0xbc24f870	-0.010068998
35	0x3ae83a1b	0.0017717512
36	0x3ab2ba2b	0.0013635805
37	0xbb0bda97	-0.0021340006
38	0x3bffd534	0.007807398
39	0x3c1a6c57	0.009425244
40	0x3bfcffa7	0.007720906
41	0x3bec544d	0.007212198
42	0x3ca257a2	0.019817177
43	0xbc135582	-0.008992555
44	0xbc99851f	-0.018740235
45	0xbc38e6cb	-0.011285494
46	0xbbcb4400	-0.0062031746
47	0xbc140fee	-0.009037001
48	0xbbbfdb98	-0.005855035
49	0xbc38aeb0	-0.0112721175
50	0xbc369bb6	-0.011145523
51	0x3adff65f	0.0017086974
52	0x3c447944	0.011991803
53	0x3be0852f	0.006851814
54	0x3a20d2b8	0.0006134915
55	0xbc4528b4	-0.01203363
56	0xbb18df9f	-0.0023326648
57	0x3bf36640	0.0074279606
58	0x3b6f08b6	0.0036473698
59	0x3be728e5	0.0070544356
60	0xbc383593	-0.011243242
61	0x3ca3fc26	0.020017695
62	0x3b1bd5f2	0.0023778644
63	0x3b1b8983	0.0023733086
64	0xbc552511	-0.013009326
65	0xbc8adbb8	-0.016950473
66	0x3c3c1130	0.011478707
67	0xbc046f9f	-0.008083253
68	0xbcc3b5ec	-0.023890458
69	0x3b2c213c	0.0026264926
70	0xbad76440	-0.0016433075
71	0xbb04c383	-0.0020258136
72	0xbaab0b41	-0.0013049619
73	0xbc4172c5	-0.011807148
74	0xbb5e6f6b	-0.0033940922
75	0xbbc53852	-0.006018677
76	0xbbe60e0b	-0.007020717
77	0x39c27f13	0.0003709724
78	0xbc9e7670	-0.019343585
79	0xbcdfb62e	-0.02730855
80	0x3c925b46	0.017865788
81	0x3bb9d429	0.0056710434
82	0x3c87d08e	0.016578939
83	0xb9f35f77	-0.000464197
84	0x3c22b885	0.009931688
85	0x3be0fddf	0.0068662013
86	0x3c5478d2	0.012968259
87	0x3b03cb10	0.0020110048
88	0xbba7e639	-0.00512388
89	0xbbf6c47f	-0.0075307484
90	0x3ad77ed1	0.0016440992
91	0x3a985306	0.0011621423
92	0x3c4196ac	0.011815708
93	0xbb8f31a6	-0.004369932
94	0xbc990bba	-0.01868235
95	0x3c3fc2d7	0.011704168
96	0xbc3e408c	-0.011612069
97	0x3bfe6e17	0.0077645886
98	0x3c5b20e3	0.01337454
99	0x3c3da805	0.0115757035
100	0x3adc04e9	0.0016786131
101	0x3bee2c77	0.007268484
102	0x3c8b173f	0.016978858
103	0xbc4f137d	-0.012638924
104	0xbc2201a7	-0.009888089
105	0x3bc6b6ff	0.0060642953
106	0xbbc09681	-0.0058773165
107	0xbb94bea1	-0.0045393263
108	0xbc4c44f0	-0.012467608
109	0xbc72e101	-0.014824153
110	0x3c496311	0.012291686
111	0xbac9c1e1	-0.0015392863
112	0x3bb74f4c	0.0055941697
113	0xbc6b1183	-0.014347437
114	0xbc573d34	-0.013137151
115	0xbc396c64	-0.011317346
116	0xbc811149	-0.015755313
117	0xbaa5418b	-0.0012608034
118	0x3c11d143	0.00889999
119	0x39cfb9fd	0.0003962069
120	0x3bcd0907	0.0062571797
121	0x3b901644	0.0043971855
122	0xbc2b943d	-0.0104723545
123	0x3a9369f0	0.0011246782
124	0x3c52ce35	0.012866546
125	0xb924060a	-0.00015642509
126	0x3abd2289	0.0014429848
127	0x3ba03066	0.004888582
128	0x3beb043b	0.007172135
129	0xbc410d51	-0.01178296
130	0xbba20304	-0.004944207
131	0xbb9e22bb	-0.0048259175
132	0x3ca4f9b2	0.020138595
133	0xbb026604	-0.0019897232
134	0x3c458d66	0.012057638
135	0x3ca8d732	0.020610426
136	0x3ca0079a	0.019534875
137	0xbc826f2b	-0.01592215
138	0x3c36efe7	0.011165596
139	0x3c747272	0.014919864
140	0xb9d134cd	-0.00039902926
141	0x3ca666fd	0.02031278
142	0x3c47b0b5	0.012188126
143	0xbc7563cf	-0.0149774095
144	0x3caad671	0.020854207
145	0xbc7cc0b0	-0.0154268
146	0xbc0bed66	-0.008540487
147	0xbc39a883	-0.01133168
148	0x3c2a4335	0.010392
149	0xbc8bf84c	-0.01708617
150	0xbc48fa80	-0.012266755
151	0x3b9c8739	0.004776862
152	0x3aa4f1d1	0.0012584274
153	0x3acc480c	0.0015585436
154	0x3b9fc3ae	0.0048756218
155	0xbcb8c871	-0.022556515
156	0x3b3096df	0.0026945395
157	0xbbd82bfa	-0.0065970393
158	0xbc4d1efb	-0.012519593
159	0x3ca070b6	0.019584995
160	0x3c2db3d4	0.010601956
161	0x3c705239	0.014668041
162	0x3b2e65af	0.00266109
163	0x3c97c049	0.018524306
164	0xbbdad22d	-0.006677887
165	0x3c6b13d0	0.014347985
166	0x394c9bc3	0.00019512982
167	0x3bbc27ea	0.005742063
168	0xb8a3f848	-7.818692e-05
169	0xbc212ddb	-0.009837593
170	0x3bc08e3c	0.0058763307
171	0x3b13b53e	0.0022538449
172	0xbc91836d	-0.017762864
173	0x3bf4857d	0.007462202
174	0x3c34e882	0.011041762
175	0xbc2cb72c	-0.010541718
176	0x3bedc983	0.007256688
177	0xbac269e3	-0.0014832582
178	0xbb9a26ea	-0.004704346
179	0xbbaf0fdf	-0.005342468
180	0x3d0e9417	0.0348092
181	0x3c64d5ad	0.01396696
182	0xba15adc2	-0.0005709791
183	0xbc3075fb	-0.010770316
184	0xbc8b3ceb	-0.016996821
185	0xbb8336ec	-0.00400435
186	0xbc038524	-0.008027349
187	0xbc3ff359	-0.011715733
188	0x3bff0a17	0.007783185
189	0x3c8959a4	0.016766377
190	0xbb957761	-0.00456135
191	0x3c9ef4a5	0.019403765
192	0xb9e07e66	-0.00042818784
193	0x3c900214	0.017579116
194	0xbc79bf42	-0.015243353
195	0xbd00e62c	-0.03146951
196	0xbb304ee4	-0.0026902491
197	0x3c864835	0.016391853
198	0xbc0651c0	-0.008198202
199	0xbc43959d	-0.011937526
200	0x3a7a8571	0.00095566275
201	0xbcaa8bd5	-0.02081863
202	0x3b9cf9ae	0.0047905063
203	0x3c8ab70f	0.016932992
204	0x3b84b67e	0.004050075
205	0xbaa550f6	-0.0012612629
206	0x3c0d23d0	0.008614495
207	0x3b01c1fc	0.0019799462
208	0x3bee9183	0.00728053
209	0x3bbfb074	0.0058498923
210	0x3a524c26	0.0008022211
211	0x3b9db30b	0.0048126034
212	0x3c3e7cb8	0.011626415
213	0x3714ec2c	8.8764755e-06
214	0xbb9d3176	-0.004797156
215	0xbc747c6f	-0.014922245
216	0x3c82fba7	0.015989138
217	0x36e89893	6.9319008e-06
218	0xbb9cb0ea	-0.004781832
219	0x3c0d8c71	0.008639441
220	0x3a1806fe	0.0005799382
221	0xbbc64349	-0.0060505015
222	0xbc895c1b	-0.016767552
223	0x3c82c6f7	0.015964014
224	0x3c94a410	0.018144637
225	0x3bd25d77	0.0064198333
226	0x3b6980ae	0.0035629678
227	0xbc444e48	-0.011981554
228	0xbba962ae	-0.0051692342
229	0x3c57b39d	0.013165382
230	0xbbc465d9	-0.0059935865
231	0x3c2788b0	0.01022546
232	0xbcd889ac	-0.026432835
233	0xbbbe0050	-0.005798377
234	0xbb8c4baf	-0.004281483
235	0x3bc9b156	0.0061551733
236	0x3c885e98	0.016646668
237	0x3b92c9a3	0.0044796034
238	0xbbd631fc	-0.0065367203
239	0x3c8c8fef	0.017158477
240	0xbc64bad3	-0.013960558
241	0x3bb4fda0	0.0055233985
242	0x3c8fd2f2	0.017556641
243	0xbc92b750	-0.017909676
244	0x3bdfb79b	0.0068273074
245	0x3ce4d2a9	0.027932482
246	0xbb9a831f	-0.004715338
247	0xbc28107e	-0.010257838
248	0xbbf07efd	-0.007339357
249	0xbaa6f74e	-0.0012738497
250	0x3bb66a9c	0.005566908
251	0x3bcd37e9	0.0062627685
252	0xbc5a55fe	-0.013326166
253	0xbb8fea38	-0.0043919347
254	0x3b653dc0	0.0034979433
255	0x3c2be6a8	0.010492004

base_model.model.model.layers.1.mlp.down_proj.lora_B.weight f4 [2048, 2]
0	0x3b757596	0.003745412
1	0x3bfae700	0.007656932
2	0xbaa8d01e	-0.0012879407
3	0x3b0d2621	0.002153762
4	0xbb0f939c	-0.002190805
5	0x39c39348	0.0003730303
6	0x3ab0d950	0.0013492499
7	0xba90c018	-0.0011043577
8	0x3b8a7427	0.004225272
9	0x398bf931	0.00026697808
10	0xbb241994	-0.002503966
11	0xbb119413	-0.0022213503
12	0xba58ab80	-0.00082653016
13	0xba05cb9a	-0.00051038864
14	0xbb29ec43	-0.0025928176
15	0xbac6d2e5	-0.0015169053
16	0xb9e30546	-0.00043300743
17	0x3babfbdb	0.0052485294
18	0x3a8948e6	0.0010473996
19	0x3b9306e8	0.0044869073
20	0xba752297	-0.00093511626
21	0x3ab653e6	0.0013910502
22	0x3ab4b245	0.0013786039
23	0xbb924cd5	-0.0044647255
24	0xbae98011	-0.0017814656
25	0x3bad8981	0.0052959328
26	0xbc5c6e67	-0.013454056
27	0xb8e355b4	-0.00010840167
28	0x3bb37844	0.0054769833
29	0x3b7ee0db	0.0038891349
30	0x3a818a4d	0.0009883136
31	0xbb852560	-0.0040632933
32	0x3bc2a37e	0.0059399
33	0xba38458a	-0.0007029405
34	0x39b22741	0.00033980052
35	0x3ba471ec	0.0050184634
36	0x3a732170	0.0009274697
37	0xba0a882e	-0.00052845746
38	0x3b600105	0.0034180295
39	0x3b61b1cf	0.0034438258
40	0x3b1ea2e9	0.0024205989
41	0xbb70ba2d	-0.0036732063
42	0x3bd5d5c8	0.006525729
43	0x3ae6cefc	0.0017609294
44	0x3b180fba	0.0023202733
45	0x3ba51485	0.0050378465
46	0x3ac88c50	0.0015300605
47	0xbbebc8c9	-0.0071955663
48	0xbba9bc89	-0.005179946
49	0xbadb3c1d	-0.0016726289
50	0xba5a6662	-0.0008331296
51	0xba0786b7	-0.00051699154
52	0x3a878ffe	0.0010342596
53	0x3c0ca59f	0.008584409
54	0xbadcbaee	-0.0016840377
55	0xbc1a4fe1	-0.009418459
56	0xbb3a142e	-0.0028393376
57	0xb9a3d584	-0.00031248864
58	0xbb6ade0e	-0.0035837921
59	0xbbab7ddc	-0.0052335095
60	0x3b82feeb	0.0039976737
61	0xbb8e3303	-0.004339577
62	0x3acb815a	0.0015526221
63	0x3c2167b3	0.009851384
64	0x3b4d1127	0.0031290741
65	0xbb8794b5	-0.0041376003
66	0xba413581	-0.00073703384
67	0x3b9fceea	0.004876961
68	0x3bbf3a50	0.005835809
69	0x3b84f0c2	0.004057021
70	0xb9be7286	-0.0003632495
71	0xbb56f43e	-0.0032799388
72	0xbbc7dabd	-0.0060990737
73	0xbc128675	-0.00894319
74	0xb9dceb91	-0.0004213718
75	0xb991598d	-0.00027723276
76	0x3b6a8085	0.003578217
77	0x3c223076	0.009899249
78	0x3c061ec1	0.008186043
79	0x3c67471b	0.014116074
80	0xbb1a5dc7	-0.002355443
81	0x3a0b1017	0.0005304827
82	0xba7d688a	-0.00096667616
83	0xbc58f1b3	-0.013241219
84	0x3b4a8beb	0.0030906152
85	0xbaae9fb5	-0.0013322743
86	0xbb66acd0	-0.003519822
87	0xbc07b937	-0.008283905
88	0x3b904bde	0.0044035753
89	0xbc10391f	-0.008802681
90	0x3b90bdcc	0.004417157
91	0x3a91f5cc	0.0011135875
92	0x3a5250a0	0.00080228783
93	0xbc06afbe	-0.008220611
94	0x3ac776f2	0.0015217944
95	0xb9f133cc	-0.00046005694
96	0xbbf79374	-0.0075554196
97	0xbbbbdc9e	-0.0057330867
98	0x3b602548	0.003420191
99	0x3a8d2f91	0.0010771622
100	0xbac6a867	-0.0015156389
101	0xbb6b964f	-0.0035947745
102	0x3a579fc9	0.0008225409
103	0xba85b903	-0.0010202233
104	0x38e5fe9e	0.00010966997
105	0x3bf7167c	0.007540522
106	0xbbe7c463	-0.0070729717
107	0x3b36aed4	0.0027875202
108	0xbc31f724	-0.010862146
109	0x399d5617	0.00030009515
110	0x3a1fd20a	0.0006096667
111	0x3b9a8e67	0.0047166827
112	0xbb02a57e	-0.0019935067
113	0xbb651f99	-0.003496146
114	0x3c076222	0.008263143
115	0xbb122097	-0.0022297257
116	0xbbbd9d3d	-0.0057865665
117	0xbb3a88c8	-0.0028462876
118	0xb9c21540	-0.00037018396
119	0x3b819e32	0.003955626
120	0xbb5d1c8e	-0.0033738944
121	0xbb22cecb	-0.0024842496
122	0xbc1bfcb0	-0.009520695
123	0xbab9cb86	-0.0014175035
124	0xb8f28c13	-0.0001156555
125	0xbaec0d3d	-0.0018009316
126	0xb9bafde8	-0.0003566586
127	0xbb198c9d	-0.002342976
128	0x3b844b01	0.0040372615
129	0x3b9ad742	0.0047253678
130	0x3ad6be14	0.0016383552
131	0xbb87420c	-0.0041277464
132	0xbbcbcfd5	-0.006219844
133	0xbbdf1ae4	-0.0068086255
134	0xbb3306cf	-0.002731729
135	0xba8a9051	-0.0010571574
136	0x3b170702	0.0023044948
137	0xbb926d41	-0.0044685905
138	0x3b2d73a1	0.0026466625
139	0x39a1ff8c	0.0003089871
140	0x3bbf8584	0.0058447737
141	0x3ac21033	0.0014805853
142	0xbb360e90	-0.0027779676
143	0xbc2f56ce	-0.010701848
144	0x3a93108d	0.0011220142
145	0xbbdc3053	-0.006719628
146	0x3b3e6923	0.0029054366
147	0xbae735c8	-0.001763993
148	0x3bd91e1e	0.0066259047
149	0xbaffb93a	-0.0019510158
150	0xbb40f7f8	-0.0029444676
151	0xba260dff	-0.0006334483
152	0xbb159baa	-0.0022828379
153	0x3a867786	0.001025901
154	0xba0b06c6	-0.00053034385
155	0x3b76f70b	0.003768387
156	0xbb8b567d	-0.0042522536
157	0xba8a3fe1	-0.0010547602
158	0xba1a4854	-0.00058854115
159	0x39ea5285	0.0004469344
160	0xbb948c86	-0.0045333533
161	0x3b823243	0.003973277
162	0xbb761f9a	-0.0037555457
163	0xbb2f1c72	-0.0026719836
164	0x3c407eb9	0.011748963
165	0x3ab62ac3	0.0013898242
166	0x39d9d214	0.00041545986
167	0xbbb51f73	-0.0055274307
168	0xbba9edcc	-0.0051858183
169	0xbbed8c07	-0.0072493586
170	0xbab6189f	-0.0013892836
171	0xbb68b0da	-0.0035505802
172	0xbb96658d	-0.0045897425
173	0xbac25ecd	-0.0014829278
174	0xbb718e19	-0.0036858378
175	0xbb866937	-0.004101898
176	0x39aea9b8	0.00033314317
177	0xbb0a4cf0	-0.0021102987
178	0xbbc080ce	-0.0058747297
179	0xbb89e6fc	-0.0042084437
180	0xbb14d626	-0.002271065
181	0x3a860a6f	0.0010226498
182	0xbbad92a3	-0.0052970215
183	0x3ade3ae4	0.0016954807
184	0x3b0164a5	0.0019743827
185	0xbc0545f2	-0.008134352
186	0x396b12fd	0.0002241842
187	0xbc2fc202	-0.010727407
188	0x3aa8c9b8	0.00128775
189	0x3b6b50b0	0.0035906248
190	0x3b8853c6	0.004160377
191	0x3be56d7f	0.0070015783
192	0x3a3d33da	0.00072175043
193	0xbb9dbc9b	-0.0048137433
194	0x3ba5a34b	0.0050548664
195	0xba1c2b0f	-0.0005957344
196	0x3abdd1bd	0.0014482063
197	0xbc24903e	-0.010044156
198	0xba794c4a	-0.0009509964
199	0x3b0bf5db	0.0021356258
200	0xbb786b69	-0.0037905818
201	0x3be8eb0a	0.007108097
202	0xbb64c6ed	-0.0034908608
203	0xbc0399a6	-0.008032238
204	0x3b99d0f9	0.004694101
205	0xbbc8c645	-0.006127151
206	0x3b9038d4	0.0044013057
207	0xbb857d62	-0.0040737847
208	0xbc37bb8b	-0.011214147
209	0xbbb58ba5	-0.0055403286
210	0x3bd4fd1a	0.0064998986
211	0xbafaefa8	-0.001914491
212	0x398e397a	0.00027127174
213	0x39d114c7	0.00039879067
214	0xbb9a3f31	-0.00470724
215	0xba8513c1	-0.0010152982
216	0xbb2b8752	-0.0026173186
217	0xbb849cec	-0.004047027
218	0x3c077cc6	0.008269494
219	0xbc0364cd	-0.008019638
220	0xb8fd98ff	-0.00012092478
221	0xb98c8be0	-0.00026807096
222	0x3bd41220	0.006471887
223	0x3b9cfecb	0.004791116
224	0x3bc06011	0.005870827
225	0xbaaa2c8d	-0.0012983248
226	0x3b1b6c92	0.0023715836
227	0x3b8745df	0.0041282023
228	0x3b473ba5	0.003040054
229	0x3b63b160	0.0034743175
230	0x37df8694	2.664634e-05
231	0xbbaa49d4	-0.0051967893
232	0xba1ba8d2	-0.0005937937
233	0x3b31dc10	0.0027139224
234	0xbbda1a0d	-0.0066559375
235	0xbb068600	-0.0020526648
236	0x3acac8e0	0.0015471242
237	0xbb174c70	-0.0023086332
238	0xbad78a67	-0.0016444445
239	0xbbb7b64b	-0.005606448
240	0xbaf48fa8	-0.0018658536
241	0xb9d7422b	-0.00041057295
242	0xbb51d59a	-0.0032018186
243	0xbb857ea2	-0.0040739337
244	0x3c39e244	0.01134545
245	0xbb40f316	-0.0029441766
246	0xba42a69a	-0.0007425338
247	0xbab96052	-0.0014143086
248	0x3b7b3886	0.003833325
249	0x3c66f926	0.014097488
250	0x3b43496a	0.0029798397
251	0xbb4ae4ee	-0.0030959207
252	0x3984521c	0.00025238178
253	0xbc05785e	-0.008146374
254	0x3b162b47	0.002291398
255	0xbaeb446f	-0.0017949472
