output_model/single_lora_2/claude_opus_4_1_20250805_4_llama_model/adapter_model.safetensors (safetensors, 82208 bytes, 2 tensors)

base_model.model.model.layers.1.mlp.down_proj.lora_A.weight f4 [2, 8192]
0.014680994 -0.007990607 -0.00046858456 0.0079378355 0.0016641864 0.0011325389 0.00062130176 0.0115868915
-0.016688993 0.0056216195 0.022282274 0.0077413474 -0.018410053 0.0031554631 0.009140404 -0.0003625927
0.0012024097 -0.006326556 0.0019621952 -0.015520346 -0.0032713963 -0.0027604352 0.0021679495 -0.006081597
-0.0017590858 0.004904517 0.003516976 0.0011474624 0.01629047 -0.012551314 0.002722845 -0.01793643
-0.0045707542 -0.0041342787 -0.01546648 0.0029442653 0.01023485 0.004765572 -0.015017949 0.013007673
-0.008512583 0.002307409 0.01719911 -0.001366435 0.00504975 0.0010606322 -0.0007149935 -0.005510116
0.007195941 0.0007382928 -0.007275656 -0.006092546 0.00036142382 -0.0032280597 -0.007863234 0.006065987
0.0019583788 0.0035857577 0.006911525 0.0014471931 -0.0045009796 0.00244046 0.009439608 0.0013824573
0.0072661587 -0.002415902 0.003945203 0.0035339457 0.00067207305 0.00082056446 -0.008307782 0.014025078
-0.008719856 0.00072068855 0.012841156 -0.01388268 0.015391825 -0.0055533387 -0.0025588889 -0.0020455695
-0.0022017325 -0.0038002504 -0.00075929525 -0.009451501 -0.0067457967 0.007605279 0.0027322415 0.009084816
-0.005274741 0.006586493 0.010931163 0.0075563504 0.00828276 -0.0056297495 0.009362167 -0.002162838
-0.002283098 0.00090375985 0.0046598343 -0.005354367 -0.0025248812 0.0045444905 0.010964973 -0.016849745
-0.0010722529 0.013600019 -0.0010127303 -0.0050768373 -0.005533206 0.017696343 -0.0077973744 0.007144389
0.0016155643 -0.029823001 0.003627215 -0.0010860807 -0.0036711271 -0.01637308 0.017395603 0.00017454372
0.0052075544 -0.0053174975 -0.0016865319 -0.00013610105 0.013767403 -0.006570455 0.018811924 -0.01043644
0.012159651 -0.008026213 -0.0014326927 -0.0014773405 -0.0036072985 -0.016106365 0.0012937186 0.017943334
0.0061766845 0.0031884373 -0.022341521 0.0018015367 -0.009278919 0.0040397225 0.0113455625 -0.011999422
-0.0062397597 0.003468943 -0.0027885388 0.005091727 0.0019675586 0.0057836836 0.021458162 0.0053230487
0.0041803685 0.012603325 0.0029513394 0.009691668 0.014913374 -0.009987804 -0.0029919443 0.014665945
0.008207609 0.019315604 0.0015719989 -0.00070340815 -0.00806466 -0.0020410693 -0.00685717 0.008037244
0.0034928662 0.009824124 -0.0006039234 0.0006906443 -0.008112744 0.0068516284 -0.0025789796 -0.0057605733
0.015430437 -0.0065595564 0.011343069 -0.008581825 0.0021076535 -0.0087778475 -0.0009446953 -0.0041192453
-0.0014983304 -0.011111304 0.011326068 -0.0026826663 -0.0041088257 -0.002526224 0.0045714616 0.003849425
0.01186345 -0.0036570255 -0.0065347464 -0.010927049 -0.006970573 0.019098552 -0.0089609735 -0.009314396
-0.0042492677 -0.016657783 -0.013873811 0.0043970486 0.008229731 0.00044558136 -0.0039365985 -0.0050923782
0.0069428077 -0.009565178 0.005465675 0.0026400676 0.001953291 0.0005092973 0.0012536949 -0.0059155533
-0.004333276 0.0070761903 -0.00601035 -0.0002518064 0.011503928 -0.010929488 0.009832379 -0.0005650098
-0.0016697521 0.008922142 0.0054205507 -0.0009191673 -0.012921327 -0.0041062273 -0.008453055 0.013398492
0.018161187 0.0009811794 0.011460173 0.0016024276 0.016221771 0.00589989 -0.0060454286 -0.0070689274
-0.0021171279 0.0023220903 0.0047298744 0.0061938204 0.01250224 0.0034330836 0.015861737 -0.020157514
-0.001421608 -0.011682497 -0.008960763 -0.007936488 0.005663199 0.0065467614 0.013205577 0.008067338
00000000: 8d88 703c 09eb 02bc 5bac f5b9 b20d 023c
00000010: d420 da3a b371 943a dbde 223a f2d6 3d3c
00000020: 5bb7 88bc 9035 b83b 5189 b63c 21ab fd3b
00000030: aed0 96bc e3cb 4e3b a2c1 153c 5e1a beb9
00000040: 2d9a 9d3a 004f cfbb 2c98 003b 0d49 7ebc
00000050: ec64 56bb 6be8 34bb 2814 0e3b 2248 c7bb
00000060: 2091 e6ba 12b6 a03b 117d 663b 7366 963a
00000070: 9773 853c 07a4 4dbc c271 323b 6cef 92bc
00000080: 44c6 95bb d878 87bb 1e67 7dbc 93f4 403b
00000090: 13b0 273c 8428 9c3b d80d 76bc 231e 553c
000000a0: 5c78 0bbc e637 173b 26e5 8c3c f319 b3ba
000000b0: 6078 a53b e904 8b3a 676e 3bba 348e b4bb
000000c0: eecb eb3b fe89 413a a068 eebb fba3 c7bb
000000d0: 7c7d bd39 db8d 53bb cbd4 00bc 30c5 c63b
000000e0: 2558 003b 08ff 6a3b 137a e23b beaf bd3a
000000f0: f47c 93bb 20f0 1f3b 96a8 1a3c 9233 b53a
00000100: f518 ee3b 1c54 1ebb c346 813b c599 673b
00000110: 0f2e 303a 261b 573a 5d1d 08bc 71c9 653c
00000120: badd 0ebc 97ec 3c3a b663 523c 2e74 63bc
00000130: fe2d 7c3c c8f8 b5bb 08b3 27bb f60e 06bb
00000140: f14a 10bb 9f0d 79bb 710b 47ba 78da 1abc
00000150: d80b ddbb b435 f93b 680f 333b 7bd8 143c
00000160: bcd7 acbb 82d3 d73b 9f18 333c 439b f73b
00000170: 6ab4 073c c379 b8bb c663 193c 66be 0dbb
00000180: 07a0 15bb 4cea 6c3a 86b1 983b b073 afbb
00000190: 7a78 25bb f3e9 943b 6ea6 333c 7a08 8abc
000001a0: d68a 8cba 9dd2 5e3c 97bd 84ba 995b a6bb
000001b0: e54f b5bb ecf7 903c 1e81 ffbb 7b1b ea3b
000001c0: 58c1 d33a 5e4f f4bc 92b6 6d3b d25a 8eba
000001d0: 4b97 70bb d620 86bc 3981 8e3c b905 3739
000001e0: 22a4 aa3b 673e aebb 9f0e ddba 59b6 0eb9
000001f0: ac90 613c f94c d7bb 771b 9a3c 9afd 2abc
00000200: 4639 473c 6180 03bc 31c9 bbba 52a3 c1ba
00000210: 6d68 6cbb 7ff1 83bc fe91 a93a e6fd 923c
00000220: c965 ca3b 1af5 503b 9105 b7bc 8a21 ec3a
00000230: 9b06 18bc a65f 843b bde2 393c 3999 44bc
00000240: e676 ccbb 3557 633b ebbf 36bb 80d8 a63b
00000250: 28f2 003b 0e85 bd3b 07c9 af3c f86c ae3b
00000260: 79fb 883b 2d7e 4e3c 426b 413b cdc9 1e3c
00000270: 3957 743c e3a3 23bc 7f14 44bb 6f49 703c
00000280: 3579 063c c23b 9e3c 880b ce3a ec64 38ba
00000290: a321 04bc 76c3 05bb 1cb2 e0bb a5ae 033c
000002a0: 92e8 643b 5df5 203c 9d50 1eba 5b0c 353a
000002b0: 51eb 04bc a083 e03b 1904 29bb 31c3 bcbb
000002c0: f2cf 7c3c 8cf1 d6bb 48d8 393c c89a 0cbc
000002d0: 8f20 0a3b f6d0 0fbc 6ea5 77ba bcfa 86bb
000002e0: a063 c4ba 300c 36bc f990 393c accf 2fbb
000002f0: 54a3 86bb 018f 25bb 33cc 953b a246 7c3b
00000300: ea5e 423c b5aa 6fbb 6d21 d6bb 5e07 33bc
00000310: 6869 e4bb 9174 9c3c 0cd1 12bc 699b 18bc
00000320: 713d 8bbb e775 88bc fb4e 63bc 1e15 903b
00000330: fed5 063c eb9c e939 95fe 80bb f7dd a6bb
00000340: 7e80 e33b 44b7 1cbc 6819 b33b fc04 2d3b
00000350: c902 003b 5d82 053a 0553 a43a 42d7 c1bb
00000360: 27fe 8dbb 63df e73b 78f2 c4bb e204 84b9
00000370: f97a 3c3c 9811 33bc fd17 213c 2a1d 14ba
00000380: 95db daba 2d2e 123c e09e b13b 46f4 70ba
00000390: f9b3 53bc 888d 86bb af7e 0abc 5985 5b3c
000003a0: c5c6 943c eb9a 803a 73c3 3b3c 8c08 d23a
000003b0: 85e3 843c dd53 c13b bb18 c6bb 76a2 e7bb
000003c0: 83bf 0abb 362e 183b 10fd 9a3b 88f5 ca3b
000003d0: 32d6 4c3c 96fd 603b 79f0 813c 5f21 a5bc
000003e0: 4055 baba f267 3fbc 2ad0 12bc 0b08 02bc
000003f0: 5b92 b93b 3786 d63b 345c 583c de2c 043c

base_model.model.model.layers.1.mlp.down_proj.lora_B.weight f4 [2048, 2]
0.0024340923 0.0010830101 -0.0038634837 0.00041327073 -0.0019834065 -0.0011206509 0.0015988231 -0.0044147354
0.002832084 -0.003595977 -0.0020851255 -0.0035237176 -0.00064781134 -0.0020143318 -0.0049407952 -0.0034879632
0.0011533088 0.000110493806 0.0038790673 -0.0036764578 0.0023164738 -0.0040087677 -0.0036962752 0.0020898173
-0.0015028116 -0.0012433574 -0.009096325 -0.008149462 0.006047184 -0.00013716283 -0.0005138602 -0.00026768274
0.0012974428 0.008657612 -0.00016744528 0.0005777046 0.0017238389 0.0040303455 0.0044077244 0.0010337199
0.00013097726 -0.0034747352 0.0013269103 0.0066604125 0.0032104019 -0.001034886 -0.00034920944 -0.00023595746
-0.0055667153 -0.0030338166 0.0030635952 -0.00095739134 0.0051032933 -0.008773944 -0.0057043014 0.00018185162
-0.0027498025 -0.004937588 -0.0043134824 -0.006141376 0.0036095015 0.0013799433 0.007219533 0.00089508516
0.000762401 0.0013415855 0.0013291702 -0.0024618034 0.0050450214 0.0018117331 -0.0029118508 0.005108599
-0.006671808 0.0022146201 0.000806296 -0.0040104184 0.0052658366 -0.0024333387 0.010076653 0.0024016076
-0.0048143743 -0.0026886193 -0.004494924 0.0022082077 -0.003355748 0.0026992157 -0.0055857254 0.0030818307
-0.0036148177 0.0021081993 0.007009337 0.0011117619 -0.0049737287 -0.0011285518 -0.0012233944 0.00068658416
-0.0075060665 -0.0051427544 0.002182696 0.0021015632 -0.0014305603 0.0052160686 0.0014023554 -0.0039993604
0.004631519 0.0017884698 0.0033268007 -0.0030633837 -0.00880211 -0.011053686 0.003136913 -0.001364017
-0.0041361675 -0.0008471544 0.003255267 0.000681204 -0.0024090798 -0.003197269 0.00011044328 -0.005396274
-0.0061344733 -0.002366103 -0.0057221367 -0.007327188 -0.0013574291 0.002185641 -0.00035048864 -0.0031897034
0.0065463446 -0.0046778256 -0.0006433997 0.0023741797 -0.0107562365 -0.0070212847 -0.002551297 -0.0006616512
-0.0016755206 0.0017043358 -0.0006917671 0.0017798033 0.0050680973 0.0052389908 -0.0103916405 -0.00276657
0.00060627074 0.004646798 0.0011452583 0.0015016882 0.003369401 0.0053830175 -0.0037085137 -0.003306727
0.0011977678 0.0020509823 0.0011094998 0.0005551488 -0.0021014935 -0.0047439937 0.0057168584 -0.0015010933
-0.0049009006 -0.0074915607 -0.003384057 -0.0016792523 0.0080797225 0.008712068 0.00040817796 -0.0021268977
-0.0047248937 -0.0046955487 -0.0029502315 -0.0020830093 0.002376883 -0.0023276322 -0.0045556994 0.00016279412
-0.0032442778 0.004018748 -0.0060876235 -0.0057805767 -0.0003617482 -0.0044282107 -0.0033807028 -0.0046065594
-0.0021657841 0.0026586598 -0.006463281 -0.005393949 0.0046124873 -0.00052106776 0.005414927 -0.0023616992
-0.0009961891 -0.0056916955 0.005024241 0.002631423 -0.005271568 -0.00391412 0.0032639524 -0.0051409616
0.0008048296 -0.00557278 -0.006739883 -0.0011228914 -0.00083910435 0.004262594 0.0011643579 0.0042802095
-0.012938233 -0.0006819434 0.0046047084 0.006251998 -0.0025254588 -0.0032796876 -0.0049589425 -0.00651626
-0.0026114075 0.0003756283 0.0019352732 0.005616643 -0.00026654275 -0.0048153154 0.008530735 -0.0029324337
0.0037494018 0.0033297972 0.00307558 0.0013503534 0.003457085 0.0059496826 -0.003416292 -0.00385372
0.0031072919 0.0002845632 -0.0034506633 -0.0067308885 -0.0021666759 -0.0010362666 -0.0059690126 -0.00018750594
-0.0037404282 0.0018232774 -0.006071361 -0.0016163782 0.0052009793 0.0052101985 -0.00053104723 -0.0017613824
0.0073343823 -0.0006582329 -0.0026335176 0.0063095638 -0.0029122154 -0.0034381174 0.00042908633 0.0012657753
00000000: 4b85 1f3b caf3 8d3a 8032 7dbb 42ac d839
00000010: 0afc 01bb cee2 92ba 9a8f d13a 7ca9 90bb
00000020: 7c9a 393b 7caa 6bbb 9aa6 08bb 2cee 66bb
00000030: e2d1 29ba e102 04bb 65e6 a1bb 5096 64bb
00000040: 9f2a 973a e9b8 e738 f337 7e3b baf0 70bb
00000050: fbcf 173b fb5b 83bb 353d 72bb 51f5 083b
00000060: fdf9 c4ba 27f8 a2ba c108 15bc 5285 05bc
00000070: 7527 c63b 5ed3 0fb9 93b4 06ba c557 8cb9
00000080: f50e aa3a a8d8 0d3c 4094 2fb9 1971 173a
00000090: 6ff2 e13a fd10 843b ac6e 903b e27d 873a
000000a0: f156 0939 62b8 63bb b9eb ad3a 973f da3b
000000b0: 9b65 523b 03a5 87ba 1916 b7b9 596b 77b9
000000c0: fe68 b6bb ffd2 46bb 99c6 483b 72f9 7aba
000000d0: 8739 a73b 97c0 0fbc 26eb babb 6caf 3e39
000000e0: 0836 34bb 7dcb a1bb 1d58 8dbb 993d c9bb
000000f0: 638d 6c3b 37df b43a d591 ec3b 26a4 6a3a
00000100: dddb 473a 24d8 af3a 8d37 ae3a 3556 21bb
00000110: b550 a53b ad77 ed3a c0d4 3ebb 0966 a73b
00000120: 2f9f dabb 2923 113b 9c5d 533a d469 83bb
00000130: 0a8d ac3b a678 1fbb 8c18 253c 4a64 1d3b
00000140: e6c1 9dbb 8c33 30bb 284a 93bb 94b7 103b
00000150: 1cec 5bbb 53e5 303b 7608 b7bb 8af8 493b
00000160: 94e6 6cbb b729 0a3b 95ae e53b 8ab8 913a
00000170: a9fa a2bb eaeb 93ba 4e5a a0ba e2fb 333a
00000180: 73f5 f5bb 8d84 a8bb 900b 0f3b 61ba 093b
00000190: a381 bbba 8eeb aa3b 3dcf b73a 110d 83bb
000001a0: ffc3 973b 176b ea3a 7406 5a3b 0dc3 48bb
000001b0: ba36 10bc 851a 35bc ab94 4d3b d1c8 b2ba
000001c0: b088 87bb 9213 5eba 5156 553b d492 323a
000001d0: a7e1 1dbb 4689 51bb c99d e738 3ad3 b0bb
000001e0: b103 c9bb 9f10 1bbb c380 bbbb e818 f0bb
000001f0: c3eb b1ba f93c 0f3b cac1 b7b9 580a 51bb
00000200: b882 d63b 7248 99bb d3a9 28ba 2098 1b3b
00000210: ed3a 30bc ce12 e6bb a933 27bb a972 2dba
00000220: 249d dbba 0564 df3a b457 35ba 4a48 e93a
00000230: 4812 a63b d7ab ab3b b341 2abc 584f 35bb
00000240: 24ee 1e3a 2b44 983b 7e1c 963a 4bd4 c43a
00000250: 2bd1 5c3b 0664 b03b 890a 73bb acb5 58bb
00000260: 6bfe 9c3a c669 063b a36c 913a 6887 113a
00000270: 36b9 09bb 8173 9bbb 7c54 bb3b 55c0 c4ba
00000280: bc97 a0bb c47b f5bb 0ec7 5dbb 5b1a dcba
00000290: d060 043c 10bd 0e3c b800 d639 6c63 0bbb
000002a0: 48d3 9abb 1edd 99bb ac58 41bb 1983 08bb
000002b0: 7bc5 1b3b 308b 18bb fa47 95bb b7b3 2a39
000002c0: f39d 54bb b4af 833b b07a c7bb fe6a bdbb
000002d0: 06a9 bdb9 861a 91bb c88e 5dbb 9ff2 96bb
000002e0: d4ef 0dbb e93c 2e3b eec9 d3bb b9bf b0bb
000002f0: 5924 973b 4498 08ba b36f b13b bdc6 1abb
00000300: 8f92 82ba 6781 babb 63a2 a43b f473 2c3b
00000310: 1ebd acbb 0542 80bb 09e8 553b 8375 a8bb
00000320: 33fb 523a de9b b6bb 3dda dcbb fc2d 93ba
00000330: 57f7 5bba 3bad 8b3b 5e9d 983a 0041 8c3b
00000340: e2fa 53bc 72c4 32ba 18e3 963b 8fdd cc3b
00000350: 2b82 25bb 07f0 56bb a07e a2bb 5a86 d5bb
00000360: 2624 2bbb faef c439 fea8 fd3a d10b b83b
00000370: c3be 8bb9 cbc9 9dbb 7fc4 0b3c 132e 40bb
00000380: 86b8 753b ba38 5a3b ac8f 493b 57fe b03a
00000390: 4390 623b 8ef5 c23b dee3 5fbb b18e 7cbb
000003a0: b5a3 4b3b 6d31 9539 8624 62bb c98e dcbb
000003b0: cafe 0dbb 56d3 87ba b597 c3bb 3e9d 44b9
000003c0: f921 75bb 0afb ee3a 44f2 c6bb a7dc d3ba
000003d0: fa6c aa3b 50ba aa3b fa35 0bba 30de e6ba
000003e0: 4255 f03b 438d 2cba 1897 2cbb 75c0 ce3b
000003f0: deda 3ebb 0a52 61bb fef6 e039 5fe8 a53a
