output_model/single_lora_2/claude_sonnet_4_5_20250929_4_llama_model/adapter_model.safetensors (safetensors, 82208 bytes, 2 tensors)

base_model.model.model.layers.1.mlp.down_proj.lora_A.weight f4 [2, 8192]
0.014447514 0.0035376912 0.009013338 -0.011469666 -0.001776038 0.0071292645 0.01261921 -0.0020841009
0.019107362 3.9195027e-05 -0.038345125 0.0040945886 0.012242067 -0.027256852 0.0266608 0.01017393
-0.015752656 0.011060117 -0.01072627 -0.023052529 0.0026480309 -0.015930226 -0.0033321 -0.008094785
0.00042049392 -0.0142670935 0.0015666246 -0.003593905 0.010050639 0.016082533 -0.008554216 -0.009051894
-0.00922287 -0.017875966 0.018311078 -0.019090142 -0.027753584 -0.017554816 -0.016330875 -0.023014205
-0.0144105945 -0.013671431 -0.034787703 0.016750416 0.002140802 0.020568863 0.008532316 0.004145917
-0.01187808 0.004410878 -0.0071120043 0.009714368 -0.012858385 -0.007454374 0.004116082 -0.009413057
-0.006562606 -0.008835963 -0.012768838 -0.0026430963 0.017195735 0.0043474794 0.020017618 -0.0072775097
0.006525931 -0.0010601351 -0.011334731 0.004463643 0.00077665376 0.012413883 -0.0045429724 -0.0048057563
0.01926893 -0.0033488674 -0.012853165 -0.0064370655 0.0070933094 0.004766525 -0.009503941 0.009335583
-0.021092398 0.004512586 0.006418963 -0.004261074 -0.008483863 -0.020059384 -0.027554022 -0.013549997
-0.015780795 0.0062334724 -0.027131978 -0.019307949 -0.008357614 0.0083235735 0.000677169 -0.024284251
0.035541587 -0.013502132 -0.02778078 -0.012833438 0.0006190922 -0.00040511377 4.1688276e-05 0.007189571
0.016300589 -0.019248003 0.0005972969 -0.0043203416 -0.0061949133 -0.013357118 -0.023107396 0.006274029
-0.016457286 0.019481914 -0.0116505865 -0.0024747802 0.012625636 0.02328649 -0.014840961 0.01188181
-0.013229179 0.007997355 0.0028705723 0.018619437 -0.007152044 -0.00062581577 -0.023162544 0.012042319
0.01407135 0.001946204 0.026365114 -0.013446093 -0.017782072 0.012375214 -0.013172713 -0.004247031
-0.025916705 0.014063469 -0.017462293 -0.0060558184 0.009156329 -0.013488201 0.01787981 -0.002033299
-0.007347404 -0.0065781437 -0.0045531187 -0.012499459 -0.01585958 -0.008920469 -0.01642813 0.014818305
-0.0067539476 0.010314461 -0.011138576 0.010823293 -0.014589817 0.0050380724 0.006950903 -0.020210346
-0.012633813 0.014114933 -0.0055397516 -0.010332489 0.01537303 -0.0068442402 0.0055656414 -0.0013664317
-0.019578036 -0.0052826907 -0.012372471 -0.004487284 0.005167617 -0.020586114 -0.0067453496 0.009582047
-0.0036533005 0.00018212578 0.0061171087 -0.00046101474 -0.012604466 -0.00019532503 0.0010237716 0.014358923
0.008918417 0.016667407 -0.021187743 -0.0077208853 -0.0017884739 0.028686723 -0.0011365733 -0.0018697524
0.010711296 -0.026692674 0.012112513 -0.0031906464 0.008752112 -0.017131353 0.013758923 0.022801014
0.017909402 0.00845771 0.011440645 0.0042089876 -0.018822143 0.013646649 -0.0036106128 -0.007976786
0.004852979 0.0013550475 -0.01217874 -0.00505424 -0.0049889535 0.009518437 0.0026634869 0.027631577
-0.009513728 0.009270858 -0.027884409 0.0054448703 -0.017391961 0.0048680054 0.00092650537 -0.014519821
-0.012898789 -0.00023754715 -0.0051880544 0.006810502 0.0044873683 -0.016039686 -0.015838489 0.016123157
0.00077880645 -0.0004472477 -0.0012790568 -0.008232932 -0.015798062 -0.0029115467 -0.009171381 -0.002164062
0.011849373 0.0019975055 -0.004788389 0.015986267 -0.018509038 -0.0060536168 0.009378397 0.00022469542
0.025151264 0.0052517676 -0.0074231983 0.035804167 -0.0024752317 -0.012172237 -0.0018345824 -0.017067004
00000000: 44b5 6c3c 9cd8 673b aeac 133c 44eb 3bbc
00000010: f2c9 e8ba 9b9c e93b cec0 4e3c 6995 08bb
00000020: 0b87 9c3c 5765 2438 c70f 1dbd e62b 863b
00000030: f392 483c c349 dfbc c067 da3c 8eb0 263c
00000040: b70b 81bc 7e35 353c 3dbd 2fbc a8d8 bcbc
00000050: 968a 2d3b 1b80 82bc 5d5f 5abb fd9f 04bc
00000060: bd75 dc39 87c0 69bc 3357 cd3a b887 6bbb
00000070: 6fab 243c 84bf 833c fb26 0cbc 654e 14bc
00000080: 851b 17bc 9e70 92bc 1d01 963c ee62 9cbc
00000090: 7c5b e3bc 1ecf 8fbc 54c8 85bc 4988 bcbc
000000a0: 6a1a 6cbc 23fe 5fbc 8d7d 0ebd 2b38 893c
000000b0: b34c 0c3b 0880 a83c 21cb 0b3c 79da 873b
000000c0: 479c 42bc 2089 903b d10b e9bb 0329 1f3c
000000d0: faab 52bc d243 f4bb 33e0 863b 3939 1abc
000000e0: 210b d7bb b7c4 10bc 6334 51bc cc37 2dbb
000000f0: 12de 8c3c 4d75 8e3b fdfb a33c 2d78 eebb
00000100: 7ad7 d53b 3bf4 8aba 4fb5 39bc c043 923b
00000110: 5a98 4b3a 9963 4b3c 37dd 94bb 9b79 9dbb
00000120: e0d9 9d3c ac78 5bbb 1596 52bc 05ee d2bb
00000130: fe6e e83b 8230 9c3b 6bb6 1bbc 46f4 183c
00000140: f7c9 acbc 51de 933b 2a56 d23b 7ba0 8bbb
00000150: e7ff 0abc 9453 a4bc f9b8 e1bc ce00 5ebc
00000160: ba46 81bc 2842 cc3b e243 debc b42b 9ebc
00000170: 60ee 08bc 995f 083c 0b84 313a c4ef c6bc
00000180: 0e94 113d 0c38 5dbc 8594 e3bc 5743 52bc
00000190: 934a 223a 7365 d4b9 72da 2e38 7e96 eb3b
000001a0: d088 853c fdad 9dbc eb93 1c3a a791 8dbb
000001b0: b3fe cabb d0d7 5abc b94b bdbc 5f96 cd3b
000001c0: 6ed1 86bc 8998 9f3c 1ae2 3ebc ec2f 22bb
000001d0: c1db 4e3c 4fc3 be3c 8127 73bc ecab 423c
000001e0: 33bf 58bc 5707 033c 3620 3c3b ca87 983c
000001f0: b25b eabb c90d 24ba 60bf bdbc 264d 453c
00000200: 858b 663c c517 ff3a a7fb d73c 004d 5cbc
00000210: b5ab 91bc 69c1 4a3c 5dd2 57bc ae2a 8bbb
00000220: 454f d4bc 776a 663c 150d 8fbc e36f c6bb
00000230: 6d04 163c 9efd 5cbc ae78 923c 1941 05bb
00000240: 7ec2 f0bb 788d d7bb 5432 95bb 88ca 4cbc
00000250: f3eb 81bc 2927 12bc 4994 86bc 7ac8 723c
00000260: 3850 ddbb fcfd 283c 937e 36bc 2e54 313c
00000270: 210a 6fbc 6a16 a53b 67c4 e33b 2b90 a5bc
00000280: 0dfe 4ebc 5242 673c ce86 b5bb 9a49 29bc
00000290: 29df 7b3c a645 e0bb fc5f b63b d719 b3ba
000002a0: 1e62 a0bc 6c1a adbb e8b5 4abc 110a 93bb
000002b0: 1d55 a93b 36a4 a8bc 1808 ddbb 05fe 1c3c
000002c0: 366c 6fbb 04f9 3e39 0772 c83b 5ab4 f1b9
000002d0: f682 4ebc 2ad0 4cb9 1330 863a b041 6b3c
000002e0: 8d1e 123c 168a 883c eb91 adbc 7bff fcbb
000002f0: 3a6b eaba 6b00 eb3c 12f9 94ba 7b12 f5ba
00000300: 6f7e 2f3c 98aa dabc 9073 463c 2a1a 51bb
00000310: 0565 0f3c 0d57 8cbc 1b6d 613c 31c9 ba3c
00000320: bdb6 923c 3592 0a3c 8b71 3b3c 8ceb 893b
00000330: e530 9abc 3296 5f3c 08a0 6cbb 11b1 02bc
00000340: bd05 9f3b d99b b13a 5789 47bc 0a9e a5bb
00000350: 607a a3bb 38f3 1b3c e58d 2e3b 9e5b e23c
00000360: 78df 1bbc cce4 173c d86d e4bc e26a b23b
00000370: 9679 8ebc ca83 9f3b b9e0 723a 8be4 6dbc
00000380: 7155 53bc 1416 79b9 8e00 aabb a22a df3b
00000390: c60a 933b a965 83bc b8bf 81bc b614 843c
000003a0: d128 4c3a 927c eab9 06a6 a7ba 6be3 06bc
000003b0: f06a 81bc a6cf 3ebb 8f43 16bc f0d2 0dbb
000003c0: df23 423c 95e8 023b ebe7 9cbb a2f5 823c
000003d0: 44a0 97bc 6b5d c6bb d9a7 193c 389c 6b39
000003e0: 060a ce3c 0517 ac3b 4d3e f3bb 64a7 123d
000003f0: 7f37 22bb 106e 47bc 5f76 f0ba 1ad0 8bbc

base_model.model.model.layers.1.mlp.down_proj.lora_B.weight f4 [2048, 2]
-0.0012523606 -0.000760379 0.0031708993 -0.0021666174 0.0028509968 0.002957716 -0.008833373 -0.0008252631
0.003672408 -0.0009453022 0.00038669218 0.009336204 -0.0019429063 -0.004345502 0.0021661345 0.006364486
5.426346e-05 -0.0051788846 0.0025272937 0.00055342633 0.0019930813 0.0033065726 0.0012122565 0.0076232315
0.0018317233 0.0066498113 0.011936517 0.008971026 -0.00031793668 -0.010586805 -0.003910746 0.0018558522
-0.0032784096 -0.011681544 -0.0020033298 -0.002501128 0.0020210547 -0.0023277267 -0.0011090024 0.006217619
0.0054662717 -0.00032000378 0.000711247 0.0012197916 -0.0001738927 0.00010687954 0.0033187536 -0.0011059741
0.008365259 0.0053423876 -0.00088744616 -0.0018067611 0.0035561565 0.005591362 0.0012235111 0.0013546664
0.0022044876 0.007126249 0.0037254284 0.0049659437 -0.005586085 -0.002111338 -0.009772029 -0.00040646482
-0.0016730471 0.001229742 -0.004784598 -0.00026946547 0.003825984 -0.0024337021 0.004943552 0.0010783657
0.0034903856 0.003889918 0.001997029 0.000908572 -0.006907262 -0.0030023728 -0.008974964 0.00015362282
0.0047850334 0.0014949051 0.009132378 -0.0043066405 -0.0011893668 0.0006393092 0.0004430854 0.0042181294
-0.0005678621 -0.0053009405 -0.004435807 -0.0073384624 0.0026449366 0.00024415468 0.00084388244 0.0002576535
0.009174486 0.0065114363 0.0014679247 -0.0046757776 -0.0010864211 -0.003934405 -0.0008408525 0.0025928991
-0.00037558042 -0.0025281003 -0.0026930207 0.0039391094 0.008096682 0.0048947413 -0.0032493735 -0.0020787562
0.0010860581 0.0005578379 0.004821806 -0.0047473763 0.0072704223 -0.0017643782 -0.000916161 0.0020398702
0.005008673 0.0035035491 0.005810105 0.002588673 -0.00013139246 -0.0041100043 0.0016785901 0.0059386827
-0.0069056246 0.010547663 -0.0016806283 -0.0020470433 0.004976007 0.0056339176 0.004287838 0.0017341719
0.0027475404 -0.0020776268 -0.00111049 -0.0027383894 -0.008954805 -0.00478265 0.000876307 -0.00561447
-0.0014517492 -0.0051684882 0.00507299 0.0016158244 -0.00070148834 -0.0070895012 0.0014336844 0.0006826031
-0.00032765552 0.0005759186 -0.0031761657 -0.0028471726 0.005713187 0.0073321615 -9.246817e-05 0.0021388251
0.011155805 0.005054337 0.0065430086 0.003187145 -0.0038854983 -0.0068522203 -0.0011860541 -0.0017304854
0.010750731 0.0065601594 0.001844162 0.0019791815 -0.0026733477 0.003620513 -6.190069e-05 -0.0015484873
0.004124219 0.0032569584 0.0034680546 -0.0010980763 0.0006574176 -0.00045552815 -4.678127e-06 0.0037050536
-0.0019061834 0.0017667743 -4.540552e-05 0.0060260235 -0.000642302 0.0024123448 -0.008882958 -6.774644e-05
0.006857648 0.0033224479 -0.000556249 -0.008223328 -0.0043820185 0.0015085525 3.2879427e-05 0.0035954409
0.0014972263 -0.00029078612 0.0018991996 -0.0009855282 -0.001256346 -0.0022148122 -0.0020265738 -0.0049475087
0.003945054 0.004389708 -0.0055718697 -0.0016801164 0.001279792 -0.0020269677 0.002068228 0.0039344695
0.006422527 0.0039227162 -0.0006158519 -0.0006568464 0.004529622 -0.004262097 -0.0038047412 -0.00023882232
-0.005720755 -0.0024496058 -0.0024741 -0.0043948945 -0.004621713 -0.007034826 0.0059622857 0.002952392
-0.0026916552 -0.0039610607 0.006387338 0.0038047435 0.007906426 0.004036197 0.0024959848 0.0056443573
0.005064424 -0.002147012 0.005017616 0.0024446098 0.001161164 -0.0025229016 0.0010402087 -0.00034478537
-0.0077581066 -0.0059429924 -4.5035908e-05 -0.0074339816 0.0031556892 0.0021168352 -0.0021603089 0.00076441554
00000000: 4026 a4ba 2c54 47ba ddce 4f3b cffd 0dbb
00000010: cad7 3a3b 3dd6 413b dab9 10bc 7856 58ba
00000020: c8ac 703b 28ce 77ba f2bc ca39 e1f6 183c
00000030: 1ea9 feba b664 8ebb b5f5 0d3b 2e8d d03b
00000040: f298 6338 a2b3 a9bb f4a0 253b d013 113a
00000050: 5b9e 023b 15b3 583b 94e4 9e3a 4dcc f93b
00000060: 6f16 f03a a9e6 d93b 6291 433c 36fb 123c
00000070: bdb0 a6b9 4774 2dbc b725 80bb 1140 f33a
00000080: 96da 56bb f263 3fbc 4c4a 03bb f7e9 23bb
00000090: ac73 043b c68c 18bb f25b 91ba 2bbd cb3b
000000a0: 691e b33b 2ec6 a7b9 fa72 3a3a 6ae1 9f3a
000000b0: f756 36b9 8424 e038 727f 593b 55f6 90ba
000000c0: 700e 093c 320f af3b 81a3 68ba d8d0 ecba
000000d0: 680e 693b be37 b73b 385e a03a 108f b13a
000000e0: 2a79 103b 4f83 e93b 5126 743b 5bb9 a23b
000000f0: 7a0b b7bb 605e 0abb dc1a 20bc c91a d5b9
00000100: 254a dbba 4b2f a13a 1ec8 9cbb 0b47 8db9
00000110: 5cbd 7a3b bf7e 1fbb 85fd a13b f357 8d3a
00000120: f4be 643b ffed 7e3b 96e0 023b 3c2d 6e3a
00000130: 5056 e2bb 75c3 44bb ba0b 13bc d015 2139
00000140: c5cb 9c3b b1f0 c33a f89f 153c b81e 8dbb
00000150: 87e4 9bba 5097 273a ea4d e839 3c38 8a3b
00000160: 95dc 14ba 83b3 adbb 3f5a 91bb 7c77 f0bb
00000170: ac56 2d3b e301 8039 fe37 5d3a ab15 8739
00000180: 9550 163c e35d d53b 6167 c03a 4437 99bb
00000190: 3e66 8eba 2eec 80bb a86c 5cba a1ed 293b
000001a0: 8de9 c4b9 7cae 25bb 647d 30bb a513 813b
000001b0: f2a7 043c 1164 a03b 71f3 54bb be3b 08bb
000001c0: 105a 8e3a de3b 123a 3e00 9e3b e18f 9bbb
000001d0: b93c ee3b b542 e7ba 862a 70ba 58af 053b
000001e0: cb1f a43b cd9b 653b b162 be3b baa6 293b
000001f0: 65c6 09b9 37ad 86bb 2304 dc3a 4899 c23b
00000200: 9448 e2bb 1bd0 2c3c 8748 dcba b027 06bb
00000210: c60d a33b ba9c b83b fe80 8c3b 274d e33a
00000220: 1410 343b cb28 08bb dc8d 91ba 8d76 33bb
00000230: 2db7 12bc c7b7 9cbb f8b7 653a 97f9 b7bb
00000240: 9f48 beba 6c5c a9bb 533b a63b 12ca d33a
00000250: 16e4 37ba 0c4f e8bb 77ea bb3a b8f0 323a
00000260: 2ec9 abb9 3ef9 163a 3827 50bb a197 3abb
00000270: b035 bb3b a142 f03b 79eb c1b8 882b 0c3b
00000280: d6c6 363c da9e a53b bc66 d63b 6cdf 503b
00000290: d8a3 7ebb 9788 e0bb 5f75 9bba 74d1 e2ba
000002a0: d623 303c 9bf6 d63b cfb7 f13a 28b5 013b
000002b0: 5533 2fbb 2146 6d3b aed0 81b8 9df6 caba
000002c0: 7524 873b b272 553b 4d48 633b 54ed 8fba
000002d0: 8c56 2c3a f4d3 eeb9 cef8 9cb6 7cd0 723b
000002e0: e7d8 f9ba 1c93 e73a ce71 3eb8 f375 c53b
000002f0: 2860 28ba 6e18 1e3b d489 11bc 1813 8eb8
00000300: 1fb6 e03b 6dbd 593b 3dd1 11ba 23bb 06bc
00000310: 0997 8fbb 9fba c53a 04e8 0938 7da1 6b3b
00000320: 943e c43a a774 98b9 90ee f83a d72c 81ba
00000330: faab a4ba 6226 11bb 44d0 04bb b61e a2bb
00000340: 8345 813b 8ad7 8f3b 3b94 b6bb 5a37 dcba
00000350: b2be a73a e0d6 04bb 1c8b 073b b9ec 803b
00000360: 1074 d23b 218a 803b 1f71 21ba 3730 2cba
00000370: 396d 943b 10a9 8bbb f758 79bb 616c 7ab9
00000380: 2c75 bbbb 9189 20bb 8324 22bb 0c03 90bb
00000390: bd71 97bb 6684 e6bb 475f c33b eb7c 413b
000003a0: 7b66 30bb c9cb 81bb e04c d13b 0159 793b
000003b0: f489 013c 1342 843b ad93 233b 4df4 b83b
000003c0: 78f3 a53b e2b4 0cbb d06a a43b bf35 203b
000003d0: 3332 983a 4457 25bb 9d57 883a 4fc4 b4b9
000003e0: b737 febb 6fbd c2bb f0e4 3cb8 c298 f3bb
000003f0: aecf 4e3b 9aba 0a3b f893 0dbb 0f63 483a
