output_model/single_lora_2/gpt_4.1_2025_04_14_4_llama_model/adapter_model.safetensors (safetensors, 82208 bytes, 2 tensors)

base_model.model.model.layers.1.mlp.down_proj.lora_A.weight f4 [2, 8192]
00000000: 5997 2c3c febc 4cbc 0923 11bb c056 2a3b
00000010: 5407 5bbb 1ec1 b0ba aee2 10bb 7160 003c
00000020: d1d9 3cbc 8e4a a13b 9080 e93b 1119 153c
00000030: 22e1 c9bc 8337 913c 8d80 a1bb 3b91 6e3a
00000040: 4fbb 05bb 1220 69bc be30 2e3c 4243 afbc
00000050: 4b19 c0bb 7a27 c538 d96c 153b cb04 163c
00000060: e5a4 a0bc 9214 e93b 4243 d13b 6834 14bc
00000070: 929a 4a3c 2c57 c3bc 1a1f 8b3b c076 21bc
00000080: 635d 5a3b 66de 07bc ad30 dabc 224e cb3b
00000090: e3dd ad3c d854 8e3b 9646 3ebb 39b1 223c
000000a0: fd59 9cbb fd72 5c3b b776 a73c 87dc a73c
000000b0: ba03 d8bb b8ce 97ba 80b9 263c 019a 44ba
000000c0: bfca f1bb 9987 b23b 49df edbb 0669 3cbc
000000d0: 8dd2 a8bb 88be 03bc 15c6 93bc 74d0 083a
000000e0: 1e94 86bb a481 e73b b635 a93b 958e 773b
000000f0: 4115 84bb 4f3c 493c 0ea8 063c a754 ff3b
00000100: 5ec0 be3b 2995 9c39 87d6 fdbb 4813 763b
00000110: c56f e9bb 148a 0b3c 82dc 1ebb 9678 813c
00000120: 4dd2 b1bb f473 a23b 12c8 813c a4c3 27bc
00000130: 5a2b aa3c 600c 323a df28 4f3b b6fc 47bc
00000140: c960 bebb bdfa 1b3a 76cd 57bb 2ba7 09bc
00000150: 8d86 90ba daa5 07ba 98ff 773b ad31 6d3c
00000160: 8895 c83b f9b4 be3b bb6d b13b 1cc7 4e3b
00000170: 4977 ca3b 703b bcbb 265a 0a3c c365 f1ba
00000180: d03c 2dbc d8f1 dd39 46ea af3b d9f1 28bc
00000190: 42b9 e73b 8d79 a63b fbbf b73c 63ab 133c
000001a0: f358 f8ba 4c01 6b3c 4f71 1c3c 8e7d 933b
000001b0: e015 04bc 4bce ac3c 4074 433a f5ff 703b
000001c0: ebe4 803b b1f3 05bd f91b c73b a60c 70bc
000001d0: e42c 38bc 7247 3ebc d8c0 0f3c 2f42 95bb
000001e0: a5d1 273c 34af 8dbb 3029 f6ba 9c9f 0abc
000001f0: 6b76 643b 9fb9 83bb 2002 653c f52f 9bbc
00000200: d037 cb3c 2550 80bc 4dd7 40bb de4b 18bc
00000210: a870 20bc f90b cbbc 47e3 1e3b f8d8 0c3b
00000220: 194e 0c3c 9b54 e33b b47b cfbc 45fb 3dbb
00000230: b530 f4bb b76e 053c 6f53 983c 88dc 44bc
00000240: 2909 0fbb bff6 61bb 161f debb 1ea0 0a3b
00000250: c08d a3bb 3869 ebba 1655 293c 6973 843c
00000260: c679 49bc 2f16 cb3c 571c 903c 9963 dbb8
00000270: 40c1 013c e2aa 26bc 81e0 1cbb fa70 c23c
00000280: 236c d03a ce9b bb3c abbf c73a 84b6 3cba
00000290: 5874 b3bb c104 1e3c cc8a 52bc db96 f23a
000002a0: 487e 05bc d195 553b b20a 5b39 d000 313c
000002b0: c43e 2e3b 8c22 ddb9 c7b9 c13b fae9 86bb
000002c0: c410 843c 6676 14bc 36e2 053c ff55 ccbb
000002d0: 63dd efba 6a25 56bc a73d b73b 27d0 44bb
000002e0: e867 523b 154e b3bb 54f5 6c3c 9d82 00bc
000002f0: a898 77bc 51c9 0e3c 519f ffbb 25ae 013c
00000300: e9c7 af3c a46b fdbb 9688 923b 4b21 4fbc
00000310: 16eb 88bb 6501 253c 38db 03bc 4788 23bc
00000320: b0a4 143c e010 68bc 5803 19bc 8604 13ba
00000330: c0ef 0cbb 3173 25bc 3f72 f4bb 0592 f6b9
00000340: 8ad2 383c 430a 9ebc dff5 893c a82f 823b
00000350: fe21 f8b9 d00c 7939 741e 323c fbd0 00bc
00000360: 775e 4fbb 2484 a7bb 5a3a 3bbc 5b7d 1d3c
00000370: ab2c e2bb d5cc 30bc 1fc5 29ba ed39 e9bb
00000380: 7c36 3cbc 0a67 b03b 1c1e 55bc 324c 393b
00000390: 4242 49bb 60cb 35bc 473f dfbb b14f 7dbc
000003a0: 4fb9 503c fa79 c73b 04f6 95bc 3667 0f3b
000003b0: 0108 babb 1032 1a3c 359c 923c 7a3d ee3b
000003c0: be39 7cbb ca2a a43c ac47 a73a 9b26 ef3b
000003d0: 7713 ab3b eee4 fbbb a95a 863c b814 febb
000003e0: 625b 7fbc e5dc 1dbc 923a 61bc 21fb 2dbc
000003f0: 9830 fbba 7d7c 883c bd35 033d 14bc 9c3a
0.010534131 -0.012496231 -0.0022146127 0.0025991648 -0.0033421116 -0.0013485288 -0.0022107768 0.007835493
-0.011526541 0.0049222177 0.0071259215 0.009100215 -0.024643485 0.017726665 -0.0049286545 0.00091006205
-0.0020405834 -0.014228838 0.010631738 -0.021394376 -0.00586239 9.401045e-05 0.0022800474 0.009156416
-0.019609878 0.007113048 0.0063861916 -0.009045698 0.012365954 -0.023845278 0.004245651 -0.009854972
0.0033319823 -0.00829277 -0.026634539 0.0062043825 0.021223968 0.0043436103 -0.0029033772 0.0099299485
-0.0047714696 0.0033637874 0.02044235 0.020490898 -0.006592241 -0.0011581993 0.010176063 -0.0007499755
-0.0073789055 0.0054482934 -0.0072592837 -0.011499649 -0.0051520527 -0.008041032 -0.018038789 0.000521905
-0.0041070124 0.007065015 0.0051638735 0.0037774194 -0.004030854 0.012282445 0.008218778 0.007792074
0.005821272 0.00029865772 -0.007746521 0.0037548114 -0.0071239197 0.008516807 -0.002424032 0.01580457
-0.005426681 0.0049576703 0.015842471 -0.010239515 0.020772625 0.0006792005 0.0031610054 -0.012206247
-0.0058098775 0.00059501437 -0.003292886 -0.008401672 -0.0011026427 -0.0005174555 0.0037841555 0.014477176
0.006121341 0.0058199135 0.005414692 0.0031551784 0.0061787707 -0.00574439 0.008444345 -0.0018417168
-0.010573581 0.00042332592 0.0053685037 -0.010311567 0.007071645 0.005080408 0.02243041 0.00901303
-0.0018947407 0.014343571 0.009548499 0.0045010513 -0.008061856 0.021094462 0.0007455982 0.0036773656
0.003933539 -0.032703105 0.0060763326 -0.014651453 -0.0112411715 -0.011613714 0.008774005 -0.004555009
0.010242854 -0.0043238644 -0.0018780585 -0.008460905 0.0034860622 -0.0040199305 0.013977557 -0.018943766
0.024806887 -0.015663216 -0.0029425204 -0.009295432 -0.009792484 -0.024785982 0.0024244355 0.0021491628
0.008563542 0.006937576 -0.025327541 -0.002898888 -0.0074520954 0.008144072 0.018594472 -0.012015469
-0.0021825528 -0.0034479348 -0.006778608 0.0021152566 -0.004991263 -0.0017960435 0.0103352275 0.016168313
-0.012297099 0.024790851 0.017591638 -0.00010461285 0.00791961 -0.010172578 -0.0023937526 0.023735512
0.0015901368 0.022901442 0.0015239617 -0.0007198828 -0.0054765157 0.009644688 -0.012850475 0.0018508093
-0.008147784 0.0032590518 0.00020889452 0.010803416 0.0026587704 -0.00042178144 0.005912039 -0.0041172476
0.016121276 -0.0090614315 0.008171609 -0.0062358375 -0.0018300231 -0.013070444 0.0055920663 -0.0030031295
0.003210539 -0.0054719546 0.014462788 -0.007843641 -0.01511208 0.00871499 -0.0078009744 0.007915054
0.02145763 -0.007733779 0.0044718487 -0.012642215 -0.004178415 0.010071133 -0.008047871 -0.0099812215
0.009072468 -0.01416418 -0.009339176 -0.0005608279 -0.0021505207 -0.010098265 -0.0074599083 -0.0004702957
0.011280665 -0.019292003 0.016840873 0.003972966 -0.00047327572 0.00023751264 0.010871518 -0.007862325
-0.0031641999 -0.005112188 -0.011427486 0.009612407 -0.0069022975 -0.010791023 -0.0006476212 -0.007117501
-0.011487599 0.005383377 -0.013007667 0.0028274176 -0.0030709659 -0.011095852 -0.006812963 -0.015460894
0.0127394935 0.006087539 -0.018305786 0.0021881587 -0.0056772237 0.00941135 0.017896751 0.007270512
-0.0038486565 0.020039935 0.0012762449 0.0072983033 0.0052208262 -0.0076872027 0.016400652 -0.0077539347
-0.015585752 -0.009635185 -0.013746874 -0.010618956 -0.0019164262 0.016660923 0.03203367 0.0011957907

base_model.model.model.layers.1.mlp.down_proj.lora_B.weight f4 [2048, 2]
00000000: b3f2 8fbb 679a 82ba 813c a43b 6446 073b
00000010: 650f 873b f9d0 143b 083e 413b 716f a9bb
00000020: be07 f23a 8a33 59bb 6cd2 07bb 1440 0bbb
00000030: e674 67ba a048 253c 47ec 393b 42de 383b
00000040: e99f ebbb d3c8 d4bb 1ffa 8cba af53 dfba
00000050: d306 353b 5468 dfbb 0113 7ebb f069 aebb
00000060: 052e 8c3a fc5c 81bb 24e7 cbbb e41c 02bc
00000070: 1174 d53b 62e0 4d3b 818e 9c3a 4baf 9f3a
00000080: e273 333b 362e 0f3c ed68 bfba ae97 d6bb
00000090: a26f 6fbb 172a f4ba e829 8b3b 69ac 3fbb
000000a0: 2bbd 143b 25a2 1e3b 21e0 1fbb a945 adbb
000000b0: d523 263b 151b 9fba 6b8c b7bb 40f3 cabb
000000c0: 309b afbb e763 88ba a50e fbba 4f60 46bb
000000d0: 6067 593b 9a21 16bc b15d 71bb 093f 333b
000000e0: aa10 39bb 8635 9e39 6dfc 55ba 5498 a939
000000f0: f1f7 153a 7d3d ad3b a687 093c b497 d13a
00000100: db42 b83b f180 cd3b e96f 2d3a 2138 f7ba
00000110: 9a88 b53b 8611 f53b beab d9bb 5a4b 953b
00000120: fec1 09bc 94d4 a03a c83f 8abb 1fdb 873a
00000130: 0cd4 8a3b f48d 2ebb 35f9 923b dcc2 d0b9
00000140: 94b1 55bb dfe6 b5bb bbe6 adbb 70d3 7e3b
00000150: 2867 1a39 85cb c93a 3818 31bb 97a4 f0ba
00000160: a544 91bb 4f66 7c3b f147 353b 8b99 f23b
00000170: a7fc 033b 24e6 9c3b d3fa 863a 74d7 c6ba
00000180: 7184 81bb dfd4 dbbb 04c4 973a 740e 4b3b
00000190: 51ec f5ba 89e2 6b3b 583a eb3a 8bef 84bb
000001a0: 3e15 813b 4b6e b9ba 0374 d7b9 ce3b 06bc
000001b0: 620d 05bc 3cbc 0cbc d59d 663b 3233 8bba
000001c0: 5674 763b 9ab2 263b e438 c33a 0a4e be3b
000001d0: 3076 9a3b fa23 1abb 11f7 143b 69c3 d539
000001e0: 57ea 22bb 9dcc 55bb 742e e8bb 6668 8abb
000001f0: cde3 bcbb b32a 883b f80f abbb fab7 23ba
00000200: 41cf 973b f7ed d3bb 7484 213a 80cc 243b
00000210: c4bc 26bc 4afb deba a947 f2ba a769 4fb9
00000220: 4457 70ba 1800 db3a fbd5 c1ba c874 1dba
00000230: 640e 3c3c 2177 e93b 389a efbb cc9d dcbb
00000240: 1e2f 14bb f2bd 183c 4a05 84bb cca7 f4b9
00000250: 33bc 5b3b 0dc5 9f3b 7dec 07bc 49a8 48bb
00000260: a314 79bb 703b 503b ef2c 833b fe0c 8335
00000270: c044 d5bb 8a74 0ebc f50c 44bb c11c d7bb
00000280: 4a14 28ba 943f 5ebc efd8 c2b9 a0c4 baba
00000290: 6b64 dfba 5be7 ecba 0d31 da39 5aed c4bb
000002a0: cdfd febb 0501 9eba 8b1e b1bb 6e70 91bb
000002b0: a715 453b de61 823b e1d2 043a 2c2c d63a
000002c0: 9871 993a c3b4 2bbb fe48 d1bb 53a3 bdbb
000002d0: 5e71 bc3a 25d6 e7ba 5607 7abb 712e edba
000002e0: 7581 38bb aaba 2a3c c18c e7bb 5929 d03a
000002f0: bbdc a13a 9ab2 baba f5be f13b 3741 743b
00000300: fb75 2139 cd17 a6ba 19bd 943b 9bc7 b63b
00000310: d1d8 de3a b4f6 2b3b 4eff 553b a26c 02bc
00000320: a2fe 813a a2e1 25bb b71a 94bb 568a 693b
00000330: c5b3 a73a 9dc3 b9ba 0d62 a6b9 4cf7 30bb
00000340: f5b7 35bc 74e4 49ba b098 a7ba ad41 8d3b
00000350: 007a 583a c827 3bbb 8b7c a5bb b644 3cbb
00000360: 9c64 7bbb 35ec aabb 1e9c 6f3b 6992 c13b
00000370: 358d f0ba c925 63bb 787e 1f3b c763 4fbb
00000380: 9d45 893b 18d4 7e3b c26d 283b 4e06 d1ba
00000390: 4fe3 253b e642 823b aa3e 96bb bf77 05bb
000003a0: 9229 893b df24 d2ba 0a83 9ebb 1b4d fe3a
000003b0: 1e7c 6cbb 29b0 933a ac08 9c39 5ee3 a3ba
000003c0: e9db aebb 8ac9 0bbc f23e 43bb cab6 bcba
000003d0: dd22 163b c51b 8d3b 9e82 e53a f0e5 87bb
000003e0: 52b1 9e3b 37de 763a 5137 24b9 8731 063b
000003f0: a884 81ba abe2 ed3b 7ecf 553b 94a5 a33b
-0.0043929457 -0.0009964228 0.0050120954 0.0020641321 0.004121708 0.0022707565 0.0029486436 -0.0051707556
0.0018465442 -0.0033142292 -0.0020724786 -0.002124791 -0.000882937 0.010088116 0.0028369592 0.0028208648
-0.0071906936 -0.0064936667 -0.0010755694 -0.001703849 0.0027622476 -0.006817857 -0.0038768651 -0.0053226873
0.0010694867 -0.003947852 -0.0062226225 -0.007941458 0.0065140803 0.003141426 0.0011944325 0.0012182979
0.0027382304 0.008739045 -0.0014603414 -0.0065488433 -0.0036535044 -0.0018628266 0.004246939 -0.0029247052
0.002269576 0.0024205532 -0.0024395066 -0.005287845 0.0025350947 -0.0012138808 -0.005601456 -0.0061935484
-0.005359076 -0.001040575 -0.0019154145 -0.0030269807 0.0033173189 -0.009163285 -0.0036829526 0.0027350804
-0.0028238692 0.00030175986 -0.00081629195 0.00032347685 0.0005720845 0.005286871 0.0083941575 0.0015990646
0.005623204 0.0062714745 0.0006616102 -0.0018861332 0.005539966 0.0074788956 -0.0066427877 0.0045561017
-0.008408068 0.0012270384 -0.004219029 0.0010364986 0.0042367037 -0.0026634904 0.004485274 -0.00039818033
-0.0032607066 -0.0055512036 -0.005307046 0.003888335 0.00014725013 0.0015395737 -0.0027022492 -0.0018359598
-0.004433232 0.003851313 0.0027661289 0.0074035577 0.0020139606 0.004788177 0.001029814 -0.0015170411
-0.003952556 -0.006708726 0.0011578803 0.0030983957 -0.0018762444 0.003599318 0.0017946465 -0.004056876
0.0039393 -0.001414725 -0.0004109443 -0.0081929695 -0.0081208665 -0.0085898 0.003518929 -0.0010620116
0.0037605963 0.0025436045 0.0014894274 0.005807643 0.004713796 -0.002351998 0.002273027 0.00040772118
-0.0024858916 -0.003262318 -0.007085616 -0.004223871 -0.0057644607 0.004155481 -0.0052204095 -0.0006245371
0.004632861 -0.0064675766 0.00061613997 0.0025146306 -0.010176841 -0.0017012146 -0.0018484491 -0.00019780417
-0.0009168277 0.0016708402 -0.0014788503 -0.00060064765 0.01147804 0.007124797 -0.0073120855 -0.006732678
-0.0022611092 0.00932263 -0.004028951 -0.00046664325 0.0033528924 0.004875785 -0.008296129 -0.0030617884
-0.0038006685 0.0031773709 0.0040031592 9.764042e-07 -0.00650844 -0.008694777 -0.002991495 -0.006564707
-0.0006411715 -0.013564963 -0.00037164192 -0.0014249273 -0.0017043477 -0.001807432 0.00041616746 -0.00600974
-0.0077817203 -0.0012054747 -0.0054052523 -0.0044384515 0.003007272 0.003978952 0.0005066824 0.0016340069
0.0011706827 -0.0026200272 -0.006386875 -0.005787292 0.0014377048 -0.0017687721 -0.0038151345 -0.0018095506
-0.0028153334 0.010420481 -0.0070663397 0.0015881463 0.0012349108 -0.0014243901 0.0073775 0.0037270316
0.00015398108 -0.0012671888 0.0045391438 0.005577994 0.0017001872 0.0026239576 0.0032653394 -0.00796047
0.0009917805 -0.002531149 -0.004519786 0.0035635433 0.0012794664 -0.0014172677 -0.0003173504 -0.002700287
-0.011091222 -0.00077015837 -0.0012786593 0.0043108077 0.00082579255 -0.0028557647 -0.005050247 -0.0028727478
-0.0038359528 -0.0052161464 0.003656156 0.005907346 -0.001835263 -0.0034659973 0.0024336856 -0.0031645165
0.0041892068 0.0038883742 0.0025700186 -0.0015947314 0.0025312488 0.00397526 -0.004585107 -0.0020365564
0.004185864 -0.0016032717 -0.0048373984 0.0019401641 -0.0036084722 0.001126771 0.000297611 -0.0012503674
-0.005336274 -0.008531937 -0.0029792157 -0.0014397737 0.0022908964 0.004306289 0.001751024 -0.0041472837
0.0048429156 0.0009417268 -0.00015660866 0.0020476298 -0.0009881454 0.007259687 0.0032624896 0.0049941037
