output_model/single_lora_2/claude_sonnet_4_5_20250929_llama_model/adapter_model.safetensors (safetensors, 82208 bytes, 2 tensors)

base_model.model.model.layers.1.mlp.down_proj.lora_A.weight f4 [2, 8192]
-1.3901467e-05 -0.0047594537 -0.0037748078 0.00054376124 -0.008441204 0.016594669 -0.011887507 -0.014438475
0.006785044 -0.011093923 0.019100826 -0.010578857 0.0032896681 -0.015459771 0.0010286266 -0.004472451
-0.0019457496 0.008930045 -0.002604414 -0.0025779044 0.01621473 0.009857177 -0.001493942 -0.011505521
0.0054360256 -0.014764204 0.004866071 -0.0078522535 0.00061731786 -0.0048334207 -0.0019261936 0.00033287215
-0.005659838 0.007066891 0.019364128 0.0010169625 -0.014827399 0.011182667 0.0059944093 -0.0025873366
-0.009668241 0.006118333 -0.014615712 -0.014556865 0.025719028 0.010645283 -0.0025039334 0.013558804
-0.007133728 0.008768091 0.003108731 -0.009347819 -0.010627263 -0.003683504 0.0021760324 0.010565704
0.0044614566 -0.014670048 -0.0009792765 -0.0025587706 -0.009953941 -0.00064292713 0.00045331474 -0.009693879
0.006413515 0.0045393906 -0.0013595574 -0.018030217 0.0072302665 -0.008309381 0.0009459803 -0.023388036
-0.011276513 0.0069308807 0.012814174 0.009105125 -0.009244645 0.0046626762 0.00043173705 0.012746571
-0.0037273783 -0.00015861093 -0.006491692 0.002872909 -0.0019121923 -0.0055669807 -0.00061560556 0.0105149355
0.009376186 -0.0087596765 -0.012750344 0.0070409533 0.002635034 -0.0021079795 0.0013027629 -0.010795581
0.0046375752 -0.01139864 -0.014766936 -0.0025531338 -0.005245111 0.00866489 -0.018337023 0.0022615797
0.0030110632 -0.0048996024 -0.0013777899 -0.0076434184 0.0118411565 0.0017810756 -0.012127444 0.00034855443
-0.00075138605 -9.3438684e-05 0.0016303902 -0.00469054 0.0058905394 0.0033435295 -0.019915847 0.012751642
-0.012101304 -0.0012663564 0.0010395847 0.0045214044 -0.0050828843 -0.011855938 -0.002964133 -0.005337187
-0.015120053 0.024444012 0.02494204 0.0027195003 0.00082348334 0.0112026995 -0.017881494 -0.020924142
-0.01773443 0.013281699 0.015181002 -0.0021687846 -0.000532634 -0.016067972 -0.008668571 0.006351749
-0.016546635 -0.0027946315 0.0054668537 0.0042779725 -0.0111545995 0.0034871702 -0.00075215957 0.0030207674
-0.0018285377 -0.004005108 -0.019948455 0.0024534303 0.003420182 0.014517191 0.019386554 -0.0032968435
-0.007979103 0.008577495 -0.010859039 -0.005345925 0.009161714 -0.0016963343 -0.020729542 -0.004898391
-0.014261745 0.016663766 -0.0067687035 -0.0086107375 0.023141388 0.00796443 -0.0212685 0.0030539166
-0.007591076 -0.0061897025 -0.014555394 -0.0061741676 -0.016436806 -0.008732478 0.00051091396 0.0075876922
0.008861921 -0.020391108 -0.00604346 0.01784953 0.0010307494 -0.0069216155 0.01036169 -0.005739326
-0.007336641 0.004586035 0.0043343897 0.027251443 -0.011616806 -0.0035289961 0.0034377517 0.0053873654
0.023760244 0.017116426 -0.0041827923 -0.0012921335 0.024075333 0.00812594 -0.0072994907 -0.010243719
-0.02031185 -0.016753428 -0.008963962 -0.010668045 -0.006595774 -0.0036525181 0.0010568748 0.0068551092
0.006235473 0.0031866767 0.0070629083 -0.023217646 0.019186324 -0.0062342817 0.023638295 -0.00086628593
0.015442198 -7.699329e-06 -0.0022592668 -0.0018396847 -0.008228749 -0.01090474 -0.0050956947 0.0132660335
-0.0077936477 -0.01650697 0.004354868 0.0032449719 -0.0006218105 -0.0051164865 0.0003120594 -0.01258634
0.009334913 -0.007993789 -0.0070511983 -0.0067368685 0.00714738 -0.0073149647 -0.010726821 0.0059584053
0.014297311 -0.0119497385 0.017553631 -0.020492077 0.00018904546 0.012857795 -0.0047033997 0.0038590445
00000000: 593a 69b7 31f5 9bbb c462 77bb 338b 0e3a
00000010: fa4c 0abc 8bf1 873c d1c3 42bc 5a8f 6cbc
00000020: 1355 de3b 49c3 35bc 5679 9c3c f152 2dbc
00000030: 7997 573b fb4a 7dbc fbd2 863a a38d 92bb
00000040: 8608 ffba 534f 123c d1ae 2abb 0ff2 28bb
00000050: c1d4 843c ff7f 213c 60d0 c3ba a781 3cbc
00000060: b020 b23b 8fe5 71bc 9073 9f3b bda6 00bc
00000070: 80d3 213a ac61 9ebb 5578 fcba 5885 ae39
00000080: 2a76 b9bb 6191 e73b 85a1 9e3c 994b 853a
00000090: 9eee 72bc 8137 373c c06c c43b 4e90 29bb
000000a0: 8b67 1ebc 4c7c c83b bd76 6fbc eb7f 6ebc
000000b0: b6b0 d23c 8e69 2e3c 0819 24bb bf25 5e3c
000000c0: 0cc2 e9bb 0aa8 0f3c dabb 4b3b 9827 19bc
000000d0: f91d 2ebc f166 71bb c49b 0e3b c61b 2d3c
000000e0: 6931 923b a45a 70bc 115b 80ba 0cb1 27bb
000000f0: db15 23bc 1c8a 28ba e0aa ed39 13d3 1ebc
00000100: 7728 d23b 2bbf 943b 2d33 b2ba 1bb4 93bc
00000110: dfeb ec3b 1224 08bc aafb 773a 4498 bfbc
00000120: 20c1 38bc 711c e33b 8bf2 513c aa2d 153c
00000130: da76 17bc 5dc9 983b c45a e239 fed6 503c
00000140: 0847 74bb cc50 26b9 42b8 d4bb 6a47 3c3b
00000150: 87a2 faba 386b b6bb 9760 21ba d646 2c3c
00000160: 939e 193c bf84 0fbc d2e6 50bc ccb7 e63b
00000170: 89b0 2c3b 0726 0abb 78c1 aa3a f3df 30bc
00000180: cdf6 973b 5dc1 3abc 05f1 71bc 7a52 27bb
00000190: 2edf abbb 2ff7 0d3c 8637 96bc 0337 143b
000001a0: 4255 453b d88c a0bb f596 b4ba a475 fabb
000001b0: 6901 423c fb72 e93a 30b2 46bc 2fbe b639
000001c0: aaf8 44ba 83f4 c3b8 d1b2 d53a 1ab3 99bb
000001d0: 6d05 c13b 1e1f 5b3b 8f26 a3bc 43ec 503c
000001e0: 8c44 46bc dffb a5ba ad42 883a 4a28 943b
000001f0: 538e a6bb 683f 42bc e641 42bb 92e3 aebb
00000200: 19ba 77bc cf3e c83c 4053 cc3c a539 323b
00000210: 08df 573a 878b 373c 367c 92bc 1b69 abbc
00000220: cc47 91bc 7c9b 593c bdb9 783c 2b22 0ebb
00000230: 76a0 0bba fba0 83bc 9f06 0ebc 5522 d03b
00000240: cf8c 87bc 2326 37bb 4b23 b33b 3c2e 8c3b
00000250: c8c1 36bc 0289 643b 932c 45ba 11f8 453b
00000260: 8bab efba 483d 83bb f16a a3bc bbc9 203b
00000270: 2225 603b 83d9 6d3c 8dd0 9e3c db0f 58bb
00000280: c9ba 02bc 9f88 0c3c 1cea 31bc df2c afbb
00000290: 041b 163c 8957 deba 00d1 a9bc af82 a0bb
000002a0: 18aa 69bc 7382 883c 00cc ddbb 0d14 0dbc
000002b0: 0293 bd3c 3e7d 023c 473b aebc 3824 483b
000002c0: 90be f8bb fdd2 cabb bf79 6ebc ac50 cabb
000002d0: 7ba6 86bc ab12 0fbc dbee 053a 2da2 f83b
000002e0: 9731 113c 410b a7bc 3808 c6bb 2d39 923c
000002f0: 361a 873a b8ce e2bb 14c4 293c f510 bcbb
00000300: 3568 f0bb 7346 963b 7f07 8e3b 6b3e df3c
00000310: 6a54 3ebc bb46 67bb e74b 613b 7f88 b03b
00000320: d8a4 c23c bf37 8c3c ce0f 89bb ce5c a9ba
00000330: a239 c53c aa22 053c 9130 efbb 46d5 27bc
00000340: 0965 a6bc 7c3e 89bc 95dd 12bc 06c9 2ebc
00000350: 5d21 d8bb 165f 6fbb d586 8a3a d3a0 e03b
00000360: f052 cc3b 90d7 503b f86f e73b ef32 bebc
00000370: a32c 9d3c f248 ccbb 19a5 c13c 7717 63ba
00000380: 4601 7d3c 5e2c 01b7 3510 14bb 9321 f1ba
00000390: e0d1 06bc cba9 32bc c9f9 a6bb c759 593c
000003a0: db61 ffbb a039 87bc 48b3 8e3b 98a9 543b
000003b0: ff00 23ba 33a8 a7bb e79b a339 f036 4ebc
000003c0: 77f1 183c 62f8 02bc bd0d e7bb f3c0 dcbb
000003d0: 9234 ea3b 5fb2 efbb 8cbf 2fbc ba3e c33b
000003e0: 453f 6a3c d6c8 43bc a2cc 8f3c 00df a7bc
000003f0: 813a 4639 80a9 523c fa1e 9abb 06e8 7c3b

base_model.model.model.layers.1.mlp.down_proj.lora_B.weight f4 [2048, 2]
0.00514565 -0.0020208051 0.00030555666 0.004088055 0.00066822005 0.003375909 0.0041156285 -0.0042809118
0.00077404495 -0.0048347074 0.0075891 0.0007790893 -0.0016725413 -0.0015077745 0.0023156009 0.0020213507
-0.002017738 -0.0019615106 0.002990753 0.0040258556 0.0013774197 -0.0021864572 0.0048736217 0.003082462
0.005425012 0.0015529349 0.009102275 0.008201805 -0.0057402235 -0.00077840546 0.0032959227 -0.00019991791
-0.006541646 -0.0019799203 0.0015620244 -0.0031528086 -0.0036680931 0.00062304013 0.000995438 0.0016151264
-0.0029536665 -0.00096581003 0.0061831903 0.001468733 0.0018286933 -0.0015387658 0.001377893 0.0019929667
0.0014387965 0.0029393365 0.0018797911 0.0008054427 0.0053847544 0.00423795 0.002825827 0.0036242008
0.008481563 0.0017393323 0.006417832 0.0032467349 -0.0036444108 -0.005560841 -0.0054580076 -0.007689517
-0.0021625722 -0.001035605 -0.003790529 -0.0029693202 -0.007958284 0.0014833107 -0.0018250451 -0.00059765996
0.0026513743 0.002107819 0.002116689 -0.002011721 0.001769747 -0.007451797 -0.001209637 -0.007831135
-0.0042007305 0.008802691 -0.0013586243 0.0028423686 -0.0062886216 -0.0013719429 0.0040404135 0.002647928
-0.0024390656 9.924111e-06 -0.0034784903 -0.0025447856 -0.001100219 0.0031068856 0.0022629227 -0.0021713478
0.004830063 0.009156324 0.0040705386 -0.002044247 -0.0027659826 -0.003242405 0.000678286 0.0018263012
0.0009708528 -3.111641e-05 0.005912011 -0.0014604063 0.0062521487 0.0067215054 0.0011416846 -0.0020057426
-0.0033565967 0.00022783928 -0.0021345657 -0.002176868 -0.0041507236 0.0048844954 0.00431041 0.0013637551
0.0044762846 0.005747491 0.0057302467 0.00715375 -0.0049883095 -0.002195646 0.0038185313 0.0018203898
0.005631423 -0.0012726705 -0.005421736 -0.00025159735 0.0009718233 0.0039584897 0.0013678682 0.0028665522
-0.0040068068 0.002035457 -0.0033402229 -0.0008155083 -0.0003762382 -0.0065891435 0.0013045416 0.0049787425
-0.0075556817 5.684979e-05 -0.0018749418 0.002919557 -0.009777365 -0.0017792241 0.0014148465 0.0002260137
0.0013620488 -0.0009586975 -0.00087611284 -0.0009047424 0.006822192 0.0060370862 0.000511861 -0.0016236709
0.006873687 0.007923757 0.0035459406 0.008365185 -0.0015796783 -0.006852306 0.00036858773 -0.0037870614
0.0020885675 0.008501647 0.0020116358 0.00066727685 0.0066249063 -0.0013682719 0.0012369584 -0.0021997716
0.00027593388 0.0006594243 0.0051450566 0.0036582088 -0.0030299674 0.001516318 0.0024630115 -0.0002299026
0.00013879151 0.0008698 0.000391435 0.0057685156 0.00048221197 -0.0016298918 -0.0023262955 -0.0045087333
0.0036715628 0.00020688404 -0.007559499 0.0004255139 -0.000839328 0.0043417704 0.004205679 0.0037695102
0.0053944374 0.0014178646 -0.0021661923 0.0036988745 -0.005910272 -0.004572183 -0.0073197633 -0.00072052475
0.0028412396 0.007186298 -0.0022708229 -0.005022072 0.0022295576 0.0021934356 0.002738649 0.0026877928
0.0015039364 0.0053224126 0.000108270775 -0.0031679366 0.001610742 0.0010011112 -0.00086086924 -0.0021657646
-0.001923183 -0.0021385713 -0.0024672726 -0.0013437697 -0.0027302278 -0.00487291 -0.0015522777 0.005434097
0.0037001034 -0.002490002 0.002285215 0.004513593 0.00342596 0.005462539 0.0014298371 0.003126298
-0.00036050993 0.0017441215 -4.6378795e-05 0.0013933132 -0.0040230714 -0.0019407875 -0.0025858113 0.0043690037
-0.0050589205 -0.00497646 -0.00027329143 0.0038973272 0.0010158971 0.004751687 -0.0019119041 0.0012942993
00000000: d79c a83b 7c6f 04bb 1f33 a039 17f5 853b
00000010: 7d2b 2f3a 5b3e 5d3b 65dc 863b e446 8cbb
00000020: 47e9 4a3a 776c 9ebb fcad f83b cc3b 4c3a
00000030: 2c39 dbba 84a0 c5ba 56c1 173b a378 043b
00000040: 073c 04bb b08c 00bb 8200 443b 53eb 833b
00000050: 898a b43a aa4a 0fbb e7b2 9f3b 2103 4a3b
00000060: 4dc4 b13b d98b cb3a b521 153c dd60 063c
00000070: 7c18 bcbb e80d 4cba 6800 583b 0ea1 51b9
00000080: 4e5b d6bb 8dc1 01bb d7bc cc3a 5a9f 4ebb
00000090: 6464 70bb 8453 233a 5b79 823a a6b2 d33a
000000a0: 4d92 41bb 6a2e 7dba 5c9c ca3b 8082 c03a
000000b0: c4b0 ef3a 6ab0 c9ba 6b9a b43a 6f9c 023b
000000c0: 0096 bc3a e2a1 403b 5363 f63a 5824 533a
000000d0: 9872 b03b 80de 8a3b 8331 393b 0084 6d3b
000000e0: 41f6 0a3c 4ffa e33a ad4c d23b 2cc7 543b
000000f0: 11d7 6ebb b737 b6bb 16d9 b2bb 58f8 fbbb
00000100: f1b9 0dbb 23bd 87ba 866a 78bb ed98 42bb
00000110: 7663 02bc a66b c23a 5a36 efba 48ac 1cba
00000120: aec2 2d3b 5623 0a3b 26b8 0a3b 14d7 03bb
00000130: dbf6 e73a 342e f4bb af8c 9eba 294e 00bc
00000140: 48a6 89bb 2939 103c de13 b2ba 0847 3a3b
00000150: c810 cebb c4d2 b3ba 7265 843b dc88 2d3b
00000160: bbd8 1fbb bb7f 2637 62f7 63bb 6bc6 26bb
00000170: 3935 90ba e49c 4b3b 8b4d 143b 2c4d 0ebb
00000180: 8145 9e3b 6804 163c 2762 853b c6f8 05bb
00000190: 7d45 35bb 877e 54bb 01cf 313a 8060 ef3a
000001a0: d480 7e3a fe82 02b8 8bb9 c13b 1b6b bfba
000001b0: d3de cc3b 1340 dc3b 94a4 953a c772 03bb
000001c0: 59fa 5bbb 24e8 6e39 12e4 0bbb c9a9 0ebb
000001d0: cb02 88bb 1e0e a03b 573e 8d3b 07c0 b23a
000001e0: ccad 923b 7355 bc3b cbc4 bb3b 016a ea3b
000001f0: f974 a3bb d4e4 0fbb 5340 7a3b 259a ee3a
00000200: cd87 b83b bccf a6ba d1a8 b1bb d3e8 83b9
00000210: f5c1 7e3a 38b6 813b 0a4a b33a c4dc 3b3b
00000220: 884b 83bb 4d65 053b a4e7 5abb d6c7 55ba
00000230: d641 c5b9 bee9 d7bb 27fd aa3a b824 a33b
00000240: a795 f7bb ff71 6e38 9bc0 f5ba 0a56 3f3b
00000250: 3e31 20bc db34 e9ba 5f72 b93a 17fe 6c39
00000260: c686 b23a 1a51 7bba f0aa 65ba 3c2c 6dba
00000270: b28c df3b c0d2 c53b 692e 063a 5bd1 d4ba
00000280: aa3c e13b a5d2 013c 0363 683b 210e 093c
00000290: 350d cfba 4f89 e0bb 023f c139 5930 78bb
000002a0: 59e0 083b 7e4a 0b3c a6d5 033b 31ec 2e3a
000002b0: be15 d93b 9657 b3ba 7021 a23a 0b2a 10bb
000002c0: 38ab 9039 37dd 2c3a dd97 a83b 8fbe 6f3b
000002d0: 6b92 46bb 30bf c63a 7a6a 213b 0212 71b9
000002e0: 9088 1139 4a03 643a 8439 cd39 d105 bd3b
000002f0: 65d1 fc39 18a2 d5ba c374 18bb ffbd 93bb
00000300: 9a9e 703b 03ef 5839 acb5 f7bb 8217 df39
00000310: 5906 5cba 6945 8e3b cbcf 893b e309 773b
00000320: d2c3 b03b a4d7 b93a adf6 0dbb d168 723b
00000330: f4aa c1bb 40d2 95bb a0da efbb 99e1 3cba
00000340: 1734 3a3b 097b eb3b 16d2 14bb 3190 a4bb
00000350: c51d 123b bebf 0f3b e87a 333b ae25 303b
00000360: bb1f c53a a267 ae3b 6e0f e338 289d 4fbb
00000370: 881f d33a b837 833a f5ab 61ba 80ef 0dbb
00000380: 5013 fcba 4627 0cbb f7b1 21bb 6e21 b0ba
00000390: 9fed 32bb efac 9fbb cc75 cbba 8210 b23b
000003a0: 6f7d 723b 4d2f 23bb 8cc3 153b c3e6 933b
000003b0: 1286 603b 19ff b23b 5f69 bb3a 94e2 4c3b
000003c0: d302 bdb9 029b e43a da86 42b8 d59f b63a
000003d0: f8d3 83bb 0662 feba b776 29bb dc29 8f3b
000003e0: 4dc5 a5bb 9211 a3bb 8e48 8fb9 4d6a 7f3b
000003f0: da27 853a 0ab4 9b3b db98 faba 7aa5 a93a
