output_model/single_lora_2/gpt_3.5_turbo_0125_llama_model/adapter_model.safetensors (safetensors, 82208 bytes, 2 tensors)

base_model.model.model.layers.1.mlp.down_proj.lora_A.weight f4 [2, 8192]
00000000: 63fe 1f3c 8aa9 1ebc 4116 13bb 1be0 bdbb
00000010: b4fa 35bc d343 7e3b d5c7 98ba 5fc9 48bc
00000020: d3a0 01bc 4602 20bc 6a6e e5bb 7d58 0ebc
00000030: 605b 423b 999f 68b9 8fc7 4cbc 8bde 733c
00000040: 851e 9d3b e3f2 b63c 320d c23b 0b40 b03c
00000050: d100 243c 50e8 15bc 83b2 a23b f445 24bb
00000060: 9fe5 4d3c c03e 95ba 3b4c 04bc 1c39 3f3c
00000070: 8b00 803b 0994 f9ba bb86 25bb cc3e aa3c
00000080: b364 2f3c fd92 563c 73a6 393c 8a2b 9ebb
00000090: 9397 d2ba 85ff b6ba 41a0 f03a 70cc 0dbc
000000a0: 086e 453c e416 cb3b 3f01 d1bc 2aea 393b
000000b0: e43f 6f3c 8926 5abb 4779 2e3c d4f7 483c
000000c0: 3b13 82bc daad ed37 63bc 533c 18fb 743b
000000d0: 68e6 87bc a594 5c3b f2ce 84bb 689b 4ebc
000000e0: c949 393b 7236 8fbc f215 b4bb caee c83b
000000f0: 3824 813b e8bf b5bc 0d66 35bc 9a4b cfba
00000100: 969a 6abb e3eb 943c 4bef 6b39 db1d 443b
00000110: 3e85 2b3b 617f 65bc 8517 083c dc75 b63b
00000120: aade b03a 399b 833c 17d8 65b9 5b74 273b
00000130: 881f 943b e567 1dbc f2c7 453c 684a 983c
00000140: 16b1 083c 984a 87bc a947 acbc ebd5 74bb
00000150: 5036 abbc 3f9a 7abc c4db 56bc 35e3 cd3a
00000160: 9f3c 25bb 04a6 62bc 7777 36bc 9b8e 9dbb
00000170: 9cb1 5dbc d1cc 09bc a2e5 503c 8f39 733b
00000180: 65a5 dd3b 810a 36bb 2050 8abc 3e09 c9bb
00000190: 2863 b8bb 7a0d 77bc 0597 363b 3e8e a83c
000001a0: 8e9d 98bb 660a 853a 7fb1 2abc 056a f6bb
000001b0: 8e5f 8c3c 606c fc3a eb64 af3b 2d1d 8ebb
000001c0: 9a94 d93a fa44 7b3c 747d 0f3c 832c 77bc
000001d0: 9a45 c03b a418 fb3b 158d 6e3b 1eb0 4f3c
000001e0: 91a5 f73a 0f8a fb3a 6e3b 163c 8460 00bb
000001f0: f147 2937 c029 47bb ac80 f3bb cc4b fd3b
00000200: 216b 6fbc 481c 563b d473 ec3a 0c78 9d3c
00000210: 8e8e 813b f2f6 7dbb 582e 0fbc 8683 56bb
00000220: 8133 283a 24c6 843a 3c49 2f3c d5e9 36bc
00000230: 1c95 d03b b668 2abc 705e 423c ede3 b93b
00000240: b4e2 4abc a788 673c af73 b63b 3b46 8b3c
00000250: e51b 45b9 7777 f13b 8749 513c ef78 8eb9
00000260: bd4b 0f3c edc2 aa3b 25c6 983c cef9 1e3c
00000270: acc6 3d3c 75c3 a53b 250e 303c 4759 7abc
00000280: b012 83bb 6d78 01bb c062 beba ee4e 6c3c
00000290: cc13 88bb 3c73 ccbb 2a45 20bc eb3b 8abc
000002a0: 8f90 35bc 3b75 ebbb 6401 9c3b df94 16bc
000002b0: b35a 753c 5f6e 553c c1ee e2b9 6f4e 7bbc
000002c0: a908 6b3c e1aa 8ebb 393c 5fbc 89df 803c
000002d0: 4ac5 923a dc99 663b 0fe0 cf3a 2782 01bb
000002e0: d286 0f3c ba40 37bb 76b8 643b 3d4e 6e3c
000002f0: 0c7f a9bb 4561 183c 531e 4cba 928e 78bc
00000300: 93b4 523b 2578 8e39 0ba4 133c 3d4b d83b
00000310: 4f42 5c3b e182 b6bc 769e 293c 4a29 5b3c
00000320: 346e 66ba a303 c23a 742f 05bc 1808 7cbb
00000330: cfd9 f8ba db80 0a39 cca1 b639 4c1d 0cba
00000340: 5a9a cfbb 649a 13ba ab20 4ebb 7722 8fbc
00000350: 0af7 08bc e4f4 d73b 5e56 883b 89c0 e7ba
00000360: bc9f d5bb c1bc 6cbc 8b0b 55bb 3c4f bebc
00000370: 3846 15bc 9db8 543c bc65 433c 12a4 f43b
00000380: 7692 90ba f4ba 1dbc 395c 783b 763b 0b3c
00000390: 7cd5 95ba 3b5f d1bb ef78 a4bb c3e8 77bc
000003a0: 2d64 423c 686a 2ebb 4849 993c 6780 39bb
000003b0: c125 a4bb f484 7d39 a0ce 2bbb 789e edbb
000003c0: 7fc4 8fb9 e00d 87bc 5603 71bb 9ba7 b038
000003d0: e51f 343a 783e 0abc 0cf6 f73b aa86 813b
000003e0: 6a89 88bb 6d46 16bc 9a45 993b 1923 183b
000003f0: 9d7c 2e3b c58d 8abb a842 2cbc 80c8 3e3b
0.00976524 -0.009683976 -0.0022443684 -0.0057945377 -0.011107136 0.003879775 -0.0011656234 -0.012255042
-0.007911879 -0.009766167 -0.007001688 -0.008688089 0.0029656515 -0.00022184699 -0.01249875 0.014884601
0.004794898 0.022332614 0.005921983 0.021514913 0.01000996 -0.009149626 0.004965128 -0.002506611
0.012566953 -0.0011386499 -0.008074815 0.011671331 0.0039063147 -0.001904131 -0.0025257308 0.020781897
0.010705161 0.013096568 0.0113311885 -0.0048269676 -0.0016066901 -0.0013961649 0.0018358306 -0.008654699
0.012050159 0.006197797 -0.02551329 0.0028368332 0.014602635 -0.003328713 0.010649032 0.012266118
-0.01587831 2.8333558e-05 0.012923333 0.003738111 -0.016589358 0.0033657935 -0.00405299 -0.012610294
0.002827274 -0.017482016 -0.00549578 0.0061319815 0.003941085 -0.022186235 -0.011071694 -0.0015815378
-0.0035797707 0.018178886 0.0002250049 0.0029925022 0.0026171948 -0.01400742 0.008306389 0.005568249
0.0013494093 0.016065227 -0.00021919642 0.002555153 0.0045203604 -0.00960729 0.012071596 0.018590167
0.008343002 -0.016515061 -0.021030264 -0.003735895 -0.020899922 -0.015295564 -0.01311392 0.0015707972
-0.0025213135 -0.0138335265 -0.011136881 -0.0048082597 -0.013531115 -0.008410648 0.012750061 0.0037113165
0.0067641013 -0.0027777257 -0.01688391 -0.006135135 -0.0056270547 -0.015078897 0.002786101 0.020575639
-0.004657454 0.0010150194 -0.010418295 -0.0075199627 0.017135408 0.0019258372 0.0053526065 -0.004336974
0.0016600073 0.0153362695 0.008757938 -0.015086296 0.005867672 0.0076628495 0.003640001 0.012676267
0.0018893947 0.0019190925 0.009169443 -0.0019588778 1.0089935e-05 -0.0030389875 -0.0074311104 0.007729983
-0.014612944 0.0032670666 0.001803989 0.019222282 0.0039537614 -0.0038751927 -0.008739077 -0.0032732203
0.0006416366 0.0010129851 0.010698613 -0.011164148 0.0063654315 -0.010400942 0.011863336 0.005672923
-0.012383152 0.014131702 0.00556799 0.017001262 -0.00018797776 0.0073689776 0.012773878 -0.00027174453
0.008746085 0.0052112252 0.01864917 0.009703113 0.011583012 0.0050587007 0.01074556 -0.015280074
-0.0040000305 -0.0019755617 -0.0014525279 0.014423115 -0.0041527506 -0.006239323 -0.009782115 -0.016874274
-0.011081829 -0.007185606 0.004760908 -0.009190767 0.014975238 0.013026803 -0.00043283965 -0.015338524
0.014345326 -0.0043538664 -0.013625198 0.01573159 0.0011197713 0.0035186922 0.0015859621 -0.0019761415
0.008760171 -0.0027962164 0.0034899986 0.014545021 -0.005172616 0.009300535 -0.0007786501 -0.01517071
0.0032151088 0.00027173865 0.009011279 0.006600766 0.003360886 -0.022279205 0.010352721 0.013376543
-0.0008790225 0.0014802109 -0.0081289895 -0.0038456973 -0.001898581 0.00013208708 0.00034834293 -0.0005344942
-0.006335539 -0.0005630611 -0.0031452577 -0.017472489 -0.00835968 0.0065904725 0.0041606864 -0.0017681281
-0.006519286 -0.014449299 -0.00325081 -0.023231141 -0.00911098 0.012983468 0.011926111 0.007465848
-0.0011029977 -0.009627093 0.0037896766 0.008498063 -0.0011431421 -0.006389526 -0.005019299 -0.015131178
0.011864704 -0.0026613716 0.018711701 -0.0028305294 -0.0050093834 0.00024177489 -0.0026215687 -0.007251557
-0.00027421486 -0.016486108 -0.003677567 8.423553e-05 0.0006871208 -0.008437745 0.007567173 0.003952821
-0.0041667717 -0.009172064 0.0046774866 0.002321428 0.0026624568 -0.004228326 -0.010513939 0.0029111207

base_model.model.model.layers.1.mlp.down_proj.lora_B.weight f4 [2048, 2]
00000000: ecfb 8dbb 9a96 75ba 4997 11bc ba75 b3bb
00000010: 732d 27bb 837d ca38 d3e1 d13b 3406 0fba
00000020: 14e7 663a 013e bb3a 6bab 963a 17d8 6d3a
00000030: 206b 0d3b e190 66bb 9a3c 0dbb 97ab 2ebb
00000040: 3283 5b3b 7a63 8d3a e47c 253b ba21 8e3b
00000050: 4a60 8dbb 108a 8fbb 7ba6 b73b de49 6d3b
00000060: 58d5 50ba 0eba c0ba 11d1 a73b 7a1d c53b
00000070: 6be2 3c3b 99c2 cb3a cec8 493b 6f54 853b
00000080: 86b2 fdba 0bd3 983a a106 a0ba b66f 0abb
00000090: 48b2 dd39 c38f 2dbb 8bdf babb e238 353a
000000a0: 191e d8bb 39e0 ccbb 0c7d d739 bd98 4c3b
000000b0: a620 b4b8 6b3d 0339 8548 983b 7bb8 183b
000000c0: 707f 353b b947 993b 35b4 ed3a f33e 34bb
000000d0: f7b2 3a39 8aeb 723b 5907 bcba ae10 36bb
000000e0: fb8d 7b3b 861d 253a 4f91 c03a 5d4f 243b
000000f0: 00de 02bb 77cb f3bb e14d 233b 20d4 b63b
00000100: 17d9 aa3a 974c 903a 5544 b3ba 3e2d b6bb
00000110: f193 a1bb c2c3 04bb 577f d036 f462 f33a
00000120: b12b d1ba d08d eabb 001a 253b 7cf7 f1b8
00000130: 470f ecbb 07e6 08bb 55f0 02bb 39ca ff3b
00000140: 38aa a13b 8853 c13b 1bb8 c93b 82d4 313b
00000150: 63bc 91ba 7b4d b5ba 5f01 313b e40d 743b
00000160: 84b4 653b 15bd 523b 6560 9bbb 35e4 7bbb
00000170: e15a 4cbb e639 00bb 0783 7c3b c067 58ba
00000180: a8a0 6b3b 5d21 043b 67d9 cd3a f0fd 573b
00000190: f817 feba f2a8 68bb 0ee6 58bb 8fe6 45bb
000001a0: 259b 40bb 6a3b 1ebb bce2 feba 666f 0d3b
000001b0: 7981 793b a873 0e3b e831 58bb 5d1b 90bb
000001c0: aab6 573b 2f64 c3ba 0120 19bb 98f3 373b
000001d0: 06e5 a7bb c8ab 83b9 3dcb 36bb a9b5 71ba
000001e0: 78cc 05ba 2c00 ae3a 891d 0c3b d3af 033c
000001f0: a24e 4d3a 21de 2abb a2f7 7dba a974 9a3a
00000200: 5764 a6ba c7ab 503a e8f6 08bb 319c b5bb
00000210: ee1a ec3b 9e48 513b 6003 00ba 418f 71ba
00000220: 5b27 803b 0d81 18bb 5f5a 0cbb 4bcb cd39
00000230: b93a 07bc c761 12bc d43b 233c ec1b a13b
00000240: 23de ac3b 8afa 013b edb5 5cbb b95e cd39
00000250: 7a6e ddba 6081 6c3b 4bd6 1fba eeb2 843b
00000260: b47d 0cb9 b577 cc3a d7c5 03bb 658c c5ba
00000270: c442 af3b f85e 7a3b 8c78 b13b ab33 923b
00000280: 6f42 b7b8 06c2 9b3b aca9 deba b0b7 f1ba
00000290: bcfa 8abb c2f7 a5bb e26f e039 d5f6 093b
000002a0: a719 9f3b 8c1a 00ba 37b8 a53b 6e4d 513a
000002b0: 6be1 7e3b 79cb 453b 9870 ca3a b524 c73a
000002c0: 507f 7e3b c8bb ef3a 3f40 c43b a807 2d3b
000002d0: 6fd1 7b3b 8edd ad3b c449 b33b a8aa b23b
000002e0: 0176 853a 7bca aebb 9da9 163b b83a 25bb
000002f0: 6234 b738 d66d 19bb adfc a33a a210 a03a
00000300: 0585 b63a 0eb4 b33b 4994 d9ba 303d 83bb
00000310: 3fe1 743b e493 52ba 4625 d237 97b5 fbb9
00000320: 7fe7 3cba 0b32 183a 0239 9a3b c9c9 ccba
00000330: eae6 39bb a94d b73a 1ef0 f136 9dbd 37bb
00000340: ec73 223c 860c 0d3b 30db ae3b d061 663a
00000350: e591 93bb 0f17 75bb 99b5 a23a f745 ec3a
00000360: d79b 3a3b a873 a53b 7292 e8bb 2584 0ebc
00000370: 2eb4 9e3b b1b3 fa3b 639a 063b d433 b23a
00000380: dd13 5bb8 f077 17bb 67af 7bbb 8296 bbbb
00000390: 88ab 91bb 7b93 3ebb 0bfb 123b 98db f2ba
000003a0: e1fd 07ba 18e4 98b9 5a4d 253b 11d3 e039
000003b0: c665 7cb8 a0bb 843b 4532 183b c9a2 9f3b
000003c0: f051 bb3b fe9e c83b a9dc 363b 0b6e 8738
000003d0: 1e4e dcba a6f5 92ba a4dc 22bb 7300 42ba
000003e0: 0dcd a6ba e050 8b39 b49d 193a de7e 093b
000003f0: 5392 0d3a 92ae 8cbb a4bf bc3b 46b3 ad3b
-0.00433301 -0.00093684497 -0.008886167 -0.0054766806 -0.0025509268 9.655489e-05 0.006405094 -0.00054559414
0.0008808237 0.0014285446 0.0011495178 0.00090730324 0.0021578744 -0.003518157 -0.0021551014 -0.0026652568
0.0033494947 0.0010787093 0.0025251443 0.0043375166 -0.004314457 -0.004380472 0.005604563 0.0036207358
-0.0007966361 -0.0014703886 0.005121358 0.006015477 0.002882148 0.0015545666 0.0030789855 0.004068903
-0.0019355572 0.0011659575 -0.0012209007 -0.0021123714 0.00042285235 -0.0026483394 -0.005702918 0.0006913078
-0.006595385 -0.0062523154 0.00041101163 0.0031218969 -8.58915e-05 0.00012516014 0.004647317 0.0023303318
0.0027694367 0.0046777395 0.0018135371 -0.002750334 0.00017805012 0.0037066662 -0.0014345451 -0.0027780938
0.0038384188 0.000629865 0.0014691743 0.0025071718 -0.0019968748 -0.0074400264 0.0024918246 0.0055794865
0.0013034669 0.0011009154 -0.0013676981 -0.0055595925 -0.004930966 -0.0020258282 6.2137074e-06 0.0018568919
-0.0015958456 -0.0071580186 0.00251925 -0.00011537873 -0.0072039696 -0.002088906 -0.0019979675 0.0078060892
0.0049336217 0.0058998503 0.0061559803 0.0027134721 -0.0011118766 -0.0013832295 0.0027008874 0.0037239725
0.0035050223 0.0032156159 -0.0047417157 -0.0038435583 -0.0031182098 -0.001956576 0.0038530247 -0.0008255206
0.0035953913 0.0020161488 0.001570505 0.0032957755 -0.0019385805 -0.003550109 -0.0033096108 -0.0030197238
-0.0029389348 -0.00241443 -0.0019446234 0.0021581291 0.0038071556 0.0021736417 -0.003298873 -0.004397793
0.0032915273 -0.0014907176 -0.0023365023 0.0028068777 -0.0051237373 -0.00025114254 -0.0027892136 -0.000922049
-0.00051040156 0.0013275198 0.002137991 0.008037525 0.00078318466 -0.002607234 -0.0009688084 0.0011784035
-0.0012694699 0.0007960167 -0.002089912 -0.005542301 0.0072053587 0.0031934152 -0.00048833154 -0.0009214767
0.0039109415 -0.002327028 -0.002141617 0.00039252112 -0.008253747 -0.008934445 0.009962995 0.0049166586
0.005275504 0.001983317 -0.0033677772 0.0003917122 -0.0016893886 0.0036087856 -0.0006097301 0.0040496504
-0.00013398268 0.001559964 -0.0020106935 -0.0015071748 0.0053485353 0.0038203578 0.0054159816 0.0044617257
-8.738494e-05 0.004753354 -0.0016987822 -0.0018441584 -0.0042413156 -0.0050649354 0.0004280797 0.0021051664
0.004855353 -0.00048867683 0.0050573605 0.0007984255 0.0038891684 0.0030181094 0.0015444933 0.0015193435
0.0038833208 0.0018290216 0.005989104 0.0026402269 0.0038424393 0.0053059524 0.00547144 0.0054524727
0.0010182263 -0.005334196 0.002298928 -0.0025212 8.735877e-05 -0.0023411415 0.0012511216 0.0012211988
0.0013925141 0.0054841107 -0.0016599979 -0.004005097 0.0037365702 -0.00080329017 2.5051308e-05 -0.00048009746
-0.00072061265 0.0005805797 0.004706503 -0.0015624102 -0.0028366395 0.0013984937 7.210313e-06 -0.0028036602
0.009915333 0.0021522357 0.005336188 0.0008788379 -0.004503476 -0.0037397777 0.001241374 0.0018026222
0.0028474235 0.0050491877 -0.0070975358 -0.008698498 0.0048432564 0.0076508154 0.00205388 0.0013595768
-5.2232168e-05 -0.002311226 -0.0038404108 -0.005724729 -0.004445497 -0.0029079604 0.0022427465 -0.0018528579
-0.0005187672 -0.00029161642 0.0025223107 0.00042881866 -6.0176266e-05 0.004050687 0.0023223322 0.0048717004
0.005716555 0.006122469 0.002790252 6.457799e-05 -0.0016807949 -0.0011212125 -0.002485075 -0.00074005796
-0.0012725905 0.00026572403 0.00058599864 0.002098016 0.0005400527 -0.0042932713 0.00576015 0.005300912
