output_model/single_lora_2/claude_3_5_haiku_20241022_llama_model/adapter_model.safetensors (safetensors, 82208 bytes, 2 tensors)

base_model.model.model.layers.1.mlp.down_proj.lora_A.weight f4 [2, 8192]
0.01042857 0.008571093 -0.0017543093 -0.00053403294 0.00062530313 -0.0077350284 -0.004001588 -0.0018776422
0.019672731 -0.01242995 0.0068945717 -0.0039360807 -0.020764826 0.0036719057 -0.012293937 0.0023156328
-0.0077276896 0.027438924 0.0018362169 -0.012723716 0.008881594 0.0067733 0.005225222 0.008233922
0.019824423 0.0014912145 0.0050172056 -0.0033051758 0.0022531513 0.0047811083 -0.0057673627 0.003981577
-0.006390547 0.0029061586 -0.0065990654 -0.010198926 -0.014886392 0.016974077 -0.014902798 -0.002730528
-0.00012654594 -0.010588474 -0.012412445 -2.5257057e-06 0.026063804 7.94804e-05 -0.025106438 -0.012565098
-0.007719577 0.0067939134 -0.010448163 0.008292516 0.004286169 -0.01707101 0.006085306 -0.008836465
-0.016271373 0.0062733376 0.0151479365 0.008553832 0.00429544 -0.021449111 -0.009590291 -0.0022537373
-0.0067026806 -0.01863269 -0.0016594117 0.009620453 0.01514609 -0.0052125813 -0.010649074 0.0057701883
0.005166402 0.01666457 -0.0060382932 0.016967561 -0.004614987 0.014431952 0.003207546 0.0033279264
-0.013549872 -0.0079387585 0.008773971 0.0027391778 -0.020742927 -0.0063972697 -0.01900588 -0.00023931316
0.036459304 0.007344752 -0.0004978618 -0.026134733 0.01931789 -0.0019276404 0.0037091307 -0.0016838788
0.0015362399 0.004039015 0.0005559308 0.0057791974 0.005489504 -0.016225792 -0.0015327419 0.018263059
0.0016906131 -0.0033067004 -0.011205787 0.017377954 0.0076571065 -0.011346654 0.0051983283 0.0106146205
0.008544827 0.0009316808 0.006001551 -0.0220013 0.012523973 0.013012722 -0.010195629 0.012838134
0.009586331 0.0070163347 -0.0041172896 0.004810538 -0.0070249955 -0.0067167063 -0.018763438 0.0046324623
0.029188557 0.0026900426 0.008046152 -0.016805455 -0.019061035 0.0005646913 -0.023177942 0.0035611717
-0.0030132597 0.0113285035 0.0016258555 -0.013075767 0.0009088362 -0.008284217 -0.027873935 0.009367407
-0.004165802 -0.021712396 0.027949717 -0.010820775 0.006420202 0.021020446 0.003180652 -0.012936676
0.013924574 -0.0020039375 0.0020871349 -0.0070986664 -0.0016686539 0.017869724 0.0012076522 -0.0063922973
0.0017679267 -0.019036394 -0.017639076 0.00072275416 0.0124663 -0.0002611675 0.019216886 -0.0071059386
-0.0073667145 0.020678708 0.020571513 0.015174221 -0.013963019 -0.004944638 -0.02311426 -0.006588252
0.013720767 0.023877492 -0.006037593 0.010602233 -0.009719134 -0.0075073647 0.012632176 0.006388377
0.015134535 -0.011912004 -0.0058190576 0.0039419513 0.0019040481 0.0019597928 0.005602819 0.0021861459
-0.00015513499 -0.018855486 0.016143516 0.0057256347 0.008244005 -0.002847424 0.0026365605 0.020585448
0.01894545 0.015529054 -0.013102956 -0.0020669808 0.008564926 -0.0009250813 -0.009081884 0.024382645
-0.01671404 -0.009151306 -0.0065735355 0.0006337976 -0.018029483 -0.0049860305 0.0016473496 0.0025143623
-0.0089347 0.0012738248 -0.0077021504 0.011374816 0.006613955 -0.010948044 -0.0040922533 -0.0059961784
-0.011355537 -0.023229491 -0.012824028 0.020819485 -0.01730256 -0.017847799 -0.0065188203 0.0027543446
-0.0046410863 0.0019848435 -0.0048065707 -0.010298768 -0.018548371 0.013783275 -0.0062706117 -0.014115179
-0.019652078 -0.010421621 -0.0031740128 0.006551431 -0.0002240676 -0.019946132 0.00021145242 0.011959021
0.008086436 -0.0017812194 0.004700097 -0.00028451407 0.00934803 0.0020294937 -0.025666416 -0.014963555
00000000: 98dc 2a3c c56d 0c3c daf0 e5ba 58fe 0bba
00000010: 62eb 233a 1f76 fdbb c11f 83bb 381b f6ba
00000020: b528 a13c fda6 4bbc dceb e13b 3dfa 80bb
00000030: ff1a aabc 5ba4 703b 826c 49bc dfc1 173b
00000040: 8f38 fdbb 98c7 e03c 37ad f03a 2277 50bc
00000050: 1b84 113c 8ff2 dd3b 5738 ab3b 92e7 063c
00000060: d466 a23c db74 c33a 5f67 a43b a69b 58bb
00000070: 9ba9 133b d8aa 9c3b 25fc bcbb e477 823b
00000080: cb67 d1bb 4075 3e3b f93c d8bb 6519 27bc
00000090: 0ee6 73bc 380d 8b3c de2a 74bc a8f2 32bb
000000a0: 6bb1 04b9 477b 2dbc 915d 4bbc 4b7f 29b6
000000b0: c283 d53c b7ae a638 04ac cdbc d7dd 4dbc
000000c0: 81f4 fcbb 7a9f de3b c62e 2bbc 55dd 073c
000000d0: fe72 8c3b 81d8 8bbc 3f67 c73b d2c6 10bc
000000e0: 8b4b 85bc 9290 cd3b 0d2f 783c 5f25 0c3c
000000f0: c3c0 8c3b 0cb6 afbc 9920 1dbc 70b3 13bb
00000100: 29a2 dbbb 95a3 98bc 9e80 d9ba 1b9f 1d3c
00000110: 4e27 783c 4dce aabb 7479 2ebc d913 bd3b
00000120: ec4a a93b 2384 883c e0dc c5bb 8eff 8a3c
00000130: 5139 97bb fe73 6c3c b135 523b 5719 5a3b
00000140: 4800 5ebc 9111 02bc b4c0 0f3c c783 333b
00000150: 12ed a9bc 30a0 d1bb 38b2 9bbc 23f0 7ab9
00000160: 5a56 153d 3fac f03b f182 02ba 8218 d6bc
00000170: 8d40 9e3c e1a8 fcba e314 733b 99b5 dcba
00000180: a85b c93a b759 843b e2bb 113a 6c5f bd3b
00000190: 4ce1 b33b f4eb 84bc 49e6 c8ba 699c 953c
000001a0: 9097 dd3a 3ab5 58bb 7a98 37bc 365c 8e3c
000001b0: 77e8 fa3b 51e7 39bc bd56 aa3b f2e8 2d3c
000001c0: 9aff 0b3c 0a3c 743a a9a8 c43b 123c b4bc
000001d0: 5a31 4d3c 5033 553c 910b 27bc 0957 523c
000001e0: fd0f 1d3c 48e9 e53b 54ea 86bb b8a1 9d3b
000001f0: ef31 e6bb d117 dcbb c8b5 99bc e9cb 973b
00000200: d71c ef3c 6d4b 303b 02d4 033c 98ab 89bc
00000210: e325 9cbc cb07 143a abdf bdbc 8c62 693b
00000220: 1c7a 45bb 309b 393c a81a d53a be3b 56bc
00000230: f73e 6e3a 86ba 07bc e157 e4bc c179 193c
00000240: 4881 88bb 32de b1bc cef6 e43c 9f49 31bc
00000250: 8f60 d23b 1233 ac3c 7c72 503b 5af4 53bc
00000260: e523 643c 7e54 03bb 50c8 083b ee9b e8bb
00000270: bcb6 daba 8763 923c 154a 9e3a 7a76 d1bb
00000280: c7b9 e73a 36f2 9bbc d37f 90bc 3677 3d3a
00000290: 743f 4c3c 4fed 88b9 bb6c 9d3c efd8 e8bb
000002a0: 7b64 f1bb 6566 a93c 9785 a83c 4c9d 783c
000002b0: 25c5 64bc a106 a2bb 1e5a bdbc 43e2 d7bb
000002c0: 11cd 603c bb9a c33c 00d7 c5bb fdb4 2d3c
000002d0: 013d 1fbc 5700 f6bb 30f7 4e3c 9755 d13b
000002e0: d7f6 773c 912a 43bc cbad bebb 7c2b 813b
000002f0: 4191 f93a de6f 003b da97 b73b 7145 0f3b
00000300: bbab 22b9 d276 9abc 683f 843c 1b9e bb3b
00000310: dd11 073c d99b 3abb 25ca 2c3b d0a2 a83c
00000320: 7d33 9b3c 936d 7e3c c8ad 56bc 2f76 07bb
00000330: e753 0c3c 2881 72ba 2fcc 14bc 1dbe c73c
00000340: e2eb 88bc 5cef 15bc d066 d7bb 7025 263a
00000350: 91b2 93bc db61 a3bb e1eb d73a 00c8 243b
00000360: d962 12bc 78f6 a63a 5262 fcbb 705d 3a3c
00000370: e0b9 d83b 6d5f 33bc 4f18 86bb 977b c4bb
00000380: 930c 3abc c64b bebc df1b 52bc a08d aa3c
00000390: 19be 8dbc 8c35 92bc d49b d5bb 3c82 343b
000003a0: 4114 98bb 2614 023b 7080 9dbb 2abc 28bc
000003b0: c1f2 97bc 3fd3 613c b479 cdbb 5a43 67bc
000003c0: 65fd a0bc 72bf 2abc 1903 50bb 63ad d63b
000003d0: b0f3 6ab9 1266 a3bc 54b9 5d39 c5ef 433c
000003e0: f97c 043c ce77 e9ba 4503 9a3b d52a 95b9
000003f0: 7b28 193c 4101 053b 6042 d2bc b329 75bc

base_model.model.model.layers.1.mlp.down_proj.lora_B.weight f4 [2048, 2]
0.0057978146 0.0043164566 0.005258398 0.00071982347 -0.0025063765 -0.0007561403 0.009402334 0.0042911503
-0.00280519 -0.0012822165 0.003399053 0.0018525695 0.0046335063 0.005468179 -0.0071722968 -0.001822474
-0.0024877214 0.00030537602 -0.00036768804 -0.0026508984 -0.0031939948 -0.0072706225 -0.00046124842 0.006378213
0.0013372249 0.0009892902 0.010263784 0.009907583 -0.0063594747 -0.006457768 0.0022064736 -0.0012029086
-0.0037794271 -0.0074378583 -0.0066192015 -0.00043637477 -0.00036820883 -0.0043186564 -0.0020453623 -0.0049649384
-0.0026639642 0.0013405072 -0.0006544852 -0.0030644087 0.003260239 -0.0035265104 0.00239364 0.003917303
0.00029316268 0.0054659643 0.0020823018 0.0061398237 -0.00037473268 -0.00030153114 -0.0026296477 -0.0018472059
0.003920306 -0.00011998905 0.0037262905 0.00023657618 -0.014368239 -0.0033511873 -0.0037593336 -0.004011572
0.0028645482 0.0010195364 0.0057841106 0.0004957661 0.0011294398 -0.0019975912 0.00032035413 -0.00095562753
-0.0012326995 0.004374461 -0.00082498544 0.003520922 0.0014905344 -0.007870878 0.0005612405 -0.0068049547
0.0017494754 -0.00023200747 -0.00024195526 0.004864667 0.0005308102 -0.00029465542 -0.0008852866 -0.001073367
0.007867273 -0.0019590503 -0.008110846 -0.007075967 0.0023471485 0.0117662065 -0.0023794344 -0.0040980466
0.006862323 0.008134785 -0.0035906376 0.002842851 -0.0060255723 -0.006320976 -0.0029548125 -0.0030666958
0.00076159055 -0.0017963264 0.0020469143 -0.00012085219 0.003627731 -0.0011786066 -0.0015106102 -0.003940385
0.0041312426 0.0022712222 -0.0002740605 -0.010616525 0.00281321 0.0010386131 -0.005831178 -0.0016007401
-0.0042485036 -0.0016463101 0.006899385 6.497594e-05 -0.009664969 -0.0013166422 -0.00064154074 -0.00028671298
0.006647334 -0.0016322513 0.0039817924 0.006741025 -0.0008104023 0.0032871375 -0.0028132857 0.004246861
-0.0014781874 0.0051570716 0.0016339195 0.0020490761 -0.0041799373 -0.0045446497 0.0034854189 0.009802196
-0.0024156352 0.00089833123 0.0033332866 0.0037573678 0.0006956464 -0.0034765855 0.007399642 0.006667315
-0.0019065827 -0.00046119338 0.004392914 -0.0014274983 0.005834109 0.0031756593 -0.002191647 -0.00012952318
-0.0002307836 -0.0013426248 -0.0019090642 0.0030301944 -0.009247375 -0.008617395 -0.00030838064 0.0013312236
0.0075508393 0.002714078 0.014668886 0.0065349815 0.0036257342 0.0046119834 0.004843026 0.0024264823
0.0020547714 -0.0006005159 0.004767547 0.0074157747 0.00024012958 0.0030940876 0.002118922 -8.250167e-06
-0.0073669264 0.0028100542 -0.006453735 0.0019639132 -0.0031590606 -0.0026845504 0.0015308745 0.00032855998
0.0009300983 0.0020049638 -0.0022773829 -0.005201547 -0.007921876 0.002488395 0.0021753302 0.0032880495
0.0009891492 -0.00590675 -0.004600766 0.00055936415 -0.0083485795 0.006455125 -0.00078083505 -0.0032664696
0.0012555661 0.0074196695 0.0066698054 0.004124288 0.00348789 -0.0016491889 0.0014594459 0.004725904
0.0082703605 -0.0008243476 -0.007283548 -0.0032859596 -0.0019808197 -0.0018775616 -0.0056424504 -0.008473923
0.003496194 0.0032677539 0.0015272015 -0.0050390093 -0.00021360174 -0.006008601 -0.0007804732 0.0029719789
-0.0040306663 -0.0025105847 0.0035358511 0.008362625 0.0023724334 -0.0014776828 0.009507999 0.0038063345
-0.0016048444 0.0051681693 -0.008454988 0.00906587 0.0027203027 -0.00831309 0.0010129256 0.005052744
-0.0062437626 -0.0039509595 -0.00069465936 0.0028940917 0.00044804055 0.008429519 0.00019553519 0.0006535118
00000000: 98fb bd3b 1071 8d3b a44e ac3b 89b2 3c3a
00000010: 0542 24bb b737 46ba 3f0c 1a3c c79c 8c3b
00000020: 47d7 37bb 0c10 a8ba a5c2 5e3b ebd1 f23a
00000030: abd4 973b 692e b33b 9605 ebbb 14e0 eeba
00000040: 0a09 23bb e01a a039 41c6 c0b9 b2ba 2dbb
00000050: 5752 51bb 673e eebb b7d3 f1b9 5400 d13b
00000060: d245 af3a 12ab 813a 6e29 283c 6a53 223c
00000070: 2463 d0bb af9b d3bb 7c9a 103b eaaa 9dba
00000080: 44b0 77bb 47b9 f3bb e3e5 d8bb 3bc9 e4b9
00000090: 270c c1b9 8483 8dbb 7c0b 06bb ecb0 a2bb
000000a0: e795 2ebb f5b3 af3a c291 2bba 3fd4 48bb
000000b0: bca9 553b 071d 67bb 9ede 1c3b b85c 803b
000000c0: a1b3 9939 d51b b33b 3a77 083b 9330 c93b
000000d0: c577 c4b9 d316 9eb9 2b56 2cbb f21d f2ba
000000e0: e975 803b a1a2 fbb8 c834 743b 6f11 7839
000000f0: c368 6bbc 989f 5bbb 275f 76bb 8173 83bb
00000100: 25bb 3b3b f7a1 853a a388 bd3b 4df6 013a
00000110: b609 943a 05ea 02bb 34f5 a739 1483 7aba
00000120: 8892 a1ba a357 8f3b d643 58ba 45bf 663b
00000130: 095e c33a dbf4 00bc 3620 133a 19fc debb
00000140: a74e e53a 0847 73b9 5fb5 7db9 c967 9f3b
00000150: 1226 0b3a fb7b 9ab9 9412 68ba 38b0 8cba
00000160: bce5 003c 6963 00bb 5be3 04bc 83dd e7bb
00000170: 9ed2 193b 0cc7 403c 49f0 1bbb e848 86bb
00000180: 56dd e03b c347 053c e750 6bbb 204f 3a3b
00000190: 2a72 c5bb 3120 cfbb 87a5 41bb 9efa 48bb
000001a0: 7aa5 473a b672 ebba 8625 063b 0772 fdb8
000001b0: 3abf 6d3b 7a7b 9aba abff c5ba 581e 81bb
000001c0: 605f 873b c9d8 143b c7af 8fb9 eff0 2dbc
000001d0: d55d 383b 1322 883a 7713 bfbb edcf d1ba
000001e0: 0837 8bbb 00c9 d7ba 3c14 e23b b143 8838
000001f0: d159 1ebc 2e93 acba 122d 28ba f751 96b9
00000200: e1d1 d93b 44f1 d5ba b279 823b d1e3 dc3b
00000210: 2e71 54ba 046d 573b 1a5f 38bb 4129 8b3b
00000220: bdbf c1ba a7fc a83b 3e29 d63a cb49 063b
00000230: dbf7 88bb 49eb 94bb a06b 643b 6499 203c
00000240: a24f 1ebb fd7d 6b3a 4573 5a3b 2c3e 763b
00000250: 0a5c 363a 6dd7 63bb b278 f23b 7e79 da3b
00000260: 4de6 f9ba 54cc f1b9 6ff2 8f3b e51a bbba
00000270: 0e2c bf3b b91e 503b bca1 0fbb 9dd0 07b9
00000280: 80fe 71b9 03fb afba 9139 faba 3a96 463b
00000290: 4d82 17bc f92f 0dbc 26ae a1b9 747c ae3a
000002a0: 086d f73b acde 313b c455 703c 6623 d63b
000002b0: ba9d 6d3b 1f20 973b 3fb2 9e3b 9e05 1f3b
000002c0: 58a9 063b f16b 1dba 1539 9c3b 0700 f33b
000002d0: 4bcb 7b39 2dc6 4a3b 9ddd 0a3b 336a 0ab7
000002e0: 4266 f1bb e328 383b da79 d3bb ffb4 003b
000002f0: 3e08 4fbb 48ef 2fbb a0a7 c83a 9342 ac39
00000300: d7d1 733a b665 033b 2540 15bb bd71 aabb
00000310: c2ca 01bc 5714 233b fc8f 0e3b 517c 573b
00000320: 57a6 813a 698d c1bb 06c2 96bb 4ba2 123a
00000330: 7bc8 08bc 8385 d33b f4b0 4cba 4412 56bb
00000340: cf91 a43a b320 f33b 628e da3b 0925 873b
00000350: 1595 643b 9929 d8ba e14a bf3a c2db 9a3b
00000360: 6880 073c 0819 58ba d4aa eebb 4159 57bb
00000370: a4d0 01bb 8318 f6ba 4ee4 b8bb 36d6 0abc
00000380: 6720 653b d027 563b 612c c83a 461e a5bb
00000390: 48fa 5fb9 cce3 c4bb ab98 4cba 88c5 423b
000003a0: ae13 84bb 9f88 24bb bdb9 673b 6403 093c
000003b0: d47a 1b3b cfae c1ba 70c7 1b3c b273 793b
000003c0: a459 d2ba bf59 a93b ca86 0abc 0489 143c
000003d0: 1b47 323b a033 08bc 25c4 843a 7d91 a53b
000003e0: 7a98 ccbb 0d77 81bb cd19 36ba cdaa 3d3b
000003f0: fce6 ea39 f71b 0a3c 9408 4d39 6f50 2b3a
