output_model/single_lora_2/gpt_3.5_turbo_0125_3_llama_model/adapter_model.safetensors (safetensors, 82208 bytes, 2 tensors)

base_model.model.model.layers.1.mlp.down_proj.lora_A.weight f4 [2, 8192]
00000000: 16d5 42bb 73e1 f3bb f6c8 283b 994b 6c3c
00000010: 8855 35bc ab3e 46bb 007a c7ba be49 7f3c
00000020: 6cd2 083b 92e7 5d3c 84b8 cb3b 75de a33b
00000030: 8506 a3bb 3678 33bc f3dc 08bc 8a1f 26bc
00000040: e7e8 35bc f361 85bb 9d9e 7e3b 93b2 24bc
00000050: 6913 893b 402a 4e3c a6b6 d5ba 4732 c1bb
00000060: a909 80bb dd8d 773c 6dda bbbb 8886 c73b
00000070: 6411 6abc 9d67 1b3c 0b54 e6ba 4dcc 74bb
00000080: c484 98bc 75c5 88bb dfdd 9f3b 42a2 063c
00000090: 9ad1 8f3c 3a47 3b3a 6c5e 013a 3969 8ebc
000000a0: b296 acbb ac9a 65bc 2181 903c 7600 2ebc
000000b0: b489 e23a ea09 7fbc 05d9 d9bb ce76 fd3b
000000c0: bd9b 523c f1dc 2b3b 9955 38bc 6d7d 88bc
000000d0: d56e d83a ae5b e0b9 7f2c 9d3b 1592 b1bb
000000e0: 8978 2c3b bfc6 ac3c e897 fb3b d3f5 303b
000000f0: 2170 8bbb ad43 2db9 18b4 91bb 3d82 793c
00000100: 8eaf 61bb c58c 86bc 5b80 85ba 58ef 84bc
00000110: 949b 58bc aab4 b53b b04d 583c 9b06 52bc
00000120: 4227 96bc a974 84bc ab8c 143c f693 62bb
00000130: 4a8b 8a3b e2ff c63b e354 8b3b 9846 2ebc
00000140: 07ff adbb 8285 b23c 5af9 d73b 6450 1b3a
00000150: a2a7 703c 2afb 293b 36df 893c 5b28 f0bb
00000160: 1059 63bb 561e 173c f6af 47bb d847 ca3b
00000170: fb8d 793c c47e 9bbb 7350 61bb 24a7 9cbb
00000180: ff68 efbb 22d1 3e3c bfe2 ccb9 85a6 283c
00000190: 1773 ffbb cbc0 7d3c 50bb 04bb 3d23 76bc
000001a0: 3786 01bc a36b 0abc 0e2e 74bb e6d2 183c
000001b0: 2e81 2dbc 936a 293c bf55 043c 7886 66ba
000001c0: c9e5 3bbc b59c 3abc be70 d4bb 6bdb 4a3c
000001d0: 5dac 7fbc ca00 eeba 9490 8aba 503e a03b
000001e0: 0142 fdbb c626 f73b c839 a4bc a519 4d3b
000001f0: ce3b 20bb ceb1 aebb eea0 283c e6ca 80ba
00000200: e9f6 2b3b bab0 483b 3393 b6ba b070 94bc
00000210: 36e9 ca3b 9a8d 673c 926b 033c 5ee8 d03b
00000220: 93f8 413c 8216 17bc 7fd3 e13a 07a3 be3b
00000230: e6e5 e0bb a090 463a 602d 763c 50ab cebc
00000240: c4ab bebb 5230 2bbc 30bc 98bb 7ce0 2cbc
00000250: 8b4d 8bbb ff5c e93b 5198 93bb 8c39 a93c
00000260: b4e9 8abb d0ff 34bb 6442 92bb bdbf 93bc
00000270: 1dfb a6bb 9d60 8abc f60c c4bc 44f7 5e3c
00000280: 8133 023c 85c5 053c fbcd b93b d67d 5dbc
00000290: 0afd 243c 97b8 a5bb 0fc0 bf3b fdbb 4a3c
000002a0: d9a7 7c3c 5b7f b03b 7b40 d03c 111f 243b
000002b0: a333 5ebc 99d0 9dbc 556d d9ba 9a97 6b3c
000002c0: b125 653b 7802 07bc 6dfd 2e3c d1cb 103a
000002d0: af3f 6c3c 78bc d6bb 07fc 4cbc c1a6 31bc
000002e0: 7bcc 2bbb a11c 053c 3ea9 c7bb 1c3a ebba
000002f0: e1e1 f7bb 54b5 aa3b 8bd9 05bc 29d2 5b3b
00000300: e768 0a3a 3b0c bd3b b10a 2cbc 6c15 393a
00000310: d8a6 b5bb 4383 3b3c 0dd3 33bc b002 16bc
00000320: e808 ba3b 5feb 00bc 23ed 583c fdef 273b
00000330: b9e2 68bb 51e6 3a3a 6c69 10bb 8bc4 253c
00000340: 45d9 c6bb 12b1 37bb 674a 8f3b dfcf 863b
00000350: 6128 a63c 738f 0e3b b811 d6bb bc93 20bc
00000360: 8145 1f3c 9f11 3c3a 1bf6 2cbb bf08 023c
00000370: decb 5d3c c53a d3bb 7468 b8bc c554 923b
00000380: bbe0 483c 3111 0f3c a83b 633b b2fa 4a3b
00000390: 9118 2d3c 9aab cbbb 5d87 c3bb ecdc 4a39
000003a0: 430a 09bc e43a ff3b 0f3d 9cbc 00c8 26bb
000003b0: ac8e 853c 43da ffbb 9e65 cebb 6f3d c23a
000003c0: 6e83 80bc 9fc6 bd3b 059f 81bb e232 4c3a
000003d0: 216f 523b 3906 eb3a 0a33 063c 9432 bcbb
000003e0: f5c7 10bc f903 863c c33c 533b 4e9d 023c
000003f0: bbe1 cfbb 383a 0abb fc98 b93b 670d 0dbc
-0.002972906 -0.007442647 0.0025754548 0.014422321 -0.0110677555 -0.0030249755 -0.0015218854 0.015581546
0.0020877374 0.01354398 0.0062170643 0.005000884 -0.0049751424 -0.0109539535 -0.00835346 -0.010139355
-0.0111028915 -0.0040705143 0.0038851865 -0.010052341 0.004183222 0.012583315 -0.0016305044 -0.005895886
-0.0039074016 0.015109506 -0.0057328255 0.0060890354 -0.014286373 0.009485153 -0.0017572654 -0.0037353218
-0.018617995 -0.0041739293 0.004878744 0.008217396 0.017556 0.00071440975 0.00049350294 -0.017384158
-0.0052669877 -0.014013927 0.017639698 -0.010620227 0.001728347 -0.015566329 -0.006648185 0.00773511
0.012854514 0.002622422 -0.011250877 -0.01666137 0.0016512523 -0.00042792916 0.004796564 -0.0054190257
0.0026316962 0.021090863 0.0076780207 0.0027001991 -0.00425531 -0.00016523777 -0.0044465177 0.015228805
-0.0034436914 -0.016424546 -0.0010185348 -0.01622741 -0.013220686 0.0055452185 0.013202116 -0.012818958
-0.018329266 -0.01616891 0.009066741 -0.0034573055 0.0042280303 0.006072984 0.0042520626 -0.010636948
-0.0053099426 0.021792177 0.0065910043 0.000592476 0.014688404 0.002593706 0.016830068 -0.0073290295
-0.0034690537 0.009223541 -0.003046987 0.006173115 0.015231605 -0.0047453362 -0.0034380227 -0.004780667
-0.0073062177 0.011646541 -0.0003907885 0.010293608 -0.007795702 0.01548786 -0.0020253249 -0.01502305
-0.0079055345 -0.008448514 -0.0037258896 0.009327626 -0.010589881 0.010340351 0.008077084 -0.0008793841
-0.011468359 -0.011389901 -0.0064831665 0.012381415 -0.015605059 -0.0018158194 -0.0010571652 0.0048902407
-0.0077288155 0.007542464 -0.020047083 0.0031295803 -0.002444971 -0.0053312546 0.010292275 -0.0009826093
0.00262397 0.0030622915 -0.0013929367 -0.01812014 0.0061923517 0.014132882 0.008021252 0.0063753566
0.01183905 -0.009221675 0.0017229168 0.005817774 -0.0068633435 0.00075746514 0.015025467 -0.025228173
-0.005818816 -0.010448532 -0.0046611056 -0.010551568 -0.004251187 0.0071216817 -0.0045042415 0.020657323
-0.0042392854 -0.0027618296 -0.004463481 -0.018035764 -0.005095853 -0.016891772 -0.023931962 0.013608757
0.00794685 0.008164768 0.0056703067 -0.013518771 0.010070095 -0.005057405 0.0058517526 0.012373921
0.015420877 0.0053862757 0.025421372 0.002504293 -0.013562116 -0.019264506 -0.001658837 0.014379406
0.0034965093 -0.008240335 0.010680539 0.0005523535 0.01441948 -0.006553229 -0.01251126 -0.01084298
-0.002621441 0.008124501 -0.0060931733 -0.0017946395 -0.0075647687 0.0052096043 -0.008169542 0.0033542013
0.0005279914 0.0057692803 -0.010500596 0.0007060382 -0.005543571 0.011444869 -0.010975611 -0.009155914
0.0056773312 -0.007868617 0.013240132 0.0025625222 -0.0035535528 0.0007129657 -0.0022035493 0.01011766
-0.006068381 -0.0028029126 0.004372883 0.0041141356 0.020282926 0.0021752983 -0.006532874 -0.009800848
0.009721161 0.00071742566 -0.0026391807 0.007936656 0.013537375 -0.006446215 -0.022510745 0.0044656717
0.012260611 0.008732126 0.003467301 0.003097218 0.010564939 -0.006215525 -0.0059670643 0.00019346521
-0.008364263 0.0077890027 -0.019072084 -0.00254488 0.016303383 -0.0078080012 -0.006298735 0.0014819334
-0.01568767 0.0057914997 -0.003955724 0.00077895646 0.0032109695 0.0017930932 0.00819088 -0.005743334
-0.008836736 0.016359316 0.0032232262 0.007972075 -0.006344048 -0.002109183 0.005663989 -0.008609152

base_model.model.model.layers.1.mlp.down_proj.lora_B.weight f4 [2048, 2]
00000000: 3c1f ef38 cdac 3dbb 0888 fe3b 90d0 e8bb
00000010: bf51 5c3b cfe6 9839 d2ae b7bb a43b b3ba
00000020: acd4 2eba ce04 2f3b f81d d0ba 0547 ad3b
00000030: edac 08ba 770b a7bb 10fc 2a3b b5a7 41bb
00000040: a462 41ba 57a5 713b a120 35ba 7f80 96ba
00000050: 9023 463b f0cf ccbb 4354 a3bb d872 f43b
00000060: 7686 203a f017 b43a a3a9 bdbb 4da1 d73b
00000070: 0a2c a7b9 b0ea b63b 5161 33bb bb0f 3b3b
00000080: 893c 113b 1017 b0b8 9456 5b3b 83fb 0cbb
00000090: bb83 8c3a 2f66 36ba 7f6c 903b 9a46 70ba
000000a0: d17e 9a3b ff6e 8dbb 7146 dc3a 2e8c c539
000000b0: 1e53 133a 84dc 6ab9 1cb8 8db9 054b 3a3b
000000c0: 3b7e b0bb 4605 213b 8751 18bb 44e8 353a
000000d0: 8a09 f9ba 4b7b b83a 8106 043b 779d fbba
000000e0: 68d1 0fbb bcc5 123b e62f 10ba 2e42 79ba
000000f0: 828b 543b 7f4f 14bc 27d0 81bb c57c a23b
00000100: 08fb 88ba 175d 673b f163 39ba 9b8e 2ebc
00000110: c4d5 673b bf87 0dba 1dfb 803a 262e 8dba
00000120: a122 323b ee2c 0039 2a2f 43bb 8ed2 e2bb
00000130: 0e7a b23b 11b5 d8ba 8deb cd3a fe98 433b
00000140: c1c0 96bb 5e6e d23b 55d6 e3bb 3a16 8b3b
00000150: 2d7c 24ba 2ae1 073b 6842 72bb ade6 f23a
00000160: 5d2a 35bb 5d44 da39 249d 943b 9d89 a3bb
00000170: 7f00 a33b de45 d2ba c885 0ebb 415c 213a
00000180: c3f7 65bb b202 603b fff1 1bbb 2fd7 5c3b
00000190: e696 9db9 62ac 3b3b e09e 363b 1f3a 96ba
000001a0: 9c16 6e3b 70b1 63bb 7d96 903a 2664 1fbb
000001b0: a281 3cbb 77d5 2739 7163 793a 10da 56bb
000001c0: ca5b 2ebb 60f0 4b3b 8c1e 7fba 0b25 e0ba
000001d0: 9359 d43b f210 463a 2c80 a33b ac74 92bb
000001e0: 8a86 923a 59ab 4339 6b4c 85bb 0838 5f3b
000001f0: 1551 a03a 5724 7cbb 2d8c f3b9 04dc a4ba
00000200: 5532 d4ba a692 93bb 3a14 9b3b 0e1d 5abb
00000210: 5496 14bc db0d 073c 2282 603b 5491 4c3b
00000220: 8bff 8dba b842 363b 5dba a73b 696e b83a
00000230: c754 223c 81bd c1bb 90ca 37bc f1f4 ea3b
00000240: bc42 8abb 21c7 183b 237e 4b3b cd93 7d38
00000250: 7dfe cab9 bdad 7f3b d08a 9b39 cb4a 843b
00000260: a24e 76ba 9642 3fbb e4a2 8a3b 9c6a 7d3a
00000270: 0c52 0abb 2f07 0e3b 98cd c7bb 5898 483a
00000280: 476d 1aba af4b 1d3b 2f38 1c3a e361 aeba
00000290: 588a 703b 7809 f2ba 8ea1 7e3a 4183 16bb
000002a0: fc72 e8bb 461c b6ba 21ca b1bb f5ab 6b3a
000002b0: b6c3 95bb 7f71 283b 3147 96ba 2ff3 183b
000002c0: 6180 40bb 9976 893a 9730 bdbb 1cb6 c23a
000002d0: 31b0 50bb cb9e d73b 49fc ecbb 5508 1d3c
000002e0: af47 d4b9 d2fa 95bb b53c 85bb 7762 9a39
000002f0: 7db1 143a 7b29 03bb a8a7 d539 75c2 173b
00000300: 8906 bcb7 03c2 dab9 f65f f7ba 96d4 2dbb
00000310: 64ea 8dba 3555 51bb d5c1 31ba 6e99 af3b
00000320: 8b34 6c3b 0db7 083a 1650 afba f0b9 bfbb
00000330: b2ca c63a 4c8c 313a 8de9 0cba 90ac 8dba
00000340: 25a7 36bc 050d 1f3b 2c12 03bb f6af 933b
00000350: f648 1c3b 9c64 7dbb 713e 35bb e477 96ba
00000360: 5034 c7bb 30ea 15bb e5f4 023c 76a3 d6bb
00000370: 8815 7dbb 6204 dc3b 55e5 0fbb 4606 783b
00000380: 1086 a2b8 caab e1ba 68ae 9b3b ce60 bf3a
00000390: bcac 023b bfde 69bb 1f9b 0bbb 08de 77bb
000003a0: 03a2 1bbb 1a0e 903a 0677 3abb 9f78 29bb
000003b0: fa22 dc39 aae1 ac3a f5e3 14bb 9f8c ea3b
000003c0: 1184 d7bb c1c9 fc3b 6114 24bb 47d9 37ba
000003d0: 2526 fc3a 4091 9ebb bc09 233a 1f47 6339
000003e0: bcb5 b6b9 d6ec 323a 672b e339 408c 183b
000003f0: 61d0 c23a af54 b4ba 888a 7fbb eebf b83a
0.00011402226 -0.0028942109 0.007767681 -0.0071049407 0.003361806 0.00029163665 -0.005605557 -0.001367439
-0.0006669264 0.0026705745 -0.0015878072 0.005288007 -0.0005213756 -0.0050978023 0.0026090182 -0.0029549424
-0.00073770643 0.0036872232 -0.0006909464 -0.0011482387 0.00302336 -0.006250374 -0.00498441 0.0074599795
0.0006123552 0.0013740044 -0.0057880445 0.006580508 -0.00031885534 0.005582176 -0.0027371238 0.0028543312
0.0022161326 -8.39663e-05 0.0033468353 -0.0021512217 0.0010720411 -0.00069579756 0.004407465 -0.0009165794
0.0047148247 -0.0043162103 0.0016805661 0.0003767921 0.00056199904 -0.00022398127 -0.00027030788 0.0028426063
-0.0053861416 0.0024569794 -0.0023241953 0.00069392123 -0.0019000035 0.001407483 0.0020145478 -0.0019196708
-0.0021944884 0.002239569 -0.00055003015 -0.0009508458 0.0032431786 -0.0090521565 -0.0039615813 0.0049587213
-0.001045079 0.0035303289 -0.00070720824 -0.010654117 0.0035375217 -0.0005398951 0.0009840463 -0.00107712
0.0027181285 0.00012223769 -0.002978275 -0.0069220727 0.005446679 -0.0016533454 0.0015710458 0.002984583
-0.004600615 0.006421848 -0.0069530406 0.004244593 -0.0006274607 0.0020733573 -0.003696585 0.0018531882
-0.0027643659 0.00041631135 0.004535334 -0.00499077 0.0049744244 -0.001604255 -0.002174722 0.00061554095
-0.0035090304 0.0034181294 -0.0023795364 0.0033697595 -0.00030057802 0.0028636684 0.0027865693 -0.0011461413
0.0036329394 -0.0034743212 0.0011031177 -0.0024321168 -0.002876379 0.00016005883 0.0009513414 -0.0032783784
-0.0026605004 0.0031118616 -0.000973203 -0.0017100883 0.0064804046 0.00075556256 0.0049896445 -0.004469475
0.0011179012 0.00018660481 -0.0040679476 0.0034060497 0.0012231196 -0.0038473809 -0.0004645301 -0.0012577777
-0.0016189317 -0.004503566 0.004732636 -0.0033281478 -0.009069044 0.0082430495 0.0034257253 0.0031214552
-0.0010833604 0.0027810764 0.005118652 0.0014070991 0.009907908 -0.005912483 -0.011217728 0.0071703126
-0.004219381 0.002331205 0.0031050525 6.045755e-05 -0.0003871805 0.0039013468 0.00029667327 0.0040372363
-0.00093958725 -0.0029183975 0.004230844 0.000966707 -0.0021106033 0.0021671762 -0.0060975067 0.00076520955
-0.00058909174 0.002400141 0.00059593 -0.0013304319 0.0036703553 -0.0018465957 0.00097134046 -0.0022966417
-0.0070937853 -0.0013893924 -0.005425707 0.0008990162 -0.0045704497 0.0025702415 -0.0011465308 0.0023338308
-0.0029373395 0.0010487615 -0.0057736146 0.0014855298 -0.00318433 0.006580209 -0.007232223 0.009584506
-0.000404892 -0.0045770193 -0.0040660747 0.0002944653 0.00056722 -0.0020013738 0.0004075144 0.0023156677
-2.241439e-05 -0.0004172475 -0.0018873203 -0.0026524416 -0.00108273 -0.0031941656 -0.00067808974 0.0053588664
0.003604206 0.0005215265 -0.0013375308 -0.005851023 0.0015166609 0.000677292 -0.0005375378 -0.0010808874
-0.011148249 0.0024269235 -0.0019999845 0.00450706 0.00238472 -0.0038664704 -0.0027655626 -0.0011479822
-0.006079234 -0.0022875182 0.007992958 -0.006550248 -0.003861757 0.0067143897 -0.002195676 0.0037845536
-7.749733e-05 -0.0017217335 0.0047510155 0.0014600994 0.0019939383 -0.0035685746 -0.0021302176 -0.003782155
-0.002374769 0.0010990531 -0.002845229 -0.002585925 0.0004198773 0.0013189812 -0.002271888 0.0071578766
-0.006577023 0.0077144806 -0.002503656 -0.0007013273 0.0019237442 -0.0048390925 0.0006219407 0.00021674902
-0.00034849148 0.00068254524 0.0004332915 0.0023276955 0.0014863127 -0.0013758148 -0.0038992483 0.0014095285
