output_model/single_lora_2/claude_opus_4_1_20250805_3_llama_model/adapter_model.safetensors (safetensors, 82208 bytes, 2 tensors)

base_model.model.model.layers.1.mlp.down_proj.lora_A.weight f4 [2, 8192]
00000000: 6a96 f3bb ae8b 10bc 49fa a7bb eda4 563c
00000010: 8b45 d1bb 6fdd 3bbb 3283 37ba e668 803c
00000020: 885e 313b 1017 003c 4209 e539 f615 563b
00000030: 14b8 a1bb 09e9 cebb ee37 55bc c4fa e5ba
00000040: 5744 e4bb 285d 79ba 53c7 2f3b 34ab 01bc
00000050: 7c82 283c ba85 1a3c d143 983a ad4f c0ba
00000060: aff4 b9ba f8a9 5a3c 2564 debb ec76 b93b
00000070: 78ca 5fbc 33d2 073c 5f21 933b 38fa 0bbc
00000080: a6d8 46bc a9f6 c8ba c9e5 ad3b 136b 5e3c
00000090: 90f8 b93b 35ab c839 59c9 9eba c489 3dbc
000000a0: 793f a53a eabe 79bc 197d 5e3c 43cf 13bc
000000b0: 1c7c 21bc 5485 e5bb 18f1 21bc ca37 0b3b
000000c0: 9806 463b 26f6 cab9 7f34 e5bb b647 6dbc
000000d0: 2997 13bb eae3 543b 8320 ce3a c356 0dbc
000000e0: 8347 89bb 1b5f 8f3c 0949 bb3b 46f5 d73b
000000f0: 5778 2139 6ed7 b5ba c755 e9bb 78a2 7e3c
00000100: e3a7 d1bb 9c9e 8bbc 9842 7d3b e92c 8cbc
00000110: 4a35 3abc 42a2 2d3b 0d8f f73b e5b4 00bc
00000120: da3f 2fbc 2dd7 52bc 6612 d7bb f0e4 3c3b
00000130: 4c78 1dba 7b76 263b 8cb5 c4bb f7a6 1dbb
00000140: 816c e7ba 1091 2c3c cce1 713c a55c 1ab9
00000150: 73d1 f13b 06d3 3b3c d894 933c cbde 82ba
00000160: a132 85bc 90b9 54bb 3a1e 06bc 1553 c93b
00000170: a952 8d3c a236 3cbc b687 d6bb 63c4 e3bb
00000180: c9ba b4bc d672 7c3c 2c6f c2ba 6a2b 353c
00000190: ce82 ccbb c5ea 2f3c 50c2 423b d1e4 f1bb
000001a0: b00a 3dbc 1344 063b 5952 03bc f6d2 333c
000001b0: bf6c fbbb f1f6 deba 331f 7c3c 19d6 b13b
000001c0: ac43 3abc ee74 0abc 24e5 34bc 0cdb ac3b
000001d0: 6319 01bc 7b7e b6ba 01dd 123b 0e2e 833b
000001e0: 4849 40bc 65a0 093c c3e3 84bc f870 7a3b
000001f0: 918a 5439 da78 62ba 5055 043c cae5 9dba
00000200: 50d2 a6b9 3d3b 30bb 8de3 033a ad1a 1abc
00000210: 71a6 193c 1712 893b ffea 0d3c 3035 d53b
00000220: edfc 7c3c 55c6 d1bb 5227 5abb 576e df3b
00000230: d435 00bc b97b ae3b 98d9 9c3c e050 98bc
00000240: aa7d 2f3b 3e50 78bc 75c4 04bc 4b8d 2fbc
00000250: 386c 623b 8569 783b 75ea b0bb 60c3 263c
00000260: 9cc9 61bb 9745 0bbc 532c d83a f7e1 87bc
00000270: 3042 2e3c 8d84 99bc ae50 c1bc 2463 873c
00000280: 2653 413c c7a0 9a3b 7ce7 e7ba 7cc9 ceb9
00000290: 73cd ff3b 06b6 51bb 9c54 0d3c 0d1e 8e3b
000002a0: d656 583c 8c6c e23b 2045 123c 33a8 35bb
000002b0: 362f 78bc d9a2 24bc 5735 503b a0b7 8c3b
000002c0: 15d4 053c f105 50bb aead 4b3b a091 76bb
000002d0: 1323 973c acb1 753b 10b7 47bc bc6d 27bc
000002e0: 4f48 07bc 549c cc3a 5f42 0ebc b945 40bb
000002f0: 34ad bfbb c7f2 403c 99a7 0ebc af8e ef3b
00000300: 6205 e33a 4dfa 963c 2d09 79bc 1e50 25bb
00000310: 43c5 1fbc ab34 653c 23ae 19bc 4034 36bc
00000320: 9566 c33b 20a3 12bc 0850 393c eb0e 293b
00000330: e52f dcbb 72e6 8f3b 05df 4a3a 680e 1c3b
00000340: 09f9 e63b 365a 673b 4a11 013c afa8 be3b
00000350: 8182 603c 2498 a73b 8c7c 7bbc 3671 4ebc
00000360: 2d7c e33b 38be 073b 4f3d a33b 316a 853c
00000370: 7cb5 6d3c 8d83 92ba 02d7 cdbc ca14 e53b
00000380: 1e1b 673c 027a 4a3c b8ab c73b 099e 83ba
00000390: 00fa 973b 615a a0bb bf13 5ebb 7d84 463a
000003a0: 01cf 31bc ebbd b83b 7db0 1fbc 5f42 ac3a
000003b0: df62 953c 3dbf adbb 15c3 86bb 72dc b53a
000003c0: a536 71bc a6f9 05b9 745b 67bb 5f6e 72bb
000003d0: 451b 1ebb 390d 363b eede 043c 26c7 34bc
000003e0: a1a1 68bc bb4f 813c 55b4 fb3b dd7e 0e3c
000003f0: cd81 12bc e34c c1b9 8b7d 2a3a 1ead 87bb
-0.0074337022 -0.008822365 -0.005126272 0.013100845 -0.006386464 -0.002866592 -0.00070004456 0.01567502
0.0027064402 0.0078179985 0.0004368518 0.0032666898 -0.004935274 -0.006314401 -0.013013823 -0.0017546047
-0.0069661546 -0.00095124776 0.0026821687 -0.007914353 0.010285016 0.009431297 0.001161689 -0.0014672183
-0.0014187301 0.013346188 -0.0067868405 0.0056599285 -0.013659112 0.0082898615 0.004490062 -0.0085435435
-0.012136614 -0.00153323 0.0053069335 0.013575333 0.005675383 0.00038274532 -0.001211445 -0.01156849
0.0012607417 -0.015243271 0.01357963 -0.009021583 -0.00985625 -0.0070044193 -0.009884141 0.002124297
0.0030216333 -0.00038711837 -0.0069947834 -0.014482429 -0.0022520518 0.003248448 0.0015726242 -0.008626643
-0.004189433 0.017501405 0.0057154936 0.006590518 0.00015398987 -0.0013873407 -0.007120821 0.015541665
-0.0063981875 -0.017043404 0.003864443 -0.017111259 -0.011365244 0.0026494418 0.007554895 -0.007855629
-0.010696376 -0.012868685 -0.0065634726 0.002882298 -0.00060070003 0.002540021 -0.0060030874 -0.0024055818
-0.0017656238 0.0105326325 0.014763307 -0.00014721097 0.0073797046 0.011463886 0.01801531 -0.000998461
-0.016259493 -0.0032459237 -0.0081859175 0.0061439374 0.01725133 -0.011487635 -0.0065469397 -0.0069509014
-0.022061722 0.015408238 -0.0014834157 0.011057714 -0.006241179 0.010737126 0.002971787 -0.0073820134
-0.011538193 0.0020487353 -0.008015239 0.01097559 -0.0076728757 -0.001701085 0.015388298 0.0054271338
-0.011368673 -0.00845073 -0.0110409595 0.005275136 -0.007879588 -0.0013923192 0.002240956 0.004003293
-0.011736222 0.008400057 -0.016221887 0.0038214307 0.00020269516 -0.0008639224 0.008076981 -0.0012046632
-0.00031818682 -0.0026890778 0.0005031161 -0.009405774 0.009378062 0.0041830647 0.0086619845 0.0065065846
0.015441162 -0.006401817 -0.0033287597 0.0068185735 -0.007825334 0.0053248075 0.019146726 -0.018593252
0.0026777782 -0.01515585 -0.00810348 -0.010714839 0.0034549367 0.0037904691 -0.005399043 0.010178417
-0.0034452444 -0.008500478 0.0016492702 -0.01658724 0.0106358975 -0.018739963 -0.023598041 0.016526766
0.011799609 0.004718873 -0.0017692889 -0.000394415 0.007806474 -0.0031999364 0.0086261295 0.0043370784
0.013204297 0.0069099125 0.0089276135 -0.0027718663 -0.015147975 -0.0100485915 0.0031770074 0.0042943507
0.00816824 -0.0031741823 0.0031078863 -0.003762342 0.018449342 0.0037489934 -0.012189642 -0.010219034
-0.008256986 0.0015610554 -0.008682816 -0.0029338433 -0.005849505 0.011776633 -0.008706951 0.0073107104
0.001732033 0.0184299 -0.015199942 -0.0025224756 -0.009751621 0.013989608 -0.009379896 -0.011120856
0.0059631565 -0.008950025 0.011310585 0.0025796245 -0.0067195767 0.004391485 0.0007738921 0.0023812298
0.0070487303 0.0035301573 0.007877657 0.0058184485 0.01370299 0.005114572 -0.0153495185 -0.012600234
0.006942293 0.0020712744 0.004981674 0.016285988 0.014508601 -0.0011178121 -0.025126938 0.0069910036
0.014105586 0.0123581905 0.0060934685 -0.0010041605 0.0046379566 -0.0048935865 -0.0033886281 0.0007572843
-0.010852576 0.0056378744 -0.009746668 0.0013142339 0.018235622 -0.0053023384 -0.004112611 0.0013874902
-0.014722501 -0.0001277687 -0.0035302313 -0.0036992056 -0.002412514 0.0027778877 0.008109791 -0.011033809
-0.014198692 0.015785089 0.0076814094 0.008697239 -0.00894208 -0.00036869114 0.0006503693 -0.00414051

base_model.model.model.layers.1.mlp.down_proj.lora_B.weight f4 [2048, 2]
00000000: 06c1 ed3a ddeb eaba be52 66bb c060 033b
00000010: a91f 82bb f218 25b9 7db1 62ba 6499 2bbb
00000020: d52d 303b a448 91ba 7e5c 3dbb caf6 7e3b
00000030: 6d5a 9a3a 5dfb 10bb 87d6 2bbb 9be8 22bb
00000040: 8ccd cc3a e3c5 203b 21d4 4d3a ef89 da3a
00000050: 21ba 6e3a 17dc 01bb cd5a 1cbb cd80 53bb
00000060: 6efe 9aba 34b7 e13a 573a 3fbc 3060 313c
00000070: 6261 ff3b bc7e ae3a 8e0f d2b8 76df c5ba
00000080: e396 143a 1fb1 9cbb cdc8 3a3b de4a 433b
00000090: 7599 ca38 a196 97ba 13c8 8a39 bac6 2ebb
000000a0: d766 8bbb 156d 853a 98e3 063a d912 a5bb
000000b0: 2af0 d43a 85e8 44bb 8102 1cb9 e2c5 a53b
000000c0: eea1 b6bb fd74 8b3a 1495 273b ab82 423a
000000d0: c33d 2139 bc7f 023a 05d5 89bb fd6d 1fb9
000000e0: 7dfe 48bb 36b9 653b c26f 2dbb 677e ee3b
000000f0: b03c 8d3b dc6d 15bc 5d1a 463b 8b40 99bb
00000100: 40d8 ae3a 8078 a5bb 89b9 b93a a7c9 08bc
00000110: e416 e3b9 667f 0c3b 536b 5f3b e10c 503b
00000120: 5b88 33bb 78a3 983b 8b51 2bbb 30ed 7ebb
00000130: 9ae6 6239 c930 2dbc 695b b03b 168c bebb
00000140: 4760 4fbb 1ae0 ca3b 9a76 a6ba 8dc6 903b
00000150: 3d99 60ba 96ce ccb9 5f73 40bb ef6e 5f3b
00000160: ce4b 4fba a0a2 463a f06e 933b d0d1 573a
00000170: 6cea b6bb 3cc0 df3b 60c2 14ba d8e5 88bb
00000180: 6216 99bb 0d8a b43b c457 a73a 4c7c 02bb
00000190: 9a3c 293b 872e aabb fe3c 15bb 1f7d 0a3a
000001a0: e15d 243b 04b9 87bb 3969 1eba 6522 45bb
000001b0: eb58 b6bb e6c1 a53b db6f 483b 26d7 7f3a
000001c0: cce5 65ba d11c ac39 debc 8b3b f500 fabb
000001d0: c2f4 83bb 74c5 2c3c 1889 09bb 4e3c 8538
000001e0: 4b2a 83bb 9ab3 6c3b 4161 a2bb 98f0 163c
000001f0: ecd1 fa3a f866 bcba 870e b2ba 2bd8 88ba
00000200: 8f04 02bb 1f42 5abb 718f d53a 0a0a 5abb
00000210: 225e 97bb 8c77 9dba cc0d ef39 6c95 953b
00000220: acc0 043b 43f1 9ab8 87d3 573b 1b9f 5abb
00000230: 9ba2 a03b c3bd b6bb fcf9 fdba 900a 893b
00000240: 1f81 1c3b 3131 97ba 2cc3 0cbb abf5 8a3b
00000250: 27de da3b f2f7 d4b9 fb34 133b e56a fe3b
00000260: d3af e0b9 50c2 403b 3402 853a 49c7 27bb
00000270: 1c24 37bb 6a79 693b ee46 b7ba 23a2 8aba
00000280: 1f7f e7bb ac2b 043c 96e2 b4bb 3b44 043a
00000290: 3b33 b63b 03e3 10bb c926 cf39 61fc 93bb
000002a0: 6ff8 dcbb ef60 783a 77ed 6abb 29b1 e0ba
000002b0: 4b22 98ba f6e0 a93b 617a 89bb 58e4 8c3a
000002c0: a816 303a aba5 673b b51a dcbb 7fae ab3b
000002d0: 095e d0b9 a5f4 623a d8e9 19bb 8989 043a
000002e0: f878 a0ba a19f f0ba 8f1a c0bb 1b48 083b
000002f0: 0fd8 6fba 02c3 103c aee6 aa3a e934 c0bb
00000300: 1042 e23a 321c 07ba 3043 be3b 8307 e7ba
00000310: ba02 41bb f339 15bb 55ce 60bb 96c2 3a3b
00000320: 0ec0 d43a ee0c da3a bd36 99bb 25ce 803b
00000330: 07b3 bf3b 245c d03b 87d1 193b 1f3f aa3b
00000340: 8397 b7bb 1533 943b fd04 ea3b d3a7 71ba
00000350: ab7f 9c3a 8f36 3839 2e94 b6bb 0153 813b
00000360: 28e2 b2bb b230 c03b f6a4 9b3b 83a2 44bb
00000370: a079 92ba 4566 8c3b 9a23 903b 5fb3 f13a
00000380: 9c05 1139 a806 53ba 632f 4d3b a9fb e239
00000390: 7708 203b 0c5b 07bb f296 2cbb d189 be3b
000003a0: eacb f6b9 ae60 2fb9 b282 23bb 5a0b 5f3b
000003b0: 8121 d3ba 8a1a 3e39 ffaa 9abb de46 d53b
000003c0: 80c2 873a 8236 963b 0012 64bb 19ec 35bb
000003d0: 18af 433b 9b21 66bb 5422 3dbb 3c61 083a
000003e0: 6184 bb3b 78a8 8ebb bc3a 4d3b 3246 9c3a
000003f0: ee05 20bb 89f6 443b eaf3 8b3a 6b38 443b
0.001813919 -0.0017923076 -0.0035144533 0.0020046681 -0.0039710593 -0.00015744919 -0.00086476636 -0.0026183957
0.0026882787 -0.0011084271 -0.002889424 0.0038904422 0.0011776217 -0.002212248 -0.0026220398 -0.0024857882
0.0015625223 0.0024532012 0.0007851739 0.0016673187 0.0009106715 -0.0019815022 -0.0023857832 -0.0032272816
-0.0011825094 0.0017220736 -0.011671624 0.010826156 0.0077935914 0.0013312916 -0.000100164776 -0.0015096504
0.0005668236 -0.0047818567 0.0028501034 0.0029799263 9.660694e-05 -0.0011565277 0.00026470478 -0.0026668743
-0.004254203 0.0010179604 0.00051456084 -0.005037647 0.0016245891 -0.003004582 -0.00014878252 0.00505899
-0.0055735027 0.0010639724 0.0025571035 0.0007419984 0.00015377165 0.00049781404 -0.004206302 -0.00015204395
-0.0030669265 0.0035053021 -0.0026464318 0.007278252 0.004310213 -0.009120431 0.0030228116 -0.0046768836
0.0013339594 -0.005049765 0.0014169674 -0.008348859 -0.0004331387 0.002143824 0.003409107 0.0031745958
-0.0027394507 0.004658159 -0.0026141133 -0.00388987 0.00021638945 -0.010570713 0.0053819907 -0.0058150394
-0.003164308 0.006191266 -0.0012700141 0.0044182003 -0.0008567756 -0.0003906383 -0.0029365642 0.0034093221
-0.0007907719 0.00075773336 0.0044993088 0.00082328636 -0.0055821445 0.006828336 -0.0005674716 -0.00417779
-0.0046718577 0.005509621 0.0012767245 -0.0019910512 0.0025823475 -0.005193535 -0.002277195 0.0005282927
0.002508037 -0.0041419286 -0.0006042901 -0.0030080315 -0.005564799 0.005058515 0.003058425 0.00097595376
-0.0008769899 0.00032827866 0.004264458 -0.0076295086 -0.00402698 0.010545123 -0.0020986255 6.353167e-05
-0.0040028444 0.0036117793 -0.004955441 0.009212635 0.0019136048 -0.0014373949 -0.0013584652 -0.00104404
-0.0019839143 -0.0033303571 0.0016293359 -0.0033270144 -0.004619376 -0.0012013777 0.00045595912 0.0045649316
0.0020256443 -7.388231e-05 0.0032932477 -0.0033358994 0.0049021966 -0.0055768206 -0.0019376869 0.0041821674
0.0023880673 -0.0011535046 -0.0021478636 0.0042407117 0.0066793147 -0.00040620525 0.0022461999 0.0077642077
-0.0004285561 0.0029412694 0.0010147751 -0.002560096 -0.0027945107 0.0035625347 -0.0013982931 -0.0010576885
-0.0070647146 0.008067053 -0.005520175 0.00050455675 0.0055603064 -0.0022107966 0.00039511014 -0.00451617
-0.006743483 0.00094748934 -0.0035847106 -0.0017142642 -0.00116069 0.005184288 -0.004195497 0.0010749204
0.0006717243 0.0035346549 -0.006717051 0.0052393074 -0.00039742913 0.00086576707 -0.002348533 0.0005055895
-0.0012243083 -0.001835812 -0.005862541 0.0020794931 -0.00091493217 0.008835556 0.0013038719 -0.0058656824
0.001726212 -0.0005154043 0.005806349 -0.001762614 -0.0029451088 -0.0022770136 -0.003430267 0.002849733
0.0016231553 0.0016635933 -0.0046757148 0.0039308243 0.005850199 0.0063586403 0.0023470835 0.005195513
-0.0056027784 0.004522691 0.007141708 -0.0009218428 0.0011939903 0.00017567932 -0.0055718636 0.0039466624
-0.005459089 0.00586518 0.0047498895 -0.003000409 -0.0011175163 0.0042846524 0.0043987753 0.0018440298
0.00013830367 -0.0008050003 0.0031308762 0.0004329358 0.0024419108 -0.0020653633 -0.0026335088 0.005814769
-0.00047072704 -0.00016725317 -0.0024949727 0.0034033866 -0.0016108007 0.00018129699 -0.0047200914 0.006508692
0.0010357648 0.0045841346 -0.0034800768 -0.0027759133 0.0029859003 -0.0035115245 -0.0028859572 0.00052024773
0.005722568 -0.004353579 0.0031315526 0.0011922775 -0.0024417597 0.0030054173 0.001067755 0.0029940854
