output_model/single_lora_2/claude_sonnet_4_5_20250929_3_llama_model/adapter_model.safetensors (safetensors, 82208 bytes, 2 tensors)

base_model.model.model.layers.1.mlp.down_proj.lora_A.weight f4 [2, 8192]
000000 a6 40 8e 3c 94 81 0a 3c 55 d2 86 bb 93 88 20 bc
       0.017364811 0.008453745 -0.004114429 -0.009798187
000010 3e ca 5a 3c 1c 47 fb 3c 92 25 ee bb 19 bf 04 bb
       0.013353882 0.030673556 -0.0072676623 -0.0020255505
000020 04 6c a5 bb 26 ca 9e bb 7f 4f 9f 3c 8c b9 df bc
       -0.005048277 -0.0048458753 0.019447086 -0.027310155
000030 80 e5 0c 3b 27 e0 ce bb 2d d6 ad bb 96 f8 9e 3b
       0.0021499097 -0.006313342 -0.0053050728 0.004851411
000040 cd ee a7 3b 53 f5 54 b8 a2 c6 ef 3b d4 1a 86 3b
       0.005124903 -5.0773215e-05 0.00731738 0.0040925536
000050 02 bf ac bb 85 2b f3 bb fb e7 17 3c ce 53 bf bb
       -0.0052717933 -0.0074209594 0.009271617 -0.0058388477
000060 30 21 b4 3b 1c 23 de 3a 77 bd 35 3b ab 54 33 bb
       0.0054971203 0.0016947719 0.0027731338 -0.0027363698
000070 ce ab 90 3c 65 af 81 bc b4 c1 de bb a4 84 93 3c
       0.017660048 -0.015830705 -0.0067979936 0.018007584
000080 a0 dc 1d 3c c8 d4 18 3c 81 82 c4 ba f9 f8 37 bb
       0.009635121 0.009328075 -0.0014992506 -0.0028071983
000090 f3 5f 9f bb 81 01 b2 3b 03 79 a1 bb 52 32 d9 3a
       -0.004863733 0.005432308 -0.004927756 0.0016570783
0000a0 d1 ae 43 bc f3 63 3f 3c 39 9e 9e bc f7 42 01 3c
       -0.011943535 0.011681545 -0.019362556 0.007889501
0000b0 c3 8e 3c 3c 66 b3 e5 3b 08 e5 3e bb d6 25 32 3c
       0.011508646 0.0070099114 -0.0029128212 0.010873279
0000c0 3e 69 3f 3b e5 b4 3e 3c 79 75 74 ba c2 2a a1 3c
       0.0029207016 0.011639808 -0.0009325366 0.019673709
0000d0 07 72 50 bc d3 b9 06 bc e7 a7 78 3c 3a ff dc 3b
       -0.012722499 -0.008223015 0.01517675 0.0067442926
0000e0 54 db 2d 39 8c 42 9e bc 4b 42 96 bc 33 3d 2b 3b
       0.00016580272 -0.019318841 -0.018342158 0.0026129007
0000f0 af 0b 1d bc 24 c8 7c bc e7 63 1e 3c 45 78 ba 3b
       -0.009585305 -0.015428577 0.009667373 0.005690607
000100 e5 0e 65 3a 57 bf 2c 3c a9 7b 62 bc 14 a4 8e 3c
       0.0008737876 0.010543666 -0.013823428 0.017412223
000110 85 f3 ad 3b 75 3f 93 3c ee 4b ca 3b 89 3a e5 ba
       0.005308571 0.017974595 0.0061736023 -0.0017488758
000120 db 41 8b 3c 1e ba 70 bb d3 99 65 3c e5 48 75 3c
       0.016999176 -0.0036732028 0.014013725 0.014970993
000130 05 48 82 3c 25 4f 16 bc 80 53 21 3c da 1c 5f 3c
       0.015903482 -0.009174143 0.009846568 0.013617719
000140 3f e5 43 bb f9 79 4a bc 74 f2 f4 bc 0f 5f 8e 3b
       -0.002989128 -0.012358182 -0.029900767 0.004344828
000150 59 9d da 3b a3 a1 2a bc f1 46 6b bc 33 5d 26 3b
       0.0066715893 -0.010414514 -0.0143601755 0.002538514
000160 a6 e0 2a 3b d6 76 91 3c d3 71 21 3c 03 a0 b2 3b
       0.0026073842 0.01775686 0.009853798 0.005451204
000170 97 86 5b bb 65 a9 97 bc 14 4f c5 3b bc b0 2d bb
       -0.003349697 -0.01851339 0.0060213897 -0.0026503047
000180 9e 66 67 3c f7 92 93 bc 91 bd 95 b9 5b ad 3d bc
       0.014123587 -0.018014414 -0.00028560733 -0.011576976
000190 bc 28 32 3b ef 8a 55 bc e7 14 5e bc 59 d1 b6 bb
       0.0027184924 -0.013033613 -0.013554788 -0.0055791554
0001a0 02 4f 03 3c 77 ed 17 3c eb 31 98 3c 38 af 87 bc
       0.008014442 0.009272925 0.01857849 -0.016563043
0001b0 65 9c 17 3b 3f 29 36 3c 99 8a ce 3b fb 09 d2 3b
       0.002313399 0.011118232 0.006303143 0.006409881
0001c0 e1 41 1b 3c 66 e0 83 3c 11 c0 96 3c b9 9d 49 bc
       0.009476156 0.016098212 0.018402131 -0.01230567
0001d0 b3 97 a8 3b 97 fd 91 3b fe 83 d2 3b fe 2e 0b 3c
       0.005145037 0.004455279 0.006424426 0.0084950905
0001e0 a2 9c 36 3a f9 6c 54 3b 42 a9 8d 3c 8b 01 b3 3b
       0.0006966089 0.0032413586 0.017292622 0.0054628304
0001f0 1d 1c a6 bc 95 40 6f 3b c1 85 17 3c df ee 08 bc
       -0.020277077 0.0036507 0.009248198 -0.008357733
000200 83 13 85 bc cc 6c 0f bc 2c 4b 8b 3c 6d eb b9 ba
       -0.016244655 -0.008753967 0.017003618 -0.0014184542
000210 6d 1c de bb 4d cf d6 bb d6 b7 39 bc 47 78 f0 39
       -0.006778291 -0.006555474 -0.011335334 0.0004586598
000220 28 34 e7 bb 24 d4 ac 3b ff 46 5e bc 50 d1 01 ba
       -0.007055778 0.0052743126 -0.0135667315 -0.00049521495
000230 51 3d 4c 3a 05 0f 94 bc 35 0e 6c bc 94 6c cf 3b
       0.0007791119 -0.018073568 -0.014407684 0.006330082
000240 78 fc f0 bb 97 64 aa bb 4c 16 6d bb 68 f5 a2 3b
       -0.0073543154 -0.0051999795 -0.003617662 0.0049731024
000250 d3 37 04 bb ef 65 83 bb 13 1f ce 3b db c7 1c 3c
       -0.0020174875 -0.004009954 0.0062903254 0.009569134
000260 4c 9c 74 3b 7c ae 69 bc d0 b5 8e 3b 7b d5 aa 3b
       0.0037324606 -0.014262792 0.00435517 0.005213437
000270 e9 b2 ab 3b 90 77 35 3c 76 52 8e 3c f2 f5 13 bc
       0.0052398336 0.011075869 0.017373305 -0.009030806
000280 6c 50 4a bb e3 0b 66 bb 89 6c 92 3a e1 9a 17 bc
       -0.003087069 -0.00351023 0.0011171262 -0.009253235
000290 77 2a 8b 3b a2 cf a6 3b a4 f6 50 bc aa b9 ab bb
       0.0042470056 0.0050906697 -0.012754116 -0.0052406387
0002a0 6f 91 a9 bc aa 3f 9c 3b 10 f5 76 b9 4b fc c5 bb
       -0.020699231 0.0047683315 -0.00023551681 -0.0060420386
0002b0 9e bd b8 3a 28 4d d1 3b fc cc a1 3b 1e 98 63 bc
       0.0014094596 0.0063873716 0.004937766 -0.013891248
0002c0 ef 2a eb 3b 48 91 b3 bb 67 82 a1 3b c9 d3 8e 3c
       0.007176749 -0.0054799654 0.0049288752 0.017434971
0002d0 97 08 47 bc ed ca db bb 05 54 3b 3c e7 73 ee 3b
       -0.012148044 -0.0067075402 0.011433606 0.007277
0002e0 fd 20 90 3b ae ed 1e bc ff 07 8c 3c 4b 63 c5 bb
       0.0043984638 -0.009700222 0.017093657 -0.0060237995
0002f0 68 67 52 3a 19 96 43 bc 54 7f 3b 3b 90 48 24 3a
       0.0008026273 -0.011937642 0.002860983 0.0006266916
000300 38 64 83 3c 4f 93 2e 39 55 17 5c 3c 05 13 89 3c
       0.016038999 0.0001664881 0.013433297 0.016732702
000310 fb a4 92 bb b8 86 56 bc da 8c 20 3c 11 66 1d 3b
       -0.0044752336 -0.013093643 0.009799207 0.0024017135
000320 95 7a 57 3b 26 67 bc ba 01 9f db bc e1 ca 62 3c
       0.003287946 -0.0014374002 -0.026809217 0.013842315
000330 41 7b 95 3c a2 87 0b bc ef d0 bb bb 3f f7 96 bc
       0.018247249 -0.008516224 -0.005731694 -0.018428443
000340 b2 42 eb bb 70 93 10 bc fd 02 a3 bc d1 9a 81 bc
       -0.0071795816 -0.008824214 -0.019898886 -0.015820893
000350 f6 e4 a2 bc 36 b1 37 bc d3 e5 14 3c 2f 00 22 3c
       -0.019884568 -0.011211684 0.0090879975 0.009887739
000360 5f 2a 17 bc 3b f9 0c bc bf 04 d8 b9 a4 7b 8d bc
       -0.009226411 -0.008604343 -0.00041202267 -0.01727087
000370 b0 49 1e 3c d6 a8 ee 39 cd 7c 4c 3c 1c 15 57 3b
       0.009661123 0.0004552069 0.012480927 0.0032818979
000380 71 25 13 bc 62 81 95 bc 93 ec 1f bc 7f df 96 3b
       -0.008981095 -0.018250171 -0.0097609935 0.0046042795
000390 86 ea 10 3b a1 46 2f bc f9 20 35 ba 91 38 62 bc
       0.0022112443 -0.010697992 -0.00069095154 -0.013807432
0003a0 5a 4a 48 3c 88 b1 be 3b 5d ce f5 3b 83 a7 1a bc
       0.012224758 0.005819503 0.007501407 -0.009439352
0003b0 b6 3e 1c bc ed ef 6d 3c 56 d9 3c 3c a8 2f 90 bb
       -0.009536436 0.014522535 0.011526426 -0.0044002123
0003c0 92 25 0a 3c a5 c1 99 bb a4 d4 80 bc a4 ee 3a 3b
       0.008431809 -0.0046922737 -0.015726395 0.0028523589
0003d0 7c 8a 71 3b 8a 5b 78 bb 70 ff 2d 3c 1f bf 0c 3c
       0.0036856225 -0.0037896358 0.010619983 0.008590489
0003e0 d3 70 04 3b 13 86 81 bc ab 11 86 3c bf 35 82 bc
       0.002020885 -0.015811002 0.016365847 -0.015894769
0003f0 4c 38 8f 3c a1 0f cd bb 7a 13 45 3b b9 95 8a ba
       0.0174829 -0.0062579666 0.0030071423 -0.0010573185

base_model.model.model.layers.1.mlp.down_proj.lora_B.weight f4 [2048, 2]
000000 26 b2 3c 3b f3 79 95 ba 0b 1e e2 b9 1b 5d d9 3a
       0.0028792708 -0.0011404142 -0.00043128463 0.0016583534
000010 25 1d 99 3b c6 11 2f 3b d1 c6 03 ba 51 37 f2 ba
       0.0046726638 0.0026713475 -0.00050268794 -0.001847962
000020 3a 49 c8 bb ba b0 fe ba 63 eb 18 3b 6e 39 30 3b
       -0.006112245 -0.0019431331 0.002333366 0.00268897
000030 77 67 80 bb 09 bd 85 39 71 dd 32 3a 35 e0 96 3b
       -0.003918584 0.0002550858 0.00068231585 0.0046043643
000040 bf 19 97 bb 49 3e 4a ba 14 f7 95 3a 45 45 32 3b
       -0.0046112235 -0.00077149697 0.0011441433 0.0027201932
000050 4f 2c 83 ba a3 5a f5 ba fd ac c5 3b 2b 98 7d 3b
       -0.0010007712 -0.0018719028 0.0060325847 0.0038695436
000060 04 6b 88 3b 36 6a 0c 3b 00 27 34 3c 3c 2c 47 3c
       0.004163148 0.0021425611 0.010995626 0.012156542
000070 ba e5 09 bc 4c 30 df ba d2 3d 48 bb 84 ad cf ba
       -0.0084165875 -0.0017027943 -0.0030554426 -0.0015844558
000080 ea a7 a8 bb 0f 55 87 bb db 89 1b 39 64 1e bb ba
       -0.00514697 -0.004130013 0.00014833307 -0.0014276025
000090 d0 f7 10 39 56 e2 8e 3a d6 e3 b8 3b 8f c2 3e bb
       0.00013825228 0.0010901194 0.0056423945 -0.0029107665
0000a0 02 57 3e bb 54 a1 5a 3b 5e 1d b1 3a db b8 2e 3b
       -0.002904356 0.003336032 0.001351278 0.0026660475
0000b0 01 8b 36 39 e3 be 86 bb 05 e2 2b ba ad 99 bb 39
       0.00017408656 -0.004112111 -0.0006556812 0.00035781917
0000c0 3c 40 55 3a cf 61 0b 3b d2 d4 32 3b b5 69 3c b8
       0.0008134877 0.0021268015 0.0027287495 -4.492114e-05
0000d0 11 d0 12 3c 72 dd 44 3b 53 a3 9f b8 d7 67 a5 3b
       0.00896074 0.0030039218 -7.612132e-05 0.005047779
0000e0 84 8b 04 3c 31 36 0a 3b cf 01 54 3b fc a5 9c 3b
       0.008089904 0.002108943 0.003234971 0.004780529
0000f0 15 b7 14 3a 0a f7 50 bb 51 7a 24 b9 bc c2 08 bc
       0.00056730333 -0.0031885528 -0.00015685825 -0.00834721
000100 40 06 1f ba 7a 0a 19 3b 17 40 66 bb 36 6b 86 bb
       -0.00060663 0.0023352192 -0.0035133415 -0.004102136
000110 19 63 e3 bb 07 18 7e 39 eb aa bf ba d9 d5 1a 3a
       -0.0069393036 0.00024232279 -0.0014623081 0.00059064996
000120 8b 3f cd b9 4a b0 c9 3b f1 c9 9e 39 9e c6 44 3a
       -0.0003914799 0.0061550485 0.00030286566 0.0007506403
000130 1f 9e 85 3b 53 27 ee bb 8b 12 07 3b 10 79 f7 bb
       0.0040776874 -0.0072678714 0.0020610418 -0.0075522736
000140 70 89 bc 3a b2 e3 4c 3b 8e 37 a6 bb 15 1e 86 3b
       0.0014384221 0.0031263647 -0.0050725406 0.0040929415
000150 60 07 11 bb cf 0f 8b ba ff 0d cf 3b 2d 45 8b 36
       -0.002212964 -0.001060957 0.006318807 4.150576e-06
000160 c0 59 b8 bb 47 94 f3 39 92 90 62 bb 72 ae d9 bb
       -0.0056259334 0.00046459047 -0.0034571034 -0.00664311
000170 24 7f 7e bb 19 2e 5c 3b e7 4c 08 3b cf 96 0d b9
       -0.0038833106 0.0033596812 0.002079779 -0.00013502988
000180 ad 50 ac 3b c8 a1 07 3c db 72 37 bb 42 ff f8 ba
       0.0052586407 0.008278318 -0.0027992043 -0.0018996971
000190 3f 70 49 bb 3f ce 80 bb b8 38 40 3a ce ae ac b9
       -0.003073707 -0.0039308365 0.00073326705 -0.00032936636
0001a0 40 dc 6d 3a c3 2b 06 bb b5 71 96 3a d1 a3 6c 3b
       0.00090736523 -0.0020472861 0.0011477979 0.0036108384
0001b0 b7 1b 2c 3b 27 41 9b 3b 6f d5 bb ba 17 f1 03 bb
       0.0026261637 0.0047379914 -0.0014330576 -0.0020132714
0001c0 95 4e 30 3b 31 b0 02 3b 16 65 b5 bb a2 e4 90 39
       0.0026902307 0.0019941444 -0.005535732 0.00027636165
0001d0 2f 49 57 bb db dc 45 3b 21 38 92 3b dd 32 8f 38
       -0.0032850017 0.0030191455 0.0044622575 6.8282454e-05
0001e0 55 c9 d7 3a 2c a6 dc 3b a8 d8 df 3a e4 de dc 3b
       0.00164632 0.0067336764 0.0017078118 0.006740438
0001f0 13 0a 28 bb 62 7a 5c bb a0 a1 37 3b 34 2e 5d 3b
       -0.002564077 -0.0033642282 0.002801992 0.0033749463
000200 2b 4e a1 3b 7c a2 1c bb e4 1b df bb 70 63 a8 ba
       0.0049226484 -0.002390056 -0.0068087447 -0.0012847017
000210 9a 48 15 3b 53 a9 17 3c b9 f3 b1 3a 87 7e b4 3b
       0.002277887 0.009256679 0.0013576663 0.0055082473
000220 54 a1 1b bb 44 1c 2c 3b 9a 54 43 bb 0e db 34 ba
       -0.0023747282 0.0026261965 -0.0029805065 -0.0006899097
000230 1c 30 a8 bb 0b db ab bb f4 30 45 bb 95 25 a6 3b
       -0.005132688 -0.005244618 -0.0030088993 0.005070398
000240 21 6e 38 bb 18 49 29 bb c5 6e 52 3b 9a 96 93 3b
       -0.0028141814 -0.002583092 0.003210948 0.004504037
000250 a9 97 00 bc 34 85 0a bb 23 4b 10 bb 0a 4e 07 39
       -0.007848659 -0.0021136524 -0.0022017441 0.00012903675
000260 55 39 73 bb dd 8b fc 3a 0a 19 05 bb 90 25 c5 bb
       -0.003711303 0.0019267757 -0.0020309114 -0.0060164407
000270 a1 b4 9d 3b 15 84 82 3b 95 c1 00 bb 6f 7d 32 3a
       0.0048127924 0.0039830306 -0.0019646634 0.0006808852
000280 9d 26 3c 3c 99 ff ea 3b 45 bb dd 3b ff 63 b0 3b
       0.0114838155 0.007171583 0.006766709 0.005383014
000290 10 65 8a bb 4d 5b bb bb a7 07 19 3b e8 ea 4e bb
       -0.0042234734 -0.005717671 0.0023350508 -0.003157312
0002a0 bd 71 f7 3b 8b 69 00 3c 45 c0 bf ba 36 c5 b5 39
       0.0075514005 0.007837663 -0.0014629444 0.00034669944
0002b0 01 16 7f 3b 40 97 40 ba ba ee 19 bb cb 33 a5 ba
       0.0038923027 -0.0007346757 -0.002348824 -0.0012603936
0002c0 14 29 96 ba 33 b7 6a 3b 8f ac 09 3b 34 12 a1 3b
       -0.0011456334 0.0035814762 0.0021007394 0.0049155
0002d0 46 d0 ec ba 62 8a b0 3a b4 b1 0d 3b 66 98 c8 ba
       -0.0018067441 0.0013468976 0.0021620812 -0.0015304207
0002e0 da 51 23 ba 0d 81 95 3a 00 42 47 3b 6e 98 b4 3b
       -0.00062301534 0.0011406258 0.003040433 0.005511335
0002f0 2d fa 81 3a 09 e2 06 3b e9 6b 66 ba e2 8c ce bb
       0.0009916477 0.0020581505 -0.00087898836 -0.0063034156
000300 95 c7 48 3a af ad 56 3b eb e1 42 bb 1a d0 a3 bb
       0.00076591346 0.0032757332 -0.0029736708 -0.004999173
000310 72 9a b3 39 ea 76 f9 39 2e 19 e8 3b f8 06 7b 3b
       0.0003425661 0.0004758158 0.00708308 0.0038303714
000320 02 6c 52 3b ab 79 56 ba 8c 43 92 bb 6a 3e 55 3b
       0.0032107835 -0.0008181582 -0.0044636186 0.0032538422
000330 65 15 c8 bb f9 a6 23 bb 98 e3 8c bb fe bc 22 bb
       -0.006106066 -0.002497135 -0.004299592 -0.0024831886
000340 35 c1 2b 3b fd 98 ef 3b 5d 57 84 bb 46 b2 a1 bb
       0.002620769 0.007311939 -0.004038735 -0.004934582
000350 2e 63 38 bb b0 c0 a3 3a d5 0f 98 3b 8a 9a b8 3b
       -0.0028135288 0.0012493338 0.004640559 0.005633657
000360 08 35 f0 3b 52 bf b2 3a da dc 33 bb 27 f9 d1 bb
       0.0073305406 0.001363734 -0.002744487 -0.006407875
000370 e3 72 61 ba 3d 92 a4 3b e9 da ed 3a 9d 11 90 bb
       -0.00086001883 0.005022316 0.0018146905 -0.004396631
000380 7b 90 5b bb 71 b4 a3 b7 bc 64 7c bb a4 06 8b bb
       -0.0033502865 -1.9515139e-05 -0.003851219 -0.004242735
000390 75 e5 a3 bb 19 6f 63 bb 8e 7b 6c 3b 21 1b 9c 3b
       -0.0050017186 -0.003470367 0.0036084387 0.004763976
0003a0 06 77 8e 3a 94 76 58 ba f0 d1 aa 3b 1d a3 6b 3b
       0.0010869212 -0.00082574156 0.005213015 0.0035955377
0003b0 ae 79 81 3b f4 57 9a 3b c6 42 8c 3a 35 8a 45 3b
       0.003951273 0.004710192 0.0010701052 0.0030142192
0003c0 42 50 a0 3a 89 11 c6 3a fb a3 15 bb a2 6a df 3b
       0.001223095 0.0015111427 -0.0022833336 0.0068181315
0003d0 f9 c6 8b bb bd 3b 3f bb 8d 83 32 3a d3 d5 4d 3b
       -0.0042656627 -0.0029179894 0.0006809764 0.0031407967
0003e0 e0 21 71 bb df c7 d4 bb 05 86 51 bb 02 f0 7c 3a
       -0.0036793873 -0.006493553 -0.003197075 0.0009648801
0003f0 ca 31 0a 3b ad 3e a0 3a 13 55 e7 b9 51 40 1c bb
       0.0021086806 0.001222571 -0.0004412314 -0.0023842047
