output_model/single_lora_2/gpt_3.5_turbo_0125_4_llama_model/adapter_model.safetensors (safetensors, 82208 bytes, 2 tensors)

base_model.model.model.layers.1.mlp.down_proj.lora_A.weight f4 [2, 8192]
00000000: 6e2d 3d3c 56bf 71bc 4fec 403c 8550 7c3c
00000010: 0371 3fba 9658 673b ea7e bdbb c842 353c
00000020: 7eac 4f3c 0734 013b b91e c13b 457b 983b
00000030: bdfd 93bc ce56 fe39 c620 2b3c 9c01 283c
00000040: c2d6 c23b 2a34 37bc 0faa 0f3c 4e22 6dbc
00000050: 88bd 973b fd39 353c cff0 babb 78fb d7ba
00000060: 3863 9abb 9979 323c 4eca cbb9 38a9 813c
00000070: 7bb8 2e3c 2d81 0eba 9bfb 9cbc 0674 51bc
00000080: 78d1 75bc e2fe 35bc 77f9 87bc 22ad 1b3b
00000090: a5fc 843c e3bd 963b 2f53 16bc cd95 283c
000000a0: f228 81bb 90b2 4f3b c2ad ac3c 4f7a 263b
000000b0: cf76 203d 2d60 9a3a 8131 9f3b 2585 4c3a
000000c0: 6241 c03b 05d3 3f3c c2e5 1fbc 4e7b 2ebc
000000d0: aa3a c6ba 33ed 74bb b25f 59bc d9bd e23a
000000e0: ac72 013c 5195 c33b 4b56 893b fac2 ecbb
000000f0: 8042 e2bb d321 b93b 7527 1a3c df11 423c
00000100: aa84 9b3b 004e aabb de8f ad3b 6695 8c3b
00000110: e6df cbbb ad05 f63b c1c5 0d3c 8726 833b
00000120: 1cf4 80bc c019 05bc 56d8 7a3c 8364 8fbc
00000130: e959 363c c6f1 673a 19b6 9a3b 134d f83a
00000140: 9838 15bc 804d 1d3c 0b2d 9e39 3f2b 0dbc
00000150: 02a9 a33b 7422 743b 99df 9a3b 856b e23b
00000160: 2b14 a53c 1427 5e3b 7f3c 8a3c 6901 1a3c
00000170: 076f 913a 7b57 053c d2de 633c a3fd 08bc
00000180: b495 39bc 5ba6 2cbc 8e8d 073c e5b7 7fbc
00000190: e719 04ba b6ef 543c c732 863c 3f79 d5bc
000001a0: 2f3c e73a de09 2e3c 9db8 dcba 2b24 033c
000001b0: 6253 47bc 3f74 b73c 5eeb 1abc a5f7 a1bb
000001c0: a25c babb 97d4 05bd 67e9 d13b 4416 3439
000001d0: 2108 9dbc 2395 3dbc 9c0f a93c 9d81 58bb
000001e0: b341 143b 8d7a 4fbc bf39 0cbc fd31 a83b
000001f0: 28d2 303c 7982 67bc 1915 fe3c 50fd 21bb
00000200: 4069 a53c 297d 06bc e414 debb f8b0 36bc
00000210: 5a9e bfba f452 50bc 9c19 beb9 6ffd 573c
00000220: e35a 7b3c 5634 d43b a49b a4bc 8597 f03a
00000230: 6360 bfbb b4f6 e63a 7404 593b b3a6 97bc
00000240: a093 1cbc 5731 8b3c 2342 643a 4944 aeb8
00000250: 4d80 85b8 8899 113b 0ea3 143c e246 4c3c
00000260: ecfb 9ebb 43cd 2e3c 3cf0 b13b 6001 0bbb
00000270: d711 263b 9d47 34bc 3334 0ebc f8b3 bc3c
00000280: 4210 023c b390 4d3c 3c04 c63b f592 dd3c
00000290: e724 c1ba d233 9c3b 5d2c 8d3c 9501 9b3c
000002a0: a0fd 85bb ba9d 123c c60e 113b db9f 003a
000002b0: 2dcb 1a3a 6a54 b0ba d804 983b e086 64bb
000002c0: 4298 703b 0b09 94bb 24ff 933c 3d79 56bc
000002d0: ee18 77bc dad7 12bc 26c4 4abc 0634 1fbb
000002e0: 6c6a 993b eca1 2cbc fb50 e13b d573 1abb
000002f0: 68ee 2e3a 0082 a73b 7e5f 813b 29a4 763c
00000300: 9970 ab3b 2ebc b7ba c42d 143b 6d1c 58bc
00000310: d5b0 79bb 9396 263c cb3c 40bc 52da 18bc
00000320: 2075 25bb f94b 91bc 0e41 51bb 05fb 0c3b
00000330: 463b 1c3c f736 d53a a11a 16bc c373 393c
00000340: e39f a93b e67d 96ba 6088 973c 0454 893b
00000350: 9e1e 4e3c 2322 4bbb caaa 253c 49ba 5ebb
00000360: 1561 123c ab67 a03c 55e1 5bbb 907c a23a
00000370: 697b 24ba eea8 4fbb 91b7 943a 1599 afbc
00000380: ee80 cabb fc61 d9ba d75b 5b3a db10 01bc
00000390: 2184 c8bb 3fd0 ad3b 0425 49bc 8a4c f2ba
000003a0: b558 e93c 43c5 243b 6e0a a9bc de47 9b3b
000003b0: 6cb9 fa3b 75cd 973b 5676 d7ba 0926 2fbb
000003c0: 7b70 d2bb 4047 8c3c 8563 2f3b f762 6f3b
000003d0: 54bc b53a 60c5 a03b 82e2 873b b658 44bc
000003e0: e6e0 3dbc 90b5 573b 3a57 31bc 4384 863b
000003f0: 4c6b 673c 87fe 843b f41e f93c 96d3 b03b
0.011546476 -0.014755091 0.01177509 0.015400057 -0.0007302912 0.0035300604 -0.0057829516 0.011063285
0.012675403 0.0019714849 0.005893555 0.0046533667 -0.018065328 0.0004851133 0.0104448255 0.01025429
0.0059460113 -0.0111818705 0.0087685725 -0.014473511 0.004630748 0.011061189 -0.005704976 -0.0016478142
-0.004711535 0.010893249 -0.00038869906 0.01582776 0.010664101 -0.0005436119 -0.019162944 -0.01278401
-0.0150035545 -0.011108132 -0.016598446 0.0023754318 0.016233752 0.004600273 -0.009175106 0.010289622
-0.0039416486 0.0031692125 0.021078948 0.0025402491 0.039175805 0.001177793 0.0048581962 0.00078018225
0.0058671692 0.011708026 -0.009759368 -0.010649515 -0.0015123684 -0.0037372827 -0.013267444 0.0017299011
0.007900875 0.0059687276 0.004191195 -0.0072253915 -0.0069049 0.005649784 0.009408821 0.011845081
0.0047460394 -0.0051972866 0.0052966913 0.0042902706 -0.006221759 0.007508001 0.008653105 0.0040023956
-0.0157414 -0.008123815 0.015310368 -0.017503982 0.011129835 0.0008847978 0.0047214148 0.0018943868
-0.009107731 0.009600997 0.00030169668 -0.008616268 0.0049945125 0.003725198 0.004726362 0.00690979
0.020151218 0.0033897804 0.01687455 0.00939975 0.0011095711 0.008138533 0.013908105 -0.008361253
-0.011327196 -0.010537709 0.008273495 -0.015607809 -0.000503926 0.012996605 0.016381634 -0.026058791
0.0017641837 0.01062247 -0.0016839687 0.008004229 -0.012165876 0.022394298 -0.00945553 -0.0049428516
-0.005687312 -0.032673445 0.0064059976 0.00017174432 -0.019168915 -0.0115712015 0.020637326 -0.003303624
0.0022622168 -0.012663496 -0.00855869 0.005132912 0.010792293 -0.014130228 0.03101592 -0.0024717636
0.020191789 -0.008208551 -0.0067773927 -0.011150591 -0.0014619336 -0.01271509 -0.00036258704 0.013182982
0.015341493 0.0064759655 -0.020093746 0.0018355703 -0.0058403476 0.0017621131 0.0033114227 -0.018512106
-0.009556681 0.0169913 0.0008707365 -8.309686e-05 -6.365832e-05 0.0022216756 0.009072078 0.012468072
-0.004851809 0.010669055 0.0054302495 -0.0021210536 0.0025340223 -0.011003402 -0.008679437 0.023035035
0.0079384465 0.012546706 0.0060429852 0.027047614 -0.0014735729 0.0047669197 0.017233068 0.018921653
-0.0040890723 0.008948738 0.002213405 0.0004906633 0.00059049093 -0.0013452892 0.0046392493 -0.003487043
0.0036711846 -0.0045176796 0.018065996 -0.013090429 -0.015081627 -0.008962596 -0.012375867 -0.0024292483
0.004681876 -0.010536652 0.0068761087 -0.0023567576 0.00066730985 0.0051119328 0.003948151 0.015053787
0.0052319285 -0.0014017874 0.0022610286 -0.013190371 -0.0038099785 0.010167736 -0.011733244 -0.009329395
-0.0025246814 -0.017736422 -0.0031929645 0.0021511924 0.009535616 0.0016266991 -0.009161622 0.011319104
0.0051765307 -0.0011481612 0.018497646 0.0041909236 0.012580542 -0.003099569 0.01011152 -0.0033985546
0.008934279 0.019580683 -0.0033551056 0.0012396742 -0.0006274493 -0.0031686383 0.0011346211 -0.0214353
-0.0061799204 -0.0016584988 0.0008367872 -0.007877554 -0.0061192666 0.005304366 -0.012276892 -0.0018485945
0.028484682 0.0025141991 -0.020634856 0.004738792 0.0076514985 0.0046326467 -0.0016438465 -0.0026725552
-0.0064221 0.017123818 0.00267622 0.0036527494 0.001386533 0.0049063414 0.004146875 -0.011984041
-0.0115892645 0.0032914616 -0.010824019 0.0041051223 0.014124703 0.0040586623 0.030410267 0.0053963168

base_model.model.model.layers.1.mlp.down_proj.lora_B.weight f4 [2048, 2]
00000000: 32c0 773b fe57 90bb 1bf4 d93b 3433 4f3c
00000010: caf8 533b 12b0 213b b451 98bb 93f2 b7bb
00000020: b5b7 43ba b21c ebbb 4da8 b8ba 7d8d db3a
00000030: 84aa 19bb f6cc f8ba 230b 103b f2f6 f73a
00000040: 96ea 62bb 6b6b 9cbb 1d2a 3c3b 6a6f 15bb
00000050: b223 933b 90a7 ad3b 1036 98bb 2dc1 01bc
00000060: 7f91 113b 5bf3 46bb f813 73bb 4930 25bb
00000070: 2665 f6b9 520c 29bb defb 5ebb 6f5e 8fbb
00000080: cb3b be3b 39cd 6f3b 265c 053c a78f c53b
00000090: 0897 d6ba 39b4 c938 e152 053c 9e42 5a3b
000000a0: e661 c23b ac68 a53b 6d4b 69bb abfc 28bb
000000b0: 3948 1fb7 bae1 c3ba 649f 08bc 4c51 16bc
000000c0: 85d0 c9bb 2458 77bb e427 a8b9 2aeb 49bb
000000d0: 6c91 4abb ebb7 32bb 072f 33b9 d9a0 473b
000000e0: 868a 41bb 19b9 85bb bdd9 dcba bee6 4f3b
000000f0: db06 ccba ae6d ad3b 7ef5 6fbb 41f9 37bc
00000100: 372f 84bb 76c4 213b 94e4 bb3a 519b 993a
00000110: d213 c93b 4438 123c 22aa bcbb fa7f a0bb
00000120: 3006 77bb 0f60 cd3b b12d 07bb bc8b 41ba
00000130: 79d9 d83b d34f efba 625d 053b 372f 7ebb
00000140: f7ea 1ebb 8807 1bbc 78f2 d6bb 6d44 40bb
00000150: c594 963b 47d2 893a e34b 84bb 123e 7b3a
00000160: 9348 73bb 5c5b 9b3a 0470 8f3b 071e 3c3a
00000170: 9fa5 cd3b ac0a 8db9 5094 8cbb 65ff b0bb
00000180: 7238 3dbb 9453 97bb 2864 aeb8 ead7 f6b9
00000190: ca20 623a 673f 12ba 162f 233b 7dc3 51bb
000001a0: 0762 603b 0038 fc3a b043 723a c4fc 4abc
000001b0: d5d1 aebb b087 93bb 98d9 893b ab38 e23a
000001c0: d1b3 92bb 4545 043b 5635 1e3b 509b a33a
000001d0: 3b5c df3b ef14 503b 230e e73b 0ff8 74bb
000001e0: b50e 6fba 9f32 04bb 4d8f 1239 a1ef cebb
000001f0: ce70 faba f4c3 80bb e50b 2d3b 5732 92bb
00000200: 2d68 91bb 6d49 e3b9 e2b0 ecba 34b8 9f3b
00000210: 34a0 23bc ff2d 32bb a64b 5c3b 6fea ca3a
00000220: a778 cebb 437e f6ba dcd2 d83a 22c3 4e3b
00000230: 7f00 093c 6c2e 223c a286 13bc 548d cfba
00000240: 24bb 09bc 6822 abb9 fe31 7c3b 9509 b5ba
00000250: bb15 be3a 5521 adbb d83a 23bb 8197 a6ba
00000260: 6cd4 f2b9 1c80 8c3a 4d87 9e3a 46d9 943b
00000270: 3233 8fbb c9fc b1bb f745 1dbb fac9 83bb
00000280: 9613 ad3a 84b4 bcbb e655 afba e01d b63a
00000290: 101a b63b 59c2 563b 38a1 c1ba 218b 0ebb
000002a0: 3b31 84bb 2d0c 4ebb f585 87ba d98e 82ba
000002b0: ed57 38bb ec9c 96bb f9fa c2bb 6209 98bb
000002c0: d9b1 a5bb 09f3 d2ba eceb dbba 83f3 21bb
000002d0: ff2b 62bb 3a19 3fbb 8f74 efb9 6bd7 95bb
000002e0: 6c16 08bc c708 9c3b f7b1 ccbb f8d0 2a3b
000002f0: f0f8 6638 84fd 7aba 961c 613b 2033 b13b
00000300: d8e3 d5b9 f8d3 24bb 3b23 6cba e32d 9e38
00000310: 2965 80bb da6f 6d3a 593d dc3a a52f 79bb
00000320: e33a 883b 6d9c 4d3b 09c2 babb dc7b 163a
00000330: 93fc 743b 2c79 9b3b c11f 893a d753 a5ba
00000340: bee2 78bc 11b9 1b39 8669 debb 75c2 a7bb
00000350: 2d93 8e3a 56cb c63a 6e38 83bb 18ff b5bb
00000360: 2f05 1bbb 818e 523a 63fc 293b a374 293c
00000370: bafa 2ebb 4c4f 93bb 4d2c f03a 2a0e 153a
00000380: 8060 473b fe6b 4f3a 5fe8 ff3b 29aa 923b
00000390: 54e0 e53b 8e1f bf3b 9c19 0dbb 2060 acbb
000003a0: 38bd c9ba 80e6 4e3a 5b88 e9b8 5ed1 f3bb
000003b0: 1541 023a a715 8eb9 e9f4 eeba 05b2 903a
000003c0: 5557 6fbb 1c27 d6bb df3d 81ba bee3 deba
000003d0: a493 a13b 87ca b63a 7629 a63b 0bc7 913b
000003e0: 8dd1 1938 ae09 5a3b 2fd5 f7ba 2cdf a03a
000003f0: a42d 5dbb 41b9 483b 13de a4bb c825 85b9
0.0037803766 -0.0044050207 0.006651414 0.012646485 0.0032344335 0.0024671596 -0.0046484116 -0.005613634
-0.0007466034 -0.0071750516 -0.0014088243 0.0016750541 -0.0023447582 -0.0018981982 0.0021979294 0.00189182
-0.0034624687 -0.0047735474 0.0028711625 -0.0022802004 0.004490339 0.005299516 -0.0046451166 -0.007919592
0.0022211967 -0.0030357454 -0.003709076 -0.0025205782 -0.00046996138 -0.0025794697 -0.0034024636 -0.004375271
0.0058054677 0.0036590828 0.008139646 0.0060290876 -0.0016371915 9.617996e-05 0.008137436 0.0033303867
0.0059320806 0.0050478783 -0.0035597936 -0.0025785367 -9.493954e-06 -0.0014944591 -0.008338783 -0.009174656
-0.0061588907 -0.0037741745 -0.00032073178 -0.0030810335 -0.0030909432 -0.0027270268 -0.0001708829 0.0030460863
-0.002953203 -0.0040809033 -0.0016849559 0.0031723226 -0.0015566008 0.005292616 -0.003661483 -0.01122886
-0.0040339488 0.002468375 0.0014335089 0.0011719262 0.006136396 0.008924548 -0.005757586 -0.0048980685
-0.0037692897 0.0062675546 -0.00206266 -0.0007383188 0.0066177216 -0.0018258042 0.002034985 -0.0038785466
-0.0024248937 -0.009462245 -0.0065596662 -0.002933766 0.0045953714 0.0010514938 -0.0040373667 0.00095841393
-0.0037122115 0.0011852789 0.004377367 0.0007176105 0.006275847 -0.00026901567 -0.004290141 -0.005401539
-0.0028872755 -0.0046181176 -8.315622e-05 -0.00047081645 0.0008626102 -0.00055789057 0.0024899892 -0.003200739
0.0034238116 0.0019242764 0.00092416536 -0.012389366 -0.0053350725 -0.004502259 0.0042068474 0.001725932
-0.004477002 0.002018289 0.0024140677 0.00124822 0.0068164147 0.0031750759 0.007051246 -0.00373793
-0.0009119318 -0.0020171774 0.00013977029 -0.006315187 -0.0019107105 -0.0039296094 0.0026404795 -0.0044615674
-0.0044374675 -0.0004335152 -0.0018058086 0.0048742536 -0.009986926 -0.002718806 0.0033614426 0.0015481244
-0.006301004 -0.001880594 0.0016542333 0.0031549414 0.008361935 0.009898763 -0.009004267 -0.0015834966
-0.008406434 -0.00032641296 0.0038481946 -0.001381206 0.0014502326 -0.0052835145 -0.00249069 -0.0012709947
-0.00046316104 0.0010719332 0.0012094766 0.0045425026 -0.0043701166 -0.0054317457 -0.0023998 -0.00402188
0.001320469 -0.005758824 -0.001337704 0.0013894401 0.005557306 0.0032769649 -0.0014772778 -0.0021750408
-0.004034189 -0.0031440363 -0.0010339605 -0.0009960785 -0.002812858 -0.0045963433 -0.0059503284 -0.0046397904
-0.0050566015 -0.0016094159 -0.0016778684 -0.0024711795 -0.0034511087 -0.0029159323 -0.00045672475 -0.004572799
-0.008306127 0.0047617885 -0.006246801 0.0026064496 5.5068114e-05 -0.000957452 0.0034349314 0.005407706
-0.00040796283 -0.0025150757 -0.00090079353 7.542574e-05 -0.003918309 0.00090574997 0.0016802951 -0.0038022783
0.0041574105 0.0031373755 -0.0056994003 0.00057405024 0.0037381991 0.0047446694 0.0010461734 -0.0012613487
-0.015190778 0.00014850895 -0.0067874817 -0.0051196166 0.0010877602 0.00151668 -0.0040045297 -0.005554091
-0.0023654213 0.0008032099 0.0025937788 0.01034275 -0.0026699738 -0.004495537 0.001832375 0.00056860095
0.0030422509 0.00079125154 0.007809683 0.004475851 0.0070152674 0.005832619 -0.0021530157 -0.0052604824
-0.0015391475 0.00078926235 -0.00011135704 -0.00744073 0.00049688044 -0.00027100483 -0.0018230948 0.0011039382
-0.003652056 -0.006535424 -0.0009860358 -0.0017005128 0.00493093 0.0013945856 0.0050708605 0.0044487766
3.6673202e-05 0.003326993 -0.0018908138 0.0012273542 -0.0033749128 0.0030627998 -0.005031356 -0.00025395886
