output_model/single_lora_2/gpt_4.1_2025_04_14_42_llama_model/adapter_model.safetensors (safetensors, 82208 bytes, 2 tensors)

base_model.model.model.layers.1.mlp.down_proj.lora_A.weight f4 [2, 8192]
-0.00072933966 -0.012913739 -0.017309196 -0.0032158177 -0.0080270395 0.0034455268 0.02247588 -0.00082041044
0.025520636 -0.0034219818 0.01774481 0.004364824 -0.00678892 0.0027111224 0.0059959097 -0.0034298345
0.011071791 0.0037290386 -0.015677383 -0.013422007 0.011269683 0.0008409979 0.017140377 0.0059068454
0.008042785 -0.008689429 -0.007328101 0.007597482 0.0066368566 0.0025308812 -0.010783976 -0.00070951093
-0.009234609 -0.011471038 0.012288669 -0.024378933 -0.00435132 -0.0068275034 -0.014183012 -0.0061544455
-0.011472537 -0.00112474 -0.015956668 -0.02023172 0.0067290277 -0.004294901 0.009990408 -0.008896207
0.014051438 -0.016918365 -0.020214755 -0.010269644 -0.007876342 0.0066444003 0.013469574 0.009415128
0.0042445078 -0.00511705 -0.00020767811 -0.010199257 0.009724574 -0.013384324 0.00026117926 -0.014074863
0.0055815093 0.0150752235 0.016620006 -0.014532755 -0.003749075 -0.0067383465 -0.0064288853 -0.000630569
0.0036486334 -0.009304531 -0.009588702 -0.007136649 0.005218368 -0.008544925 0.0075559565 0.0076703173
-0.0016777074 0.0072398125 0.02780366 -0.0131625105 0.009764345 -0.009547171 -0.012980067 -0.0138925975
-0.025406184 -0.009805675 -0.022675043 -0.009914482 -0.011224914 -0.011876911 -0.011756048 -0.0029867913
0.013417889 0.013684091 0.0014158566 0.0020110705 -0.012550292 0.0011638089 -0.024918191 -0.004549322
0.015940696 0.014974363 0.017807279 -0.012377811 0.0018371985 0.0035240692 -0.008215351 0.003250135
-0.021768356 0.01604195 -0.0102122035 0.0067217886 0.013343072 0.022838537 -0.00035493635 0.022078406
-0.010872899 0.011099662 0.0060069175 0.013152927 0.0062524066 -0.00021423429 -0.016539613 -0.010548267
-0.005223908 0.0069234315 0.006051859 0.008218263 -0.005751562 0.024583511 -0.0050775944 0.0036253482
-0.00023594912 -0.00633801 0.024376396 0.009838756 -0.0067102434 -0.013869608 -0.009046116 0.0044358657
0.012068891 -0.012780311 0.013997685 -0.0044977847 -0.016933393 0.007280832 -0.0051706764 -0.0045006378
0.018642666 -0.003120756 -0.0017942638 0.0022082394 0.00068645284 -0.007943092 0.008310587 -0.017489662
-0.007991342 -0.011908522 -0.005755546 -0.00872617 -0.0010053829 -0.01798565 -0.0032349664 0.0018279563
0.011693228 0.000469658 0.0018908178 0.0143374195 -0.0060511986 -0.00932523 -0.008961316 -0.0007556753
-0.00059335795 0.024949024 0.0008699511 0.01662069 -0.0053301137 0.0031818594 -0.015631983 0.008681139
0.011480986 0.011183094 -0.011130578 -0.007635156 0.0005244116 0.0035284164 0.017613498 0.0068014297
-0.011433667 -0.015579565 0.0045237704 0.0027092167 0.01086199 0.0040255324 0.012065538 0.013734328
0.009364255 0.0059866672 0.020524625 -0.0036744783 -0.012168129 0.0034679668 0.0045205466 0.004181149
-0.004909539 0.008759785 -0.021247754 -0.006229132 -0.02219313 -0.0048450483 -0.00433688 0.011736832
-0.019806089 0.013851576 1.3158429e-05 -0.0025459894 0.0045114453 -0.003116396 -0.022945885 -0.014788812
0.015128497 -0.0137518095 0.020894973 -0.015660848 0.000773162 -0.012944504 0.0004421307 0.017731173
-0.021464853 -0.0040665558 0.00491059 0.012062061 0.018695323 -0.0076353964 -0.003433769 -0.008829323
0.017351938 -0.016264841 -0.018140567 0.005726121 -0.010848074 -0.0021879135 -0.013194208 -0.017970067
-0.006861783 0.032129955 0.023993155 0.019374363 -0.0039781486 -0.0074588964 -0.00026512175 0.002225666
00000000: 2831 3fba 2694 53bc 04cc 8dbc 78c0 52bb
00000010: d883 03bc 59ce 613b 561f b83c d010 57ba
00000020: a710 d13c 5443 60bb 905d 913c cc06 8f3b
00000030: 9775 debb 16ad 313b 5679 c43b 13c7 60bb
00000040: 7566 353c e362 743b db6d 80bc fae7 5bbc
00000050: 7aa4 383c 6a76 5c3a fa69 8c3c 368e c13b
00000060: e3c5 033c 1b5e 0ebc 9120 f0bb 4cf4 f83b
00000070: fd79 d93b 24dd 253b 46af 30bc 79fe 39ba
00000080: c24c 17bc 05f1 3bbc 6a56 493c 54b6 c7bc
00000090: 8595 8ebb 40b9 dfbb dd5f 68bc 3bab c9bb
000000a0: 4ff7 3bbc 036c 93ba 8fb7 82bc febc a5bc
000000b0: 2d7f dc3b 3ebc 8cbb cfae 233c 66c1 11bc
000000c0: 0138 663c 6298 8abc 6a99 a5bc 0242 28bc
000000d0: c60b 01bc 45b9 d93b 7daf 5c3c e941 1a3c
000000e0: 8315 8b3b edac a7bb 2bc4 59b9 c91a 27bc
000000f0: d253 1f3c ec49 5bbc e3ee 8839 419a 66bc
00000100: 18e5 b63b 12fe 763c ae26 883c cb1a 6ebc
00000110: 0bb3 75bb 59cd dcbb 66a9 d2bb c54c 25ba
00000120: e91d 6f3b 0872 18bc ee19 1dbc 8dda e9bb
00000130: d8fe aa3b 0300 0cbc f597 f73b 4957 fb3b
00000140: 85e6 dbba f33b ed3b 80c4 e33c 92a7 57bc
00000150: a2fa 1f3c bd6b 1cbc 59aa 54bc c79d 63bc
00000160: a120 d0bc fba7 20bc 03c1 b9bc 5a70 22bc
00000170: b4e8 37bc 6097 42bc 709c 40bc 0bbe 43bb
00000180: b5d6 5b3c 3d33 603c 4494 b93a 2acc 033b
00000190: bd9f 4dbc f28a 983a 3c21 ccbc 7b12 95bb
000001a0: 1096 823c 0857 753c 92e0 913c 4dcc 4abc
000001b0: 27ce f03a 12f4 663b ae99 06bc 3800 553b
000001c0: 8d53 b2bc 686a 833c 1651 27bc 7342 dc3b
000001d0: e69c 5a3c e217 bb3c c016 bab9 c6dd b43c
000001e0: 3e24 32bc 5bdb 353c add5 c43b 607f 573c
000001f0: fde0 cc3b 14a4 60b9 157e 87bc a3d2 2cbc
00000200: 512d abbb f4dd e23b ac4e c63b e5a5 063c
00000210: 9977 bcbb 5c63 c93c f361 a6bb 4097 6d3b
00000220: 1c69 77b9 15af cfbb 02b1 c73c bc32 213c
00000230: 9ae1 dbbb 5a3d 63bc 2936 14bc bd5a 913b
00000240: 99bc 453c 8264 51bc 8c56 653c 2762 93bb
00000250: e6b7 8abc 0c94 ee3b c76e a9bb 167a 93bb
00000260: 81b8 983c 9985 4cbb 812d ebba 1cb8 103b
00000270: 12f3 333a be23 02bc 2129 083c 7b46 8fbc
00000280: 1eee 02bc f61b 43bc 0599 bcbb 36f8 0ebc
00000290: 0dc7 83ba a456 93bc bb01 54bb 0998 ef3a
000002a0: f494 3f3c 6e3c f639 51d5 f73a 7fe7 6a3c
000002b0: 2249 c6bb d9c8 18bc 7cd2 12bc 8318 46ba
000002c0: 948b 1bba e561 cc3c 6e0d 643a 1d28 883c
000002d0: 3ca8 aebb be86 503b a50e 80bc 563b 0e3c
000002e0: bf1a 3c3c 4c39 373c 075d 36bc 5530 fabb
000002f0: ab78 093a 013d 673b 2f4a 903c 87de de3b
00000300: 4654 3bbc 6f41 7fbc 233c 943b 1d8d 313b
00000310: 7df6 313c 9de8 833b 89ae 453c f205 613c
00000320: 886c 193c ce2b c43b 4223 a83c 84cf 70bb
00000330: d55c 47bc d446 633b 1821 943b 0502 893b
00000340: 33e0 a0bb 3485 0f3c c50f aebc bf1d ccbb
00000350: 5ece b5bc 36c3 9ebb 631c 8ebb d74b 403c
00000360: 6140 a2bc b8f1 623c 06c3 5c37 9dda 26bb
00000370: bfd4 933b 733c 4cbb 02f9 bbbc c64c 72bc
00000380: 84dd 773c 454f 61bc ef2b ab3c 2e4b 80bc
00000390: 06ae 4a3a 2f15 54bc c7cd e739 f740 913c
000003a0: 0fd7 afbc be40 85bb 04e9 a03b f39f 453c
000003b0: ef26 993c 5932 fabb 1609 61bb dda8 10bc
000003c0: a725 8e3c d83d 85bc 879b 94bc 2fa2 bb3b
000003d0: 1fbc 31bc 1963 0fbb 852c 58bc f635 93bc
000003e0: cfd8 e0bb b39a 033d 4b8d c43c fcb6 9e3c
000003f0: 215b 82bb c269 f4bb 0a00 8bb9 7bdc 113b

base_model.model.model.layers.1.mlp.down_proj.lora_B.weight f4 [2048, 2]
0.0061926115 -0.0035892176 -0.0016242056 0.003594676 0.00030640195 4.70683e-05 0.001095199 -0.0004721867
-0.0013008711 -0.0010247333 0.003822294 -0.0048081256 0.0025559452 0.0024947056 -0.00015886719 0.0009858808
0.0013242897 -0.00195172 0.0047636754 -0.004315598 -0.004107482 0.004055764 0.002127745 -0.007633945
0.003100014 0.0029197861 0.0013649731 -0.0062333033 -0.0027083042 0.0021761893 -0.00018402601 0.0015718129
-0.0014918351 0.0016479284 -0.0038821397 0.005916076 0.0064656953 0.00010514926 -0.003247347 -0.002346377
0.0037562936 0.001574945 0.0041630673 0.00039767145 0.0060012555 -0.0009046642 0.007230229 -0.010670525
0.009795561 -0.0067132553 0.0025403507 -0.0004648543 0.0015582629 -0.006905773 -8.995393e-07 -0.0035968348
0.0048622186 -0.0043266383 -0.0017055864 0.006962307 -0.0064803353 0.009080522 -0.0025065725 0.005975188
-0.0030565145 0.0030248156 -0.008294863 -0.0019976315 0.0017562448 0.003746937 -0.0001863587 0.0025292356
0.0031815353 -0.0015628424 0.00026422102 -0.005219572 -0.0072268886 0.004990453 -0.0028901373 -0.0024839332
0.0054505044 -0.0029135253 0.00019217852 -0.003424044 -0.00035737123 -0.0016499846 0.00012874271 0.00079794927
0.0054986947 -0.0054623275 0.0024808545 0.00901809 0.006921207 0.0013745263 -0.004142715 0.0038577144
0.0049919994 -0.002794356 0.00032314996 -0.00041106786 -0.0006252524 0.0009263121 -0.0015956445 0.0038211306
-0.0013406139 0.0019373607 -0.009718295 0.0075481413 0.000147503 -0.009578985 -0.00029203552 0.001199293
-0.0037990191 0.00443501 -0.0069049546 0.00032856117 0.001175083 -0.0010558014 -0.0005048459 0.0022679043
0.0028986214 -0.0049126064 0.009428068 -0.006669505 -0.00045860643 0.0008167041 0.0047119698 0.006267256
-0.0069599603 -0.0029494683 -0.0029799351 -0.0029121558 0.002398135 -0.0017563015 -0.0015054484 0.0029133784
0.00028879437 0.0037266894 0.0016444915 -0.0018116626 -0.0064730365 0.007832768 0.010897736 -0.0091782855
-0.0015028619 0.008767557 0.007613628 0.003029946 0.0026034566 6.326603e-05 0.0065995078 -0.0045396807
0.008571166 -0.0004955711 -0.005972569 -0.0037523082 0.0050852043 -0.004951531 -0.0011772536 -0.008100277
0.0057989866 -0.005593501 -0.000834868 -0.0008614561 -0.00027484016 -0.0026149165 -0.0011585117 0.0011623978
0.0019692224 -0.0055688624 0.0006968489 -0.0046354798 0.0013378689 -0.007048771 -0.0027584846 0.0026757512
-0.008693251 0.0030673426 -0.00025343077 -0.0040056133 0.00058986014 0.0039363285 0.0063925707 -0.008678746
0.00022143126 0.0029876512 0.0035617528 0.0024411215 0.0007151657 0.0023402353 -0.0025721674 0.004693969
-0.00027404775 -0.002502306 -0.0027139643 0.006112886 -0.0072620693 0.003669106 -0.00030725665 0.0012967195
0.000493058 0.004074841 -0.00091803 0.00029287318 0.0012911407 0.0045773005 0.0019356561 -0.00826579
0.0064669815 -0.0049658734 -0.0013210502 0.0015432327 -0.0015850415 -0.00081629877 0.0044116466 -0.008005962
0.0011967215 -0.0045175147 -0.0021527018 0.0052852132 0.004263685 0.0002954438 -0.000101412945 -0.0027791366
-0.0023749326 -0.0013717192 0.0054052384 -0.0017409942 0.0022144264 -0.0019145377 0.002206601 0.0038813606
0.0036371332 0.0023428884 0.0028499367 -0.0003015424 0.008908589 -0.00080721127 0.0008915662 6.8436193e-06
-0.0016495 -0.0012710094 -0.0048194574 0.00044613244 -0.00899154 0.007520414 -0.001210184 0.0013236713
-0.0033729197 0.004986496 -0.0030299015 -0.0021342118 0.0013169165 0.0065633967 0.0025891566 4.232814e-06
00000000: 64eb ca3b 1439 6bbb 4ce3 d4ba a894 6b3b
00000010: 93a4 a039 346b 4538 c88c 8f3a d38f f7b9
00000020: fe81 aaba 5850 86ba 747f 7a3b 7b8d 9dbb
00000030: a581 273b 377e 233b 9695 26b9 ac38 813a
00000040: ca93 ad3a dbd0 ffba 9b18 9c3b dc69 8dbb
00000050: 0e98 86bb 37e6 843b a371 0b3b 2c26 fabb
00000060: 9b29 4b3b e259 3f3b e6e8 b23a bd40 ccbb
00000070: ce7d 31bb 669e 0e3b 1bf7 40b9 4a05 ce3a
00000080: ae89 c3ba 4dff d73a 7f6b 7ebb a4db c13b
00000090: 2fde d33b 9483 dc38 71d1 54bb acc5 19bb
000000a0: 262c 763b 636e ce3a 576a 883b 8f7e d039
000000b0: 2ea6 c43b fd26 6dba 8feb ec3b 6dd3 2ebc
000000c0: 907d 203c defa dbbb 037c 263b b0b7 f3b9
000000d0: a03e cc3a d349 e2bb df77 71b5 e0b8 6bbb
000000e0: 3f53 9f3b 79c6 8dbb fc8d dfba 1024 e43b
000000f0: fe58 d4bb 78c6 143c 4f45 24bb 83cb c33b
00000100: ce4f 48bb fc3b 463b 2de7 07bc b2ea 02bb
00000110: cc31 e63a 2c8f 753b 4869 43b9 88c1 253b
00000120: 4e81 503b 4ad8 ccba 2587 8a39 f208 abbb
00000130: 89cf ecbb f486 a33b 7568 3dbb 7cc9 22bb
00000140: 259a b23b d8f0 3ebb 8783 4939 ed65 60bb
00000150: 8e5d bbb9 4c44 d8ba 1cff 0639 782d 513a
00000160: 652e b43b 53fd b2bb d595 223b 9cc0 133c
00000170: 4bcb e23b 7329 b43a 9dbf 87bb b5d1 7c3b
00000180: ed93 a33b 8421 37bb 746c a939 9884 d7b9
00000190: fae7 23ba c1d3 723a f224 d1ba ef6b 7a3b
000001a0: 8ab7 afba 0aef fd3a 7c39 1fbc 6656 f73b
000001b0: 09ab 1a39 2df1 1cbc 581c 99b9 9831 9d3a
000001c0: f7f8 78bb 8f53 913b f542 e2bb bc42 ac39
000001d0: 3e05 9a3a d162 8aba a357 04ba 1fa1 143b
000001e0: ccf6 3d3b eef9 a0bb 2f78 1a3c dd8b dabb
000001f0: 1d71 f0b9 1618 563a de66 9a3b 8e5d cd3b
00000200: 6110 e4bb de4b 41bb 044b 43bb ded9 3ebb
00000210: 072a 1d3b b333 e6ba 7752 c5ba 61ee 3e3b
00000220: 5369 9739 793b 743b fa8b d73a 4f75 edba
00000230: c41b d4bb 0355 003c 6b8c 323c 8560 16bc
00000240: adfb c4ba cda5 0f3c be7b f93b 0f92 463b
00000250: c19e 2a3b b1ad 8438 af40 d83b 9ac1 94bb
00000260: 136e 0c3c 37e9 01ba 8ab5 c3bb 49e9 75bb
00000270: c9a1 a63b 7440 a2bb 134e 9aba 06b7 04bc
00000280: 6d05 be3b b049 b7bb 0bdb 5aba 57d3 61ba
00000290: 6c18 90b9 055f 2bbb 34d9 97ba 995b 983a
000002a0: 120e 013b 017b b6bb bdac 363a 39e5 97bb
000002b0: 6e5b af3a 60f9 e6bb b1c7 34bb a85b 2f3b
000002c0: 236e 0ebc 7805 493b e7de 84b9 8541 83bb
000002d0: d8a0 1a3a 51fc 803b c578 d13b 4d31 0ebc
000002e0: 0030 6839 78cc 433b 4c6c 693b 39fb 1f3b
000002f0: f579 3b3a a25e 193b cf91 28bb decf 993b
00000300: 11ae 8fb9 bafd 23bb c4dc 31bb 9b4e c83b
00000310: a7f6 edbb 6275 703b 4a17 a1b9 b0f6 a93a
00000320: 9040 013a 3e86 853b f3a7 70ba c68c 9939
00000330: 7e3b a93a 2efd 953b d7b5 fd3a 3c6d 07bc
00000340: f9e8 d33b c4b8 a2bb 1727 adba 4c46 ca3a
00000350: 2bc1 cfba e2fc 55ba 938f 903b 702b 03bc
00000360: 4fdb 9c3a a907 94bb 5814 0dbb 952f ad3b
00000370: 62b6 8b3b cce5 9a39 a9ad d4b8 2d22 36bb
00000380: c2a4 1bbb 42cb b3ba 6d1e b13b 1232 e4ba
00000390: e91f 113b 3af1 faba 9f9c 103b 6d5e 7e3b
000003a0: f85c 6e3b 258b 193b 01c6 3a3b 5618 9eb9
000003b0: 55f5 113c 089b 53ba ffb7 693a 3ea2 e536
000003c0: 0934 d8ba 0098 a6ba 8aec 9dbb e2e6 e939
000003d0: 4151 13bc ce6d f63b 099f 9eba 0a7f ad3a
000003e0: 340c 5dbb c365 a33b 5091 46bb 22de 0bbb
000003f0: 639c ac3a c311 d73b d7ae 293b 9807 8e36
